{"format": "graph-model", "generatedBy": "2.5.0", "convertedBy": "TensorFlow.js Converter v3.9.0", "signature": {"inputs": {"x": {"name": "x:0", "dtype": "DT_FLOAT", "tensorShape": {"dim": [{"size": "-1"}, {"size": "512"}, {"size": "512"}, {"size": "3"}]}}}, "outputs": {"output_0": {"name": "Identity:0", "dtype": "DT_FLOAT", "tensorShape": {"dim": [{"size": "-1"}, {"size": "512"}, {"size": "512"}, {"size": "1"}]}}}}, "modelTopology": {"node": [{"name": "StatefulPartitionedCall/sequential_4/conv2d_transpose_1/strided_slice/stack", "op": "Const", "attr": {"dtype": {"type": "DT_INT32"}, "value": {"tensor": {"dtype": "DT_INT32", "tensorShape": {"dim": [{"size": "1"}]}}}}}, {"name": "StatefulPartitionedCall/sequential_4/conv2d_transpose_1/strided_slice/stack_1", "op": "Const", "attr": {"dtype": {"type": "DT_INT32"}, "value": {"tensor": {"dtype": "DT_INT32", "tensorShape": {"dim": [{"size": "1"}]}}}}}, {"name": "StatefulPartitionedCall/sequential_4/conv2d_transpose_1/strided_slice/stack_2", "op": "Const", "attr": {"value": {"tensor": {"dtype": "DT_INT32", "tensorShape": {"dim": [{"size": "1"}]}}}, "dtype": {"type": "DT_INT32"}}}, {"name": "StatefulPartitionedCall/sequential_4/conv2d_transpose_1/stack/1", "op": "Const", "attr": {"value": {"tensor": {"dtype": "DT_INT32", "tensorShape": {}}}, "dtype": {"type": "DT_INT32"}}}, {"name": "StatefulPartitionedCall/sequential_4/conv2d_transpose_1/stack/2", "op": "Const", "attr": {"dtype": {"type": "DT_INT32"}, "value": {"tensor": {"dtype": "DT_INT32", "tensorShape": {}}}}}, {"name": "StatefulPartitionedCall/sequential_4/conv2d_transpose_1/stack/3", "op": "Const", "attr": {"dtype": {"type": "DT_INT32"}, "value": {"tensor": {"dtype": "DT_INT32", "tensorShape": {}}}}}, {"name": "StatefulPartitionedCall/sequential_4/conv2d_transpose_1/conv2d_transpose/ReadVariableOp", "op": "Const", "attr": {"dtype": {"type": "DT_FLOAT"}, "value": {"tensor": {"dtype": "DT_FLOAT", "tensorShape": {"dim": [{"size": "2"}, {"size": "2"}, {"size": "1"}, {"size": "64"}]}}}}}, {"name": "StatefulPartitionedCall/sequential_4/conv2d_transpose/strided_slice/stack", "op": "Const", "attr": {"value": {"tensor": {"dtype": "DT_INT32", "tensorShape": {"dim": [{"size": "1"}]}}}, "dtype": {"type": "DT_INT32"}}}, {"name": "StatefulPartitionedCall/sequential_4/conv2d_transpose/strided_slice/stack_1", "op": "Const", "attr": {"dtype": {"type": "DT_INT32"}, "value": {"tensor": {"dtype": "DT_INT32", "tensorShape": {"dim": [{"size": "1"}]}}}}}, {"name": "StatefulPartitionedCall/sequential_4/conv2d_transpose/strided_slice/stack_2", "op": "Const", "attr": {"value": {"tensor": {"dtype": "DT_INT32", "tensorShape": {"dim": [{"size": "1"}]}}}, "dtype": {"type": "DT_INT32"}}}, {"name": "StatefulPartitionedCall/sequential_4/conv2d_transpose/stack/1", "op": "Const", "attr": {"dtype": {"type": "DT_INT32"}, "value": {"tensor": {"dtype": "DT_INT32", "tensorShape": {}}}}}, {"name": "StatefulPartitionedCall/sequential_4/conv2d_transpose/stack/2", "op": "Const", "attr": {"dtype": {"type": "DT_INT32"}, "value": {"tensor": {"dtype": "DT_INT32", "tensorShape": {}}}}}, {"name": "StatefulPartitionedCall/sequential_4/conv2d_transpose/stack/3", "op": "Const", "attr": {"dtype": {"type": "DT_INT32"}, "value": {"tensor": {"dtype": "DT_INT32", "tensorShape": {}}}}}, {"name": "StatefulPartitionedCall/sequential_4/conv2d_transpose/conv2d_transpose/ReadVariableOp", "op": "Const", "attr": {"dtype": {"type": "DT_FLOAT"}, "value": {"tensor": {"dtype": "DT_FLOAT", "tensorShape": {"dim": [{"size": "2"}, {"size": "2"}, {"size": "64"}, {"size": "64"}]}}}}}, {"name": "StatefulPartitionedCall/feature_pyramid_network/conv2d/Conv2D/ReadVariableOp", "op": "Const", "attr": {"dtype": {"type": "DT_FLOAT"}, "value": {"tensor": {"dtype": "DT_FLOAT", "tensorShape": {"dim": [{"size": "1"}, {"size": "1"}, {"size": "144"}, {"size": "128"}]}}}}}, {"name": "StatefulPartitionedCall/feature_pyramid_network/conv2d/BiasAdd/ReadVariableOp", "op": "Const", "attr": {"dtype": {"type": "DT_FLOAT"}, "value": {"tensor": {"dtype": "DT_FLOAT", "tensorShape": {"dim": [{"size": "128"}]}}}}}, {"name": "StatefulPartitionedCall/feature_pyramid_network/conv2d_1/Conv2D/ReadVariableOp", "op": "Const", "attr": {"dtype": {"type": "DT_FLOAT"}, "value": {"tensor": {"dtype": "DT_FLOAT", "tensorShape": {"dim": [{"size": "1"}, {"size": "1"}, {"size": "192"}, {"size": "128"}]}}}}}, {"name": "StatefulPartitionedCall/feature_pyramid_network/conv2d_1/BiasAdd/ReadVariableOp", "op": "Const", "attr": {"dtype": {"type": "DT_FLOAT"}, "value": {"tensor": {"dtype": "DT_FLOAT", "tensorShape": {"dim": [{"size": "128"}]}}}}}, {"name": "StatefulPartitionedCall/feature_pyramid_network/sequential_1/up_sampling2d_1/mul", "op": "Const", "attr": {"dtype": {"type": "DT_INT32"}, "value": {"tensor": {"dtype": "DT_INT32", "tensorShape": {"dim": [{"size": "2"}]}}}}}, {"name": "StatefulPartitionedCall/feature_pyramid_network/conv2d_2/Conv2D/ReadVariableOp", "op": "Const", "attr": {"value": {"tensor": {"dtype": "DT_FLOAT", "tensorShape": {"dim": [{"size": "1"}, {"size": "1"}, {"size": "576"}, {"size": "128"}]}}}, "dtype": {"type": "DT_FLOAT"}}}, {"name": "StatefulPartitionedCall/feature_pyramid_network/conv2d_2/BiasAdd/ReadVariableOp", "op": "Const", "attr": {"dtype": {"type": "DT_FLOAT"}, "value": {"tensor": {"dtype": "DT_FLOAT", "tensorShape": {"dim": [{"size": "128"}]}}}}}, {"name": "StatefulPartitionedCall/feature_pyramid_network/sequential_2/up_sampling2d_2/mul", "op": "Const", "attr": {"value": {"tensor": {"dtype": "DT_INT32", "tensorShape": {"dim": [{"size": "2"}]}}}, "dtype": {"type": "DT_INT32"}}}, {"name": "StatefulPartitionedCall/intermediate_layer_getter/block_1_pad/Pad/paddings", "op": "Const", "attr": {"dtype": {"type": "DT_INT32"}, "value": {"tensor": {"dtype": "DT_INT32", "tensorShape": {"dim": [{"size": "4"}, {"size": "2"}]}}}}}, {"name": "StatefulPartitionedCall/intermediate_layer_getter/block_3_pad/Pad/paddings", "op": "Const", "attr": {"value": {"tensor": {"dtype": "DT_INT32", "tensorShape": {"dim": [{"size": "4"}, {"size": "2"}]}}}, "dtype": {"type": "DT_INT32"}}}, {"name": "StatefulPartitionedCall/intermediate_layer_getter/block_6_pad/Pad/paddings", "op": "Const", "attr": {"value": {"tensor": {"dtype": "DT_INT32", "tensorShape": {"dim": [{"size": "4"}, {"size": "2"}]}}}, "dtype": {"type": "DT_INT32"}}}, {"name": "StatefulPartitionedCall/intermediate_layer_getter/block_13_pad/Pad/paddings", "op": "Const", "attr": {"dtype": {"type": "DT_INT32"}, "value": {"tensor": {"dtype": "DT_INT32", "tensorShape": {"dim": [{"size": "4"}, {"size": "2"}]}}}}}, {"name": "StatefulPartitionedCall/feature_pyramid_network/conv2d_3/Conv2D/ReadVariableOp", "op": "Const", "attr": {"dtype": {"type": "DT_FLOAT"}, "value": {"tensor": {"dtype": "DT_FLOAT", "tensorShape": {"dim": [{"size": "1"}, {"size": "1"}, {"size": "1280"}, {"size": "128"}]}}}}}, {"name": "StatefulPartitionedCall/feature_pyramid_network/conv2d_3/BiasAdd/ReadVariableOp", "op": "Const", "attr": {"value": {"tensor": {"dtype": "DT_FLOAT", "tensorShape": {"dim": [{"size": "128"}]}}}, "dtype": {"type": "DT_FLOAT"}}}, {"name": "StatefulPartitionedCall/feature_pyramid_network/sequential_3/up_sampling2d_3/mul", "op": "Const", "attr": {"dtype": {"type": "DT_INT32"}, "value": {"tensor": {"dtype": "DT_INT32", "tensorShape": {"dim": [{"size": "2"}]}}}}}, {"name": "StatefulPartitionedCall/feature_pyramid_network/concatenate/concat/axis", "op": "Const", "attr": {"dtype": {"type": "DT_INT32"}, "value": {"tensor": {"dtype": "DT_INT32", "tensorShape": {}}}}}, {"name": "StatefulPartitionedCall/sequential_4/conv2d_transpose_1/BiasAdd/ReadVariableOp", "op": "Const", "attr": {"dtype": {"type": "DT_FLOAT"}, "value": {"tensor": {"dtype": "DT_FLOAT", "tensorShape": {"dim": [{"size": "1"}]}}}}}, {"name": "x", "op": "Placeholder", "attr": {"shape": {"shape": {"dim": [{"size": "-1"}, {"size": "512"}, {"size": "512"}, {"size": "3"}]}}, "dtype": {"type": "DT_FLOAT"}}}, {"name": "StatefulPartitionedCall/intermediate_layer_getter/Conv1/Conv2D_weights", "op": "Const", "attr": {"value": {"tensor": {"dtype": "DT_FLOAT", "tensorShape": {"dim": [{"size": "3"}, {"size": "3"}, {"size": "3"}, {"size": "32"}]}}}, "dtype": {"type": "DT_FLOAT"}}}, {"name": "StatefulPartitionedCall/intermediate_layer_getter/Conv1/Conv2D_bn_offset", "op": "Const", "attr": {"value": {"tensor": {"dtype": "DT_FLOAT", "tensorShape": {"dim": [{"size": "32"}]}}}, "dtype": {"type": "DT_FLOAT"}}}, {"name": "StatefulPartitionedCall/intermediate_layer_getter/block_15_expand/Conv2D_bn_offset", "op": "Const", "attr": {"dtype": {"type": "DT_FLOAT"}, "value": {"tensor": {"dtype": "DT_FLOAT", "tensorShape": {"dim": [{"size": "960"}]}}}}}, {"name": "StatefulPartitionedCall/intermediate_layer_getter/expanded_conv_depthwise/depthwise_weights", "op": "Const", "attr": {"value": {"tensor": {"dtype": "DT_FLOAT", "tensorShape": {"dim": [{"size": "3"}, {"size": "3"}, {"size": "32"}, {"size": "1"}]}}}, "dtype": {"type": "DT_FLOAT"}}}, {"name": "StatefulPartitionedCall/intermediate_layer_getter/expanded_conv_depthwise/depthwise_bn_offset", "op": "Const", "attr": {"value": {"tensor": {"dtype": "DT_FLOAT", "tensorShape": {"dim": [{"size": "32"}]}}}, "dtype": {"type": "DT_FLOAT"}}}, {"name": "StatefulPartitionedCall/intermediate_layer_getter/expanded_conv_project/Conv2D_weights", "op": "Const", "attr": {"dtype": {"type": "DT_FLOAT"}, "value": {"tensor": {"dtype": "DT_FLOAT", "tensorShape": {"dim": [{"size": "1"}, {"size": "1"}, {"size": "32"}, {"size": "16"}]}}}}}, {"name": "StatefulPartitionedCall/intermediate_layer_getter/expanded_conv_project/Conv2D_bn_offset", "op": "Const", "attr": {"dtype": {"type": "DT_FLOAT"}, "value": {"tensor": {"dtype": "DT_FLOAT", "tensorShape": {"dim": [{"size": "16"}]}}}}}, {"name": "StatefulPartitionedCall/intermediate_layer_getter/block_1_expand/Conv2D_weights", "op": "Const", "attr": {"value": {"tensor": {"dtype": "DT_FLOAT", "tensorShape": {"dim": [{"size": "1"}, {"size": "1"}, {"size": "16"}, {"size": "96"}]}}}, "dtype": {"type": "DT_FLOAT"}}}, {"name": "StatefulPartitionedCall/intermediate_layer_getter/block_1_expand/Conv2D_bn_offset", "op": "Const", "attr": {"dtype": {"type": "DT_FLOAT"}, "value": {"tensor": {"dtype": "DT_FLOAT", "tensorShape": {"dim": [{"size": "96"}]}}}}}, {"name": "StatefulPartitionedCall/intermediate_layer_getter/block_15_depthwise/depthwise_weights", "op": "Const", "attr": {"dtype": {"type": "DT_FLOAT"}, "value": {"tensor": {"dtype": "DT_FLOAT", "tensorShape": {"dim": [{"size": "3"}, {"size": "3"}, {"size": "960"}, {"size": "1"}]}}}}}, {"name": "StatefulPartitionedCall/intermediate_layer_getter/block_1_depthwise/depthwise_weights", "op": "Const", "attr": {"dtype": {"type": "DT_FLOAT"}, "value": {"tensor": {"dtype": "DT_FLOAT", "tensorShape": {"dim": [{"size": "3"}, {"size": "3"}, {"size": "96"}, {"size": "1"}]}}}}}, {"name": "StatefulPartitionedCall/intermediate_layer_getter/block_1_depthwise/depthwise_bn_offset", "op": "Const", "attr": {"value": {"tensor": {"dtype": "DT_FLOAT", "tensorShape": {"dim": [{"size": "96"}]}}}, "dtype": {"type": "DT_FLOAT"}}}, {"name": "StatefulPartitionedCall/intermediate_layer_getter/block_1_project/Conv2D_weights", "op": "Const", "attr": {"dtype": {"type": "DT_FLOAT"}, "value": {"tensor": {"dtype": "DT_FLOAT", "tensorShape": {"dim": [{"size": "1"}, {"size": "1"}, {"size": "96"}, {"size": "24"}]}}}}}, {"name": "StatefulPartitionedCall/intermediate_layer_getter/block_1_project/Conv2D_bn_offset", "op": "Const", "attr": {"value": {"tensor": {"dtype": "DT_FLOAT", "tensorShape": {"dim": [{"size": "24"}]}}}, "dtype": {"type": "DT_FLOAT"}}}, {"name": "StatefulPartitionedCall/intermediate_layer_getter/block_2_expand/Conv2D_weights", "op": "Const", "attr": {"dtype": {"type": "DT_FLOAT"}, "value": {"tensor": {"dtype": "DT_FLOAT", "tensorShape": {"dim": [{"size": "1"}, {"size": "1"}, {"size": "24"}, {"size": "144"}]}}}}}, {"name": "StatefulPartitionedCall/intermediate_layer_getter/block_15_depthwise/depthwise_bn_offset", "op": "Const", "attr": {"value": {"tensor": {"dtype": "DT_FLOAT", "tensorShape": {"dim": [{"size": "960"}]}}}, "dtype": {"type": "DT_FLOAT"}}}, {"name": "StatefulPartitionedCall/intermediate_layer_getter/block_2_expand/Conv2D_bn_offset", "op": "Const", "attr": {"value": {"tensor": {"dtype": "DT_FLOAT", "tensorShape": {"dim": [{"size": "144"}]}}}, "dtype": {"type": "DT_FLOAT"}}}, {"name": "StatefulPartitionedCall/intermediate_layer_getter/block_2_depthwise/depthwise_weights", "op": "Const", "attr": {"value": {"tensor": {"dtype": "DT_FLOAT", "tensorShape": {"dim": [{"size": "3"}, {"size": "3"}, {"size": "144"}, {"size": "1"}]}}}, "dtype": {"type": "DT_FLOAT"}}}, {"name": "StatefulPartitionedCall/intermediate_layer_getter/block_2_depthwise/depthwise_bn_offset", "op": "Const", "attr": {"value": {"tensor": {"dtype": "DT_FLOAT", "tensorShape": {"dim": [{"size": "144"}]}}}, "dtype": {"type": "DT_FLOAT"}}}, {"name": "StatefulPartitionedCall/intermediate_layer_getter/block_2_project/Conv2D_weights", "op": "Const", "attr": {"dtype": {"type": "DT_FLOAT"}, "value": {"tensor": {"dtype": "DT_FLOAT", "tensorShape": {"dim": [{"size": "1"}, {"size": "1"}, {"size": "144"}, {"size": "24"}]}}}}}, {"name": "StatefulPartitionedCall/intermediate_layer_getter/block_2_project/Conv2D_bn_offset", "op": "Const", "attr": {"value": {"tensor": {"dtype": "DT_FLOAT", "tensorShape": {"dim": [{"size": "24"}]}}}, "dtype": {"type": "DT_FLOAT"}}}, {"name": "StatefulPartitionedCall/intermediate_layer_getter/block_3_expand/Conv2D_weights", "op": "Const", "attr": {"dtype": {"type": "DT_FLOAT"}, "value": {"tensor": {"dtype": "DT_FLOAT", "tensorShape": {"dim": [{"size": "1"}, {"size": "1"}, {"size": "24"}, {"size": "144"}]}}}}}, {"name": "StatefulPartitionedCall/intermediate_layer_getter/block_15_project/Conv2D_weights", "op": "Const", "attr": {"dtype": {"type": "DT_FLOAT"}, "value": {"tensor": {"dtype": "DT_FLOAT", "tensorShape": {"dim": [{"size": "1"}, {"size": "1"}, {"size": "960"}, {"size": "160"}]}}}}}, {"name": "StatefulPartitionedCall/intermediate_layer_getter/block_3_expand/Conv2D_bn_offset", "op": "Const", "attr": {"value": {"tensor": {"dtype": "DT_FLOAT", "tensorShape": {"dim": [{"size": "144"}]}}}, "dtype": {"type": "DT_FLOAT"}}}, {"name": "StatefulPartitionedCall/intermediate_layer_getter/block_15_project/Conv2D_bn_offset", "op": "Const", "attr": {"value": {"tensor": {"dtype": "DT_FLOAT", "tensorShape": {"dim": [{"size": "160"}]}}}, "dtype": {"type": "DT_FLOAT"}}}, {"name": "StatefulPartitionedCall/intermediate_layer_getter/block_3_depthwise/depthwise_weights", "op": "Const", "attr": {"value": {"tensor": {"dtype": "DT_FLOAT", "tensorShape": {"dim": [{"size": "3"}, {"size": "3"}, {"size": "144"}, {"size": "1"}]}}}, "dtype": {"type": "DT_FLOAT"}}}, {"name": "StatefulPartitionedCall/intermediate_layer_getter/block_3_depthwise/depthwise_bn_offset", "op": "Const", "attr": {"value": {"tensor": {"dtype": "DT_FLOAT", "tensorShape": {"dim": [{"size": "144"}]}}}, "dtype": {"type": "DT_FLOAT"}}}, {"name": "StatefulPartitionedCall/feature_pyramid_network/sequential/conv2d_4/Conv2D_weights", "op": "Const", "attr": {"dtype": {"type": "DT_FLOAT"}, "value": {"tensor": {"dtype": "DT_FLOAT", "tensorShape": {"dim": [{"size": "3"}, {"size": "3"}, {"size": "128"}, {"size": "128"}]}}}}}, {"name": "StatefulPartitionedCall/feature_pyramid_network/sequential/conv2d_4/Conv2D_bn_offset", "op": "Const", "attr": {"value": {"tensor": {"dtype": "DT_FLOAT", "tensorShape": {"dim": [{"size": "128"}]}}}, "dtype": {"type": "DT_FLOAT"}}}, {"name": "StatefulPartitionedCall/intermediate_layer_getter/block_3_project/Conv2D_weights", "op": "Const", "attr": {"dtype": {"type": "DT_FLOAT"}, "value": {"tensor": {"dtype": "DT_FLOAT", "tensorShape": {"dim": [{"size": "1"}, {"size": "1"}, {"size": "144"}, {"size": "32"}]}}}}}, {"name": "StatefulPartitionedCall/intermediate_layer_getter/block_16_expand/Conv2D_weights", "op": "Const", "attr": {"value": {"tensor": {"dtype": "DT_FLOAT", "tensorShape": {"dim": [{"size": "1"}, {"size": "1"}, {"size": "160"}, {"size": "960"}]}}}, "dtype": {"type": "DT_FLOAT"}}}, {"name": "StatefulPartitionedCall/intermediate_layer_getter/block_3_project/Conv2D_bn_offset", "op": "Const", "attr": {"dtype": {"type": "DT_FLOAT"}, "value": {"tensor": {"dtype": "DT_FLOAT", "tensorShape": {"dim": [{"size": "32"}]}}}}}, {"name": "StatefulPartitionedCall/intermediate_layer_getter/block_4_expand/Conv2D_weights", "op": "Const", "attr": {"dtype": {"type": "DT_FLOAT"}, "value": {"tensor": {"dtype": "DT_FLOAT", "tensorShape": {"dim": [{"size": "1"}, {"size": "1"}, {"size": "32"}, {"size": "192"}]}}}}}, {"name": "StatefulPartitionedCall/intermediate_layer_getter/block_4_expand/Conv2D_bn_offset", "op": "Const", "attr": {"dtype": {"type": "DT_FLOAT"}, "value": {"tensor": {"dtype": "DT_FLOAT", "tensorShape": {"dim": [{"size": "192"}]}}}}}, {"name": "StatefulPartitionedCall/intermediate_layer_getter/block_16_expand/Conv2D_bn_offset", "op": "Const", "attr": {"dtype": {"type": "DT_FLOAT"}, "value": {"tensor": {"dtype": "DT_FLOAT", "tensorShape": {"dim": [{"size": "960"}]}}}}}, {"name": "StatefulPartitionedCall/intermediate_layer_getter/block_4_depthwise/depthwise_weights", "op": "Const", "attr": {"dtype": {"type": "DT_FLOAT"}, "value": {"tensor": {"dtype": "DT_FLOAT", "tensorShape": {"dim": [{"size": "3"}, {"size": "3"}, {"size": "192"}, {"size": "1"}]}}}}}, {"name": "StatefulPartitionedCall/intermediate_layer_getter/block_4_depthwise/depthwise_bn_offset", "op": "Const", "attr": {"value": {"tensor": {"dtype": "DT_FLOAT", "tensorShape": {"dim": [{"size": "192"}]}}}, "dtype": {"type": "DT_FLOAT"}}}, {"name": "StatefulPartitionedCall/intermediate_layer_getter/block_4_project/Conv2D_weights", "op": "Const", "attr": {"value": {"tensor": {"dtype": "DT_FLOAT", "tensorShape": {"dim": [{"size": "1"}, {"size": "1"}, {"size": "192"}, {"size": "32"}]}}}, "dtype": {"type": "DT_FLOAT"}}}, {"name": "StatefulPartitionedCall/intermediate_layer_getter/block_4_project/Conv2D_bn_offset", "op": "Const", "attr": {"value": {"tensor": {"dtype": "DT_FLOAT", "tensorShape": {"dim": [{"size": "32"}]}}}, "dtype": {"type": "DT_FLOAT"}}}, {"name": "StatefulPartitionedCall/intermediate_layer_getter/block_5_expand/Conv2D_weights", "op": "Const", "attr": {"dtype": {"type": "DT_FLOAT"}, "value": {"tensor": {"dtype": "DT_FLOAT", "tensorShape": {"dim": [{"size": "1"}, {"size": "1"}, {"size": "32"}, {"size": "192"}]}}}}}, {"name": "StatefulPartitionedCall/intermediate_layer_getter/block_5_expand/Conv2D_bn_offset", "op": "Const", "attr": {"dtype": {"type": "DT_FLOAT"}, "value": {"tensor": {"dtype": "DT_FLOAT", "tensorShape": {"dim": [{"size": "192"}]}}}}}, {"name": "StatefulPartitionedCall/intermediate_layer_getter/block_16_depthwise/depthwise_weights", "op": "Const", "attr": {"dtype": {"type": "DT_FLOAT"}, "value": {"tensor": {"dtype": "DT_FLOAT", "tensorShape": {"dim": [{"size": "3"}, {"size": "3"}, {"size": "960"}, {"size": "1"}]}}}}}, {"name": "StatefulPartitionedCall/intermediate_layer_getter/block_5_depthwise/depthwise_weights", "op": "Const", "attr": {"dtype": {"type": "DT_FLOAT"}, "value": {"tensor": {"dtype": "DT_FLOAT", "tensorShape": {"dim": [{"size": "3"}, {"size": "3"}, {"size": "192"}, {"size": "1"}]}}}}}, {"name": "StatefulPartitionedCall/intermediate_layer_getter/block_5_depthwise/depthwise_bn_offset", "op": "Const", "attr": {"dtype": {"type": "DT_FLOAT"}, "value": {"tensor": {"dtype": "DT_FLOAT", "tensorShape": {"dim": [{"size": "192"}]}}}}}, {"name": "StatefulPartitionedCall/intermediate_layer_getter/block_5_project/Conv2D_weights", "op": "Const", "attr": {"value": {"tensor": {"dtype": "DT_FLOAT", "tensorShape": {"dim": [{"size": "1"}, {"size": "1"}, {"size": "192"}, {"size": "32"}]}}}, "dtype": {"type": "DT_FLOAT"}}}, {"name": "StatefulPartitionedCall/intermediate_layer_getter/block_5_project/Conv2D_bn_offset", "op": "Const", "attr": {"dtype": {"type": "DT_FLOAT"}, "value": {"tensor": {"dtype": "DT_FLOAT", "tensorShape": {"dim": [{"size": "32"}]}}}}}, {"name": "StatefulPartitionedCall/intermediate_layer_getter/block_6_expand/Conv2D_weights", "op": "Const", "attr": {"dtype": {"type": "DT_FLOAT"}, "value": {"tensor": {"dtype": "DT_FLOAT", "tensorShape": {"dim": [{"size": "1"}, {"size": "1"}, {"size": "32"}, {"size": "192"}]}}}}}, {"name": "StatefulPartitionedCall/intermediate_layer_getter/block_16_depthwise/depthwise_bn_offset", "op": "Const", "attr": {"value": {"tensor": {"dtype": "DT_FLOAT", "tensorShape": {"dim": [{"size": "960"}]}}}, "dtype": {"type": "DT_FLOAT"}}}, {"name": "StatefulPartitionedCall/intermediate_layer_getter/block_6_expand/Conv2D_bn_offset", "op": "Const", "attr": {"value": {"tensor": {"dtype": "DT_FLOAT", "tensorShape": {"dim": [{"size": "192"}]}}}, "dtype": {"type": "DT_FLOAT"}}}, {"name": "StatefulPartitionedCall/intermediate_layer_getter/block_6_depthwise/depthwise_weights", "op": "Const", "attr": {"value": {"tensor": {"dtype": "DT_FLOAT", "tensorShape": {"dim": [{"size": "3"}, {"size": "3"}, {"size": "192"}, {"size": "1"}]}}}, "dtype": {"type": "DT_FLOAT"}}}, {"name": "StatefulPartitionedCall/intermediate_layer_getter/block_6_depthwise/depthwise_bn_offset", "op": "Const", "attr": {"dtype": {"type": "DT_FLOAT"}, "value": {"tensor": {"dtype": "DT_FLOAT", "tensorShape": {"dim": [{"size": "192"}]}}}}}, {"name": "StatefulPartitionedCall/feature_pyramid_network/sequential_1/conv2d_5/Conv2D_weights", "op": "Const", "attr": {"dtype": {"type": "DT_FLOAT"}, "value": {"tensor": {"dtype": "DT_FLOAT", "tensorShape": {"dim": [{"size": "3"}, {"size": "3"}, {"size": "128"}, {"size": "128"}]}}}}}, {"name": "StatefulPartitionedCall/intermediate_layer_getter/block_16_project/Conv2D_weights", "op": "Const", "attr": {"value": {"tensor": {"dtype": "DT_FLOAT", "tensorShape": {"dim": [{"size": "1"}, {"size": "1"}, {"size": "960"}, {"size": "320"}]}}}, "dtype": {"type": "DT_FLOAT"}}}, {"name": "StatefulPartitionedCall/feature_pyramid_network/sequential_1/conv2d_5/Conv2D_bn_offset", "op": "Const", "attr": {"dtype": {"type": "DT_FLOAT"}, "value": {"tensor": {"dtype": "DT_FLOAT", "tensorShape": {"dim": [{"size": "128"}]}}}}}, {"name": "StatefulPartitionedCall/intermediate_layer_getter/block_6_project/Conv2D_weights", "op": "Const", "attr": {"value": {"tensor": {"dtype": "DT_FLOAT", "tensorShape": {"dim": [{"size": "1"}, {"size": "1"}, {"size": "192"}, {"size": "64"}]}}}, "dtype": {"type": "DT_FLOAT"}}}, {"name": "StatefulPartitionedCall/intermediate_layer_getter/block_16_project/Conv2D_bn_offset", "op": "Const", "attr": {"value": {"tensor": {"dtype": "DT_FLOAT", "tensorShape": {"dim": [{"size": "320"}]}}}, "dtype": {"type": "DT_FLOAT"}}}, {"name": "StatefulPartitionedCall/intermediate_layer_getter/block_6_project/Conv2D_bn_offset", "op": "Const", "attr": {"value": {"tensor": {"dtype": "DT_FLOAT", "tensorShape": {"dim": [{"size": "64"}]}}}, "dtype": {"type": "DT_FLOAT"}}}, {"name": "StatefulPartitionedCall/intermediate_layer_getter/block_7_expand/Conv2D_weights", "op": "Const", "attr": {"value": {"tensor": {"dtype": "DT_FLOAT", "tensorShape": {"dim": [{"size": "1"}, {"size": "1"}, {"size": "64"}, {"size": "384"}]}}}, "dtype": {"type": "DT_FLOAT"}}}, {"name": "StatefulPartitionedCall/intermediate_layer_getter/block_7_expand/Conv2D_bn_offset", "op": "Const", "attr": {"value": {"tensor": {"dtype": "DT_FLOAT", "tensorShape": {"dim": [{"size": "384"}]}}}, "dtype": {"type": "DT_FLOAT"}}}, {"name": "StatefulPartitionedCall/intermediate_layer_getter/Conv_1/Conv2D_weights", "op": "Const", "attr": {"value": {"tensor": {"dtype": "DT_FLOAT", "tensorShape": {"dim": [{"size": "1"}, {"size": "1"}, {"size": "320"}, {"size": "1280"}]}}}, "dtype": {"type": "DT_FLOAT"}}}, {"name": "StatefulPartitionedCall/intermediate_layer_getter/block_7_depthwise/depthwise_weights", "op": "Const", "attr": {"dtype": {"type": "DT_FLOAT"}, "value": {"tensor": {"dtype": "DT_FLOAT", "tensorShape": {"dim": [{"size": "3"}, {"size": "3"}, {"size": "384"}, {"size": "1"}]}}}}}, {"name": "StatefulPartitionedCall/intermediate_layer_getter/block_7_depthwise/depthwise_bn_offset", "op": "Const", "attr": {"value": {"tensor": {"dtype": "DT_FLOAT", "tensorShape": {"dim": [{"size": "384"}]}}}, "dtype": {"type": "DT_FLOAT"}}}, {"name": "StatefulPartitionedCall/intermediate_layer_getter/block_7_project/Conv2D_weights", "op": "Const", "attr": {"dtype": {"type": "DT_FLOAT"}, "value": {"tensor": {"dtype": "DT_FLOAT", "tensorShape": {"dim": [{"size": "1"}, {"size": "1"}, {"size": "384"}, {"size": "64"}]}}}}}, {"name": "StatefulPartitionedCall/intermediate_layer_getter/block_7_project/Conv2D_bn_offset", "op": "Const", "attr": {"dtype": {"type": "DT_FLOAT"}, "value": {"tensor": {"dtype": "DT_FLOAT", "tensorShape": {"dim": [{"size": "64"}]}}}}}, {"name": "StatefulPartitionedCall/intermediate_layer_getter/block_8_expand/Conv2D_weights", "op": "Const", "attr": {"dtype": {"type": "DT_FLOAT"}, "value": {"tensor": {"dtype": "DT_FLOAT", "tensorShape": {"dim": [{"size": "1"}, {"size": "1"}, {"size": "64"}, {"size": "384"}]}}}}}, {"name": "StatefulPartitionedCall/intermediate_layer_getter/Conv_1/Conv2D_bn_offset", "op": "Const", "attr": {"value": {"tensor": {"dtype": "DT_FLOAT", "tensorShape": {"dim": [{"size": "1280"}]}}}, "dtype": {"type": "DT_FLOAT"}}}, {"name": "StatefulPartitionedCall/intermediate_layer_getter/block_8_expand/Conv2D_bn_offset", "op": "Const", "attr": {"value": {"tensor": {"dtype": "DT_FLOAT", "tensorShape": {"dim": [{"size": "384"}]}}}, "dtype": {"type": "DT_FLOAT"}}}, {"name": "StatefulPartitionedCall/intermediate_layer_getter/block_8_depthwise/depthwise_weights", "op": "Const", "attr": {"dtype": {"type": "DT_FLOAT"}, "value": {"tensor": {"dtype": "DT_FLOAT", "tensorShape": {"dim": [{"size": "3"}, {"size": "3"}, {"size": "384"}, {"size": "1"}]}}}}}, {"name": "StatefulPartitionedCall/intermediate_layer_getter/block_8_depthwise/depthwise_bn_offset", "op": "Const", "attr": {"dtype": {"type": "DT_FLOAT"}, "value": {"tensor": {"dtype": "DT_FLOAT", "tensorShape": {"dim": [{"size": "384"}]}}}}}, {"name": "StatefulPartitionedCall/intermediate_layer_getter/block_8_project/Conv2D_weights", "op": "Const", "attr": {"dtype": {"type": "DT_FLOAT"}, "value": {"tensor": {"dtype": "DT_FLOAT", "tensorShape": {"dim": [{"size": "1"}, {"size": "1"}, {"size": "384"}, {"size": "64"}]}}}}}, {"name": "StatefulPartitionedCall/intermediate_layer_getter/block_8_project/Conv2D_bn_offset", "op": "Const", "attr": {"value": {"tensor": {"dtype": "DT_FLOAT", "tensorShape": {"dim": [{"size": "64"}]}}}, "dtype": {"type": "DT_FLOAT"}}}, {"name": "StatefulPartitionedCall/intermediate_layer_getter/block_9_expand/Conv2D_weights", "op": "Const", "attr": {"value": {"tensor": {"dtype": "DT_FLOAT", "tensorShape": {"dim": [{"size": "1"}, {"size": "1"}, {"size": "64"}, {"size": "384"}]}}}, "dtype": {"type": "DT_FLOAT"}}}, {"name": "StatefulPartitionedCall/intermediate_layer_getter/block_9_expand/Conv2D_bn_offset", "op": "Const", "attr": {"value": {"tensor": {"dtype": "DT_FLOAT", "tensorShape": {"dim": [{"size": "384"}]}}}, "dtype": {"type": "DT_FLOAT"}}}, {"name": "StatefulPartitionedCall/intermediate_layer_getter/block_9_depthwise/depthwise_weights", "op": "Const", "attr": {"value": {"tensor": {"dtype": "DT_FLOAT", "tensorShape": {"dim": [{"size": "3"}, {"size": "3"}, {"size": "384"}, {"size": "1"}]}}}, "dtype": {"type": "DT_FLOAT"}}}, {"name": "StatefulPartitionedCall/intermediate_layer_getter/block_9_depthwise/depthwise_bn_offset", "op": "Const", "attr": {"dtype": {"type": "DT_FLOAT"}, "value": {"tensor": {"dtype": "DT_FLOAT", "tensorShape": {"dim": [{"size": "384"}]}}}}}, {"name": "StatefulPartitionedCall/intermediate_layer_getter/block_9_project/Conv2D_weights", "op": "Const", "attr": {"value": {"tensor": {"dtype": "DT_FLOAT", "tensorShape": {"dim": [{"size": "1"}, {"size": "1"}, {"size": "384"}, {"size": "64"}]}}}, "dtype": {"type": "DT_FLOAT"}}}, {"name": "StatefulPartitionedCall/feature_pyramid_network/sequential_3/conv2d_7/Conv2D_weights", "op": "Const", "attr": {"value": {"tensor": {"dtype": "DT_FLOAT", "tensorShape": {"dim": [{"size": "3"}, {"size": "3"}, {"size": "128"}, {"size": "128"}]}}}, "dtype": {"type": "DT_FLOAT"}}}, {"name": "StatefulPartitionedCall/intermediate_layer_getter/block_9_project/Conv2D_bn_offset", "op": "Const", "attr": {"dtype": {"type": "DT_FLOAT"}, "value": {"tensor": {"dtype": "DT_FLOAT", "tensorShape": {"dim": [{"size": "64"}]}}}}}, {"name": "StatefulPartitionedCall/intermediate_layer_getter/block_10_expand/Conv2D_weights", "op": "Const", "attr": {"value": {"tensor": {"dtype": "DT_FLOAT", "tensorShape": {"dim": [{"size": "1"}, {"size": "1"}, {"size": "64"}, {"size": "384"}]}}}, "dtype": {"type": "DT_FLOAT"}}}, {"name": "StatefulPartitionedCall/sequential_4/batch_normalization_5/FusedBatchNormV3/Scaled", "op": "Const", "attr": {"value": {"tensor": {"dtype": "DT_FLOAT", "tensorShape": {"dim": [{"size": "64"}]}}}, "dtype": {"type": "DT_FLOAT"}}}, {"name": "StatefulPartitionedCall/intermediate_layer_getter/block_10_expand/Conv2D_bn_offset", "op": "Const", "attr": {"value": {"tensor": {"dtype": "DT_FLOAT", "tensorShape": {"dim": [{"size": "384"}]}}}, "dtype": {"type": "DT_FLOAT"}}}, {"name": "StatefulPartitionedCall/feature_pyramid_network/sequential_3/conv2d_7/Conv2D_bn_offset", "op": "Const", "attr": {"value": {"tensor": {"dtype": "DT_FLOAT", "tensorShape": {"dim": [{"size": "128"}]}}}, "dtype": {"type": "DT_FLOAT"}}}, {"name": "StatefulPartitionedCall/intermediate_layer_getter/block_10_depthwise/depthwise_weights", "op": "Const", "attr": {"dtype": {"type": "DT_FLOAT"}, "value": {"tensor": {"dtype": "DT_FLOAT", "tensorShape": {"dim": [{"size": "3"}, {"size": "3"}, {"size": "384"}, {"size": "1"}]}}}}}, {"name": "StatefulPartitionedCall/intermediate_layer_getter/block_10_depthwise/depthwise_bn_offset", "op": "Const", "attr": {"value": {"tensor": {"dtype": "DT_FLOAT", "tensorShape": {"dim": [{"size": "384"}]}}}, "dtype": {"type": "DT_FLOAT"}}}, {"name": "StatefulPartitionedCall/intermediate_layer_getter/block_10_project/Conv2D_weights", "op": "Const", "attr": {"dtype": {"type": "DT_FLOAT"}, "value": {"tensor": {"dtype": "DT_FLOAT", "tensorShape": {"dim": [{"size": "1"}, {"size": "1"}, {"size": "384"}, {"size": "96"}]}}}}}, {"name": "StatefulPartitionedCall/intermediate_layer_getter/block_10_project/Conv2D_bn_offset", "op": "Const", "attr": {"value": {"tensor": {"dtype": "DT_FLOAT", "tensorShape": {"dim": [{"size": "96"}]}}}, "dtype": {"type": "DT_FLOAT"}}}, {"name": "StatefulPartitionedCall/intermediate_layer_getter/block_11_expand/Conv2D_weights", "op": "Const", "attr": {"value": {"tensor": {"dtype": "DT_FLOAT", "tensorShape": {"dim": [{"size": "1"}, {"size": "1"}, {"size": "96"}, {"size": "576"}]}}}, "dtype": {"type": "DT_FLOAT"}}}, {"name": "StatefulPartitionedCall/intermediate_layer_getter/block_11_expand/Conv2D_bn_offset", "op": "Const", "attr": {"value": {"tensor": {"dtype": "DT_FLOAT", "tensorShape": {"dim": [{"size": "576"}]}}}, "dtype": {"type": "DT_FLOAT"}}}, {"name": "StatefulPartitionedCall/intermediate_layer_getter/block_11_depthwise/depthwise_weights", "op": "Const", "attr": {"dtype": {"type": "DT_FLOAT"}, "value": {"tensor": {"dtype": "DT_FLOAT", "tensorShape": {"dim": [{"size": "3"}, {"size": "3"}, {"size": "576"}, {"size": "1"}]}}}}}, {"name": "StatefulPartitionedCall/intermediate_layer_getter/block_11_depthwise/depthwise_bn_offset", "op": "Const", "attr": {"dtype": {"type": "DT_FLOAT"}, "value": {"tensor": {"dtype": "DT_FLOAT", "tensorShape": {"dim": [{"size": "576"}]}}}}}, {"name": "StatefulPartitionedCall/intermediate_layer_getter/block_11_project/Conv2D_weights", "op": "Const", "attr": {"value": {"tensor": {"dtype": "DT_FLOAT", "tensorShape": {"dim": [{"size": "1"}, {"size": "1"}, {"size": "576"}, {"size": "96"}]}}}, "dtype": {"type": "DT_FLOAT"}}}, {"name": "StatefulPartitionedCall/intermediate_layer_getter/block_11_project/Conv2D_bn_offset", "op": "Const", "attr": {"value": {"tensor": {"dtype": "DT_FLOAT", "tensorShape": {"dim": [{"size": "96"}]}}}, "dtype": {"type": "DT_FLOAT"}}}, {"name": "StatefulPartitionedCall/intermediate_layer_getter/block_12_expand/Conv2D_weights", "op": "Const", "attr": {"value": {"tensor": {"dtype": "DT_FLOAT", "tensorShape": {"dim": [{"size": "1"}, {"size": "1"}, {"size": "96"}, {"size": "576"}]}}}, "dtype": {"type": "DT_FLOAT"}}}, {"name": "StatefulPartitionedCall/sequential_4/conv2d_8/Conv2D_weights", "op": "Const", "attr": {"value": {"tensor": {"dtype": "DT_FLOAT", "tensorShape": {"dim": [{"size": "3"}, {"size": "3"}, {"size": "512"}, {"size": "64"}]}}}, "dtype": {"type": "DT_FLOAT"}}}, {"name": "StatefulPartitionedCall/intermediate_layer_getter/block_12_expand/Conv2D_bn_offset", "op": "Const", "attr": {"dtype": {"type": "DT_FLOAT"}, "value": {"tensor": {"dtype": "DT_FLOAT", "tensorShape": {"dim": [{"size": "576"}]}}}}}, {"name": "StatefulPartitionedCall/intermediate_layer_getter/block_12_depthwise/depthwise_weights", "op": "Const", "attr": {"value": {"tensor": {"dtype": "DT_FLOAT", "tensorShape": {"dim": [{"size": "3"}, {"size": "3"}, {"size": "576"}, {"size": "1"}]}}}, "dtype": {"type": "DT_FLOAT"}}}, {"name": "StatefulPartitionedCall/intermediate_layer_getter/block_12_depthwise/depthwise_bn_offset", "op": "Const", "attr": {"value": {"tensor": {"dtype": "DT_FLOAT", "tensorShape": {"dim": [{"size": "576"}]}}}, "dtype": {"type": "DT_FLOAT"}}}, {"name": "StatefulPartitionedCall/intermediate_layer_getter/block_12_project/Conv2D_weights", "op": "Const", "attr": {"value": {"tensor": {"dtype": "DT_FLOAT", "tensorShape": {"dim": [{"size": "1"}, {"size": "1"}, {"size": "576"}, {"size": "96"}]}}}, "dtype": {"type": "DT_FLOAT"}}}, {"name": "StatefulPartitionedCall/sequential_4/conv2d_8/Conv2D_bn_offset", "op": "Const", "attr": {"value": {"tensor": {"dtype": "DT_FLOAT", "tensorShape": {"dim": [{"size": "64"}]}}}, "dtype": {"type": "DT_FLOAT"}}}, {"name": "StatefulPartitionedCall/intermediate_layer_getter/block_12_project/Conv2D_bn_offset", "op": "Const", "attr": {"value": {"tensor": {"dtype": "DT_FLOAT", "tensorShape": {"dim": [{"size": "96"}]}}}, "dtype": {"type": "DT_FLOAT"}}}, {"name": "StatefulPartitionedCall/intermediate_layer_getter/block_13_expand/Conv2D_weights", "op": "Const", "attr": {"dtype": {"type": "DT_FLOAT"}, "value": {"tensor": {"dtype": "DT_FLOAT", "tensorShape": {"dim": [{"size": "1"}, {"size": "1"}, {"size": "96"}, {"size": "576"}]}}}}}, {"name": "StatefulPartitionedCall/sequential_4/batch_normalization_5/FusedBatchNormV3/Offset", "op": "Const", "attr": {"dtype": {"type": "DT_FLOAT"}, "value": {"tensor": {"dtype": "DT_FLOAT", "tensorShape": {"dim": [{"size": "64"}]}}}}}, {"name": "StatefulPartitionedCall/intermediate_layer_getter/block_13_expand/Conv2D_bn_offset", "op": "Const", "attr": {"value": {"tensor": {"dtype": "DT_FLOAT", "tensorShape": {"dim": [{"size": "576"}]}}}, "dtype": {"type": "DT_FLOAT"}}}, {"name": "StatefulPartitionedCall/intermediate_layer_getter/block_13_depthwise/depthwise_weights", "op": "Const", "attr": {"dtype": {"type": "DT_FLOAT"}, "value": {"tensor": {"dtype": "DT_FLOAT", "tensorShape": {"dim": [{"size": "3"}, {"size": "3"}, {"size": "576"}, {"size": "1"}]}}}}}, {"name": "StatefulPartitionedCall/intermediate_layer_getter/block_13_depthwise/depthwise_bn_offset", "op": "Const", "attr": {"value": {"tensor": {"dtype": "DT_FLOAT", "tensorShape": {"dim": [{"size": "576"}]}}}, "dtype": {"type": "DT_FLOAT"}}}, {"name": "StatefulPartitionedCall/feature_pyramid_network/sequential_2/conv2d_6/Conv2D_weights", "op": "Const", "attr": {"dtype": {"type": "DT_FLOAT"}, "value": {"tensor": {"dtype": "DT_FLOAT", "tensorShape": {"dim": [{"size": "3"}, {"size": "3"}, {"size": "128"}, {"size": "128"}]}}}}}, {"name": "StatefulPartitionedCall/feature_pyramid_network/sequential_2/conv2d_6/Conv2D_bn_offset", "op": "Const", "attr": {"dtype": {"type": "DT_FLOAT"}, "value": {"tensor": {"dtype": "DT_FLOAT", "tensorShape": {"dim": [{"size": "128"}]}}}}}, {"name": "StatefulPartitionedCall/intermediate_layer_getter/block_13_project/Conv2D_weights", "op": "Const", "attr": {"value": {"tensor": {"dtype": "DT_FLOAT", "tensorShape": {"dim": [{"size": "1"}, {"size": "1"}, {"size": "576"}, {"size": "160"}]}}}, "dtype": {"type": "DT_FLOAT"}}}, {"name": "StatefulPartitionedCall/intermediate_layer_getter/block_13_project/Conv2D_bn_offset", "op": "Const", "attr": {"value": {"tensor": {"dtype": "DT_FLOAT", "tensorShape": {"dim": [{"size": "160"}]}}}, "dtype": {"type": "DT_FLOAT"}}}, {"name": "StatefulPartitionedCall/intermediate_layer_getter/block_14_expand/Conv2D_weights", "op": "Const", "attr": {"value": {"tensor": {"dtype": "DT_FLOAT", "tensorShape": {"dim": [{"size": "1"}, {"size": "1"}, {"size": "160"}, {"size": "960"}]}}}, "dtype": {"type": "DT_FLOAT"}}}, {"name": "StatefulPartitionedCall/intermediate_layer_getter/block_14_expand/Conv2D_bn_offset", "op": "Const", "attr": {"dtype": {"type": "DT_FLOAT"}, "value": {"tensor": {"dtype": "DT_FLOAT", "tensorShape": {"dim": [{"size": "960"}]}}}}}, {"name": "StatefulPartitionedCall/intermediate_layer_getter/block_14_depthwise/depthwise_weights", "op": "Const", "attr": {"value": {"tensor": {"dtype": "DT_FLOAT", "tensorShape": {"dim": [{"size": "3"}, {"size": "3"}, {"size": "960"}, {"size": "1"}]}}}, "dtype": {"type": "DT_FLOAT"}}}, {"name": "StatefulPartitionedCall/intermediate_layer_getter/block_14_depthwise/depthwise_bn_offset", "op": "Const", "attr": {"dtype": {"type": "DT_FLOAT"}, "value": {"tensor": {"dtype": "DT_FLOAT", "tensorShape": {"dim": [{"size": "960"}]}}}}}, {"name": "StatefulPartitionedCall/intermediate_layer_getter/block_14_project/Conv2D_weights", "op": "Const", "attr": {"dtype": {"type": "DT_FLOAT"}, "value": {"tensor": {"dtype": "DT_FLOAT", "tensorShape": {"dim": [{"size": "1"}, {"size": "1"}, {"size": "960"}, {"size": "160"}]}}}}}, {"name": "StatefulPartitionedCall/intermediate_layer_getter/block_14_project/Conv2D_bn_offset", "op": "Const", "attr": {"dtype": {"type": "DT_FLOAT"}, "value": {"tensor": {"dtype": "DT_FLOAT", "tensorShape": {"dim": [{"size": "160"}]}}}}}, {"name": "StatefulPartitionedCall/intermediate_layer_getter/block_15_expand/Conv2D_weights", "op": "Const", "attr": {"dtype": {"type": "DT_FLOAT"}, "value": {"tensor": {"dtype": "DT_FLOAT", "tensorShape": {"dim": [{"size": "1"}, {"size": "1"}, {"size": "160"}, {"size": "960"}]}}}}}, {"name": "StatefulPartitionedCall/intermediate_layer_getter/Conv1_relu/Relu6", "op": "_FusedConv2D", "input": ["x", "StatefulPartitionedCall/intermediate_layer_getter/Conv1/Conv2D_weights", "StatefulPartitionedCall/intermediate_layer_getter/Conv1/Conv2D_bn_offset"], "device": "/device:CPU:0", "attr": {"fused_ops": {"list": {"s": ["Qmlhc0FkZA==", "UmVsdTY="]}}, "explicit_paddings": {"list": {}}, "padding": {"s": "U0FNRQ=="}, "strides": {"list": {"i": ["1", "2", "2", "1"]}}, "epsilon": {"f": 0.0}, "data_format": {"s": "TkhXQw=="}, "T": {"type": "DT_FLOAT"}, "num_args": {"i": "1"}, "use_cudnn_on_gpu": {"b": true}, "dilations": {"list": {"i": ["1", "1", "1", "1"]}}}}, {"name": "StatefulPartitionedCall/intermediate_layer_getter/expanded_conv_depthwise/depthwise", "op": "FusedDepthwiseConv2dNative", "input": ["StatefulPartitionedCall/intermediate_layer_getter/Conv1_relu/Relu6", "StatefulPartitionedCall/intermediate_layer_getter/expanded_conv_depthwise/depthwise_weights", "StatefulPartitionedCall/intermediate_layer_getter/expanded_conv_depthwise/depthwise_bn_offset"], "attr": {"padding": {"s": "U0FNRQ=="}, "T": {"type": "DT_FLOAT"}, "num_args": {"i": "1"}, "dilations": {"list": {"i": ["1", "1", "1", "1"]}}, "explicit_paddings": {"list": {}}, "data_format": {"s": "TkhXQw=="}, "strides": {"list": {"i": ["1", "1", "1", "1"]}}, "fused_ops": {"list": {"s": ["Qmlhc0FkZA==", "UmVsdTY="]}}}}, {"name": "StatefulPartitionedCall/intermediate_layer_getter/expanded_conv_project_BN/FusedBatchNormV3", "op": "_FusedConv2D", "input": ["StatefulPartitionedCall/intermediate_layer_getter/expanded_conv_depthwise/depthwise", "StatefulPartitionedCall/intermediate_layer_getter/expanded_conv_project/Conv2D_weights", "StatefulPartitionedCall/intermediate_layer_getter/expanded_conv_project/Conv2D_bn_offset"], "device": "/device:CPU:0", "attr": {"use_cudnn_on_gpu": {"b": true}, "padding": {"s": "U0FNRQ=="}, "num_args": {"i": "1"}, "fused_ops": {"list": {"s": ["Qmlhc0FkZA=="]}}, "epsilon": {"f": 0.0}, "dilations": {"list": {"i": ["1", "1", "1", "1"]}}, "T": {"type": "DT_FLOAT"}, "data_format": {"s": "TkhXQw=="}, "explicit_paddings": {"list": {}}, "strides": {"list": {"i": ["1", "1", "1", "1"]}}}}, {"name": "StatefulPartitionedCall/intermediate_layer_getter/block_1_expand_relu/Relu6", "op": "_FusedConv2D", "input": ["StatefulPartitionedCall/intermediate_layer_getter/expanded_conv_project_BN/FusedBatchNormV3", "StatefulPartitionedCall/intermediate_layer_getter/block_1_expand/Conv2D_weights", "StatefulPartitionedCall/intermediate_layer_getter/block_1_expand/Conv2D_bn_offset"], "device": "/device:CPU:0", "attr": {"explicit_paddings": {"list": {}}, "use_cudnn_on_gpu": {"b": true}, "strides": {"list": {"i": ["1", "1", "1", "1"]}}, "fused_ops": {"list": {"s": ["Qmlhc0FkZA==", "UmVsdTY="]}}, "padding": {"s": "U0FNRQ=="}, "epsilon": {"f": 0.0}, "num_args": {"i": "1"}, "T": {"type": "DT_FLOAT"}, "data_format": {"s": "TkhXQw=="}, "dilations": {"list": {"i": ["1", "1", "1", "1"]}}}}, {"name": "StatefulPartitionedCall/intermediate_layer_getter/block_1_pad/Pad", "op": "Pad", "input": ["StatefulPartitionedCall/intermediate_layer_getter/block_1_expand_relu/Relu6", "StatefulPartitionedCall/intermediate_layer_getter/block_1_pad/Pad/paddings"], "attr": {"T": {"type": "DT_FLOAT"}, "Tpaddings": {"type": "DT_INT32"}}}, {"name": "StatefulPartitionedCall/intermediate_layer_getter/block_1_depthwise/depthwise", "op": "FusedDepthwiseConv2dNative", "input": ["StatefulPartitionedCall/intermediate_layer_getter/block_1_pad/Pad", "StatefulPartitionedCall/intermediate_layer_getter/block_1_depthwise/depthwise_weights", "StatefulPartitionedCall/intermediate_layer_getter/block_1_depthwise/depthwise_bn_offset"], "attr": {"num_args": {"i": "1"}, "dilations": {"list": {"i": ["1", "1", "1", "1"]}}, "T": {"type": "DT_FLOAT"}, "fused_ops": {"list": {"s": ["Qmlhc0FkZA==", "UmVsdTY="]}}, "data_format": {"s": "TkhXQw=="}, "explicit_paddings": {"list": {}}, "strides": {"list": {"i": ["1", "2", "2", "1"]}}, "padding": {"s": "VkFMSUQ="}}}, {"name": "StatefulPartitionedCall/intermediate_layer_getter/block_1_project_BN/FusedBatchNormV3", "op": "_FusedConv2D", "input": ["StatefulPartitionedCall/intermediate_layer_getter/block_1_depthwise/depthwise", "StatefulPartitionedCall/intermediate_layer_getter/block_1_project/Conv2D_weights", "StatefulPartitionedCall/intermediate_layer_getter/block_1_project/Conv2D_bn_offset"], "device": "/device:CPU:0", "attr": {"explicit_paddings": {"list": {}}, "fused_ops": {"list": {"s": ["Qmlhc0FkZA=="]}}, "dilations": {"list": {"i": ["1", "1", "1", "1"]}}, "data_format": {"s": "TkhXQw=="}, "padding": {"s": "U0FNRQ=="}, "epsilon": {"f": 0.0}, "num_args": {"i": "1"}, "use_cudnn_on_gpu": {"b": true}, "strides": {"list": {"i": ["1", "1", "1", "1"]}}, "T": {"type": "DT_FLOAT"}}}, {"name": "StatefulPartitionedCall/intermediate_layer_getter/block_2_expand_relu/Relu6", "op": "_FusedConv2D", "input": ["StatefulPartitionedCall/intermediate_layer_getter/block_1_project_BN/FusedBatchNormV3", "StatefulPartitionedCall/intermediate_layer_getter/block_2_expand/Conv2D_weights", "StatefulPartitionedCall/intermediate_layer_getter/block_2_expand/Conv2D_bn_offset"], "device": "/device:CPU:0", "attr": {"T": {"type": "DT_FLOAT"}, "explicit_paddings": {"list": {}}, "fused_ops": {"list": {"s": ["Qmlhc0FkZA==", "UmVsdTY="]}}, "dilations": {"list": {"i": ["1", "1", "1", "1"]}}, "num_args": {"i": "1"}, "padding": {"s": "U0FNRQ=="}, "use_cudnn_on_gpu": {"b": true}, "data_format": {"s": "TkhXQw=="}, "epsilon": {"f": 0.0}, "strides": {"list": {"i": ["1", "1", "1", "1"]}}}}, {"name": "StatefulPartitionedCall/intermediate_layer_getter/block_2_depthwise/depthwise", "op": "FusedDepthwiseConv2dNative", "input": ["StatefulPartitionedCall/intermediate_layer_getter/block_2_expand_relu/Relu6", "StatefulPartitionedCall/intermediate_layer_getter/block_2_depthwise/depthwise_weights", "StatefulPartitionedCall/intermediate_layer_getter/block_2_depthwise/depthwise_bn_offset"], "attr": {"padding": {"s": "U0FNRQ=="}, "fused_ops": {"list": {"s": ["Qmlhc0FkZA==", "UmVsdTY="]}}, "num_args": {"i": "1"}, "T": {"type": "DT_FLOAT"}, "dilations": {"list": {"i": ["1", "1", "1", "1"]}}, "data_format": {"s": "TkhXQw=="}, "strides": {"list": {"i": ["1", "1", "1", "1"]}}, "explicit_paddings": {"list": {}}}}, {"name": "StatefulPartitionedCall/intermediate_layer_getter/block_2_project_BN/FusedBatchNormV3", "op": "_FusedConv2D", "input": ["StatefulPartitionedCall/intermediate_layer_getter/block_2_depthwise/depthwise", "StatefulPartitionedCall/intermediate_layer_getter/block_2_project/Conv2D_weights", "StatefulPartitionedCall/intermediate_layer_getter/block_2_project/Conv2D_bn_offset"], "device": "/device:CPU:0", "attr": {"num_args": {"i": "1"}, "dilations": {"list": {"i": ["1", "1", "1", "1"]}}, "strides": {"list": {"i": ["1", "1", "1", "1"]}}, "explicit_paddings": {"list": {}}, "fused_ops": {"list": {"s": ["Qmlhc0FkZA=="]}}, "T": {"type": "DT_FLOAT"}, "padding": {"s": "U0FNRQ=="}, "data_format": {"s": "TkhXQw=="}, "epsilon": {"f": 0.0}, "use_cudnn_on_gpu": {"b": true}}}, {"name": "StatefulPartitionedCall/intermediate_layer_getter/block_2_add/add", "op": "AddV2", "input": ["StatefulPartitionedCall/intermediate_layer_getter/block_1_project_BN/FusedBatchNormV3", "StatefulPartitionedCall/intermediate_layer_getter/block_2_project_BN/FusedBatchNormV3"], "attr": {"T": {"type": "DT_FLOAT"}}}, {"name": "StatefulPartitionedCall/intermediate_layer_getter/block_3_expand_relu/Relu6", "op": "_FusedConv2D", "input": ["StatefulPartitionedCall/intermediate_layer_getter/block_2_add/add", "StatefulPartitionedCall/intermediate_layer_getter/block_3_expand/Conv2D_weights", "StatefulPartitionedCall/intermediate_layer_getter/block_3_expand/Conv2D_bn_offset"], "device": "/device:CPU:0", "attr": {"T": {"type": "DT_FLOAT"}, "strides": {"list": {"i": ["1", "1", "1", "1"]}}, "fused_ops": {"list": {"s": ["Qmlhc0FkZA==", "UmVsdTY="]}}, "num_args": {"i": "1"}, "use_cudnn_on_gpu": {"b": true}, "dilations": {"list": {"i": ["1", "1", "1", "1"]}}, "epsilon": {"f": 0.0}, "padding": {"s": "U0FNRQ=="}, "data_format": {"s": "TkhXQw=="}, "explicit_paddings": {"list": {}}}}, {"name": "StatefulPartitionedCall/feature_pyramid_network/conv2d/BiasAdd", "op": "_FusedConv2D", "input": ["StatefulPartitionedCall/intermediate_layer_getter/block_3_expand_relu/Relu6", "StatefulPartitionedCall/feature_pyramid_network/conv2d/Conv2D/ReadVariableOp", "StatefulPartitionedCall/feature_pyramid_network/conv2d/BiasAdd/ReadVariableOp"], "device": "/device:CPU:0", "attr": {"num_args": {"i": "1"}, "dilations": {"list": {"i": ["1", "1", "1", "1"]}}, "T": {"type": "DT_FLOAT"}, "use_cudnn_on_gpu": {"b": true}, "epsilon": {"f": 0.0}, "explicit_paddings": {"list": {}}, "data_format": {"s": "TkhXQw=="}, "strides": {"list": {"i": ["1", "1", "1", "1"]}}, "fused_ops": {"list": {"s": ["Qmlhc0FkZA=="]}}, "padding": {"s": "VkFMSUQ="}}}, {"name": "StatefulPartitionedCall/intermediate_layer_getter/block_3_pad/Pad", "op": "Pad", "input": ["StatefulPartitionedCall/intermediate_layer_getter/block_3_expand_relu/Relu6", "StatefulPartitionedCall/intermediate_layer_getter/block_3_pad/Pad/paddings"], "attr": {"T": {"type": "DT_FLOAT"}, "Tpaddings": {"type": "DT_INT32"}}}, {"name": "StatefulPartitionedCall/feature_pyramid_network/sequential/activation/Relu", "op": "_FusedConv2D", "input": ["StatefulPartitionedCall/feature_pyramid_network/conv2d/BiasAdd", "StatefulPartitionedCall/feature_pyramid_network/sequential/conv2d_4/Conv2D_weights", "StatefulPartitionedCall/feature_pyramid_network/sequential/conv2d_4/Conv2D_bn_offset"], "device": "/device:CPU:0", "attr": {"explicit_paddings": {"list": {}}, "padding": {"s": "U0FNRQ=="}, "strides": {"list": {"i": ["1", "1", "1", "1"]}}, "epsilon": {"f": 0.0}, "data_format": {"s": "TkhXQw=="}, "dilations": {"list": {"i": ["1", "1", "1", "1"]}}, "T": {"type": "DT_FLOAT"}, "use_cudnn_on_gpu": {"b": true}, "fused_ops": {"list": {"s": ["Qmlhc0FkZA==", "UmVsdQ=="]}}, "num_args": {"i": "1"}}}, {"name": "StatefulPartitionedCall/intermediate_layer_getter/block_3_depthwise/depthwise", "op": "FusedDepthwiseConv2dNative", "input": ["StatefulPartitionedCall/intermediate_layer_getter/block_3_pad/Pad", "StatefulPartitionedCall/intermediate_layer_getter/block_3_depthwise/depthwise_weights", "StatefulPartitionedCall/intermediate_layer_getter/block_3_depthwise/depthwise_bn_offset"], "attr": {"explicit_paddings": {"list": {}}, "num_args": {"i": "1"}, "padding": {"s": "VkFMSUQ="}, "data_format": {"s": "TkhXQw=="}, "strides": {"list": {"i": ["1", "2", "2", "1"]}}, "dilations": {"list": {"i": ["1", "1", "1", "1"]}}, "fused_ops": {"list": {"s": ["Qmlhc0FkZA==", "UmVsdTY="]}}, "T": {"type": "DT_FLOAT"}}}, {"name": "StatefulPartitionedCall/intermediate_layer_getter/block_3_project_BN/FusedBatchNormV3", "op": "_FusedConv2D", "input": ["StatefulPartitionedCall/intermediate_layer_getter/block_3_depthwise/depthwise", "StatefulPartitionedCall/intermediate_layer_getter/block_3_project/Conv2D_weights", "StatefulPartitionedCall/intermediate_layer_getter/block_3_project/Conv2D_bn_offset"], "device": "/device:CPU:0", "attr": {"padding": {"s": "U0FNRQ=="}, "epsilon": {"f": 0.0}, "strides": {"list": {"i": ["1", "1", "1", "1"]}}, "explicit_paddings": {"list": {}}, "T": {"type": "DT_FLOAT"}, "use_cudnn_on_gpu": {"b": true}, "data_format": {"s": "TkhXQw=="}, "dilations": {"list": {"i": ["1", "1", "1", "1"]}}, "fused_ops": {"list": {"s": ["Qmlhc0FkZA=="]}}, "num_args": {"i": "1"}}}, {"name": "StatefulPartitionedCall/intermediate_layer_getter/block_4_expand_relu/Relu6", "op": "_FusedConv2D", "input": ["StatefulPartitionedCall/intermediate_layer_getter/block_3_project_BN/FusedBatchNormV3", "StatefulPartitionedCall/intermediate_layer_getter/block_4_expand/Conv2D_weights", "StatefulPartitionedCall/intermediate_layer_getter/block_4_expand/Conv2D_bn_offset"], "device": "/device:CPU:0", "attr": {"fused_ops": {"list": {"s": ["Qmlhc0FkZA==", "UmVsdTY="]}}, "epsilon": {"f": 0.0}, "T": {"type": "DT_FLOAT"}, "explicit_paddings": {"list": {}}, "padding": {"s": "U0FNRQ=="}, "data_format": {"s": "TkhXQw=="}, "strides": {"list": {"i": ["1", "1", "1", "1"]}}, "use_cudnn_on_gpu": {"b": true}, "dilations": {"list": {"i": ["1", "1", "1", "1"]}}, "num_args": {"i": "1"}}}, {"name": "StatefulPartitionedCall/intermediate_layer_getter/block_4_depthwise/depthwise", "op": "FusedDepthwiseConv2dNative", "input": ["StatefulPartitionedCall/intermediate_layer_getter/block_4_expand_relu/Relu6", "StatefulPartitionedCall/intermediate_layer_getter/block_4_depthwise/depthwise_weights", "StatefulPartitionedCall/intermediate_layer_getter/block_4_depthwise/depthwise_bn_offset"], "attr": {"strides": {"list": {"i": ["1", "1", "1", "1"]}}, "num_args": {"i": "1"}, "fused_ops": {"list": {"s": ["Qmlhc0FkZA==", "UmVsdTY="]}}, "T": {"type": "DT_FLOAT"}, "padding": {"s": "U0FNRQ=="}, "explicit_paddings": {"list": {}}, "dilations": {"list": {"i": ["1", "1", "1", "1"]}}, "data_format": {"s": "TkhXQw=="}}}, {"name": "StatefulPartitionedCall/intermediate_layer_getter/block_4_project_BN/FusedBatchNormV3", "op": "_FusedConv2D", "input": ["StatefulPartitionedCall/intermediate_layer_getter/block_4_depthwise/depthwise", "StatefulPartitionedCall/intermediate_layer_getter/block_4_project/Conv2D_weights", "StatefulPartitionedCall/intermediate_layer_getter/block_4_project/Conv2D_bn_offset"], "device": "/device:CPU:0", "attr": {"dilations": {"list": {"i": ["1", "1", "1", "1"]}}, "strides": {"list": {"i": ["1", "1", "1", "1"]}}, "epsilon": {"f": 0.0}, "padding": {"s": "U0FNRQ=="}, "num_args": {"i": "1"}, "data_format": {"s": "TkhXQw=="}, "use_cudnn_on_gpu": {"b": true}, "explicit_paddings": {"list": {}}, "fused_ops": {"list": {"s": ["Qmlhc0FkZA=="]}}, "T": {"type": "DT_FLOAT"}}}, {"name": "StatefulPartitionedCall/intermediate_layer_getter/block_4_add/add", "op": "AddV2", "input": ["StatefulPartitionedCall/intermediate_layer_getter/block_3_project_BN/FusedBatchNormV3", "StatefulPartitionedCall/intermediate_layer_getter/block_4_project_BN/FusedBatchNormV3"], "attr": {"T": {"type": "DT_FLOAT"}}}, {"name": "StatefulPartitionedCall/intermediate_layer_getter/block_5_expand_relu/Relu6", "op": "_FusedConv2D", "input": ["StatefulPartitionedCall/intermediate_layer_getter/block_4_add/add", "StatefulPartitionedCall/intermediate_layer_getter/block_5_expand/Conv2D_weights", "StatefulPartitionedCall/intermediate_layer_getter/block_5_expand/Conv2D_bn_offset"], "device": "/device:CPU:0", "attr": {"explicit_paddings": {"list": {}}, "use_cudnn_on_gpu": {"b": true}, "data_format": {"s": "TkhXQw=="}, "strides": {"list": {"i": ["1", "1", "1", "1"]}}, "T": {"type": "DT_FLOAT"}, "padding": {"s": "U0FNRQ=="}, "fused_ops": {"list": {"s": ["Qmlhc0FkZA==", "UmVsdTY="]}}, "num_args": {"i": "1"}, "epsilon": {"f": 0.0}, "dilations": {"list": {"i": ["1", "1", "1", "1"]}}}}, {"name": "StatefulPartitionedCall/intermediate_layer_getter/block_5_depthwise/depthwise", "op": "FusedDepthwiseConv2dNative", "input": ["StatefulPartitionedCall/intermediate_layer_getter/block_5_expand_relu/Relu6", "StatefulPartitionedCall/intermediate_layer_getter/block_5_depthwise/depthwise_weights", "StatefulPartitionedCall/intermediate_layer_getter/block_5_depthwise/depthwise_bn_offset"], "attr": {"data_format": {"s": "TkhXQw=="}, "padding": {"s": "U0FNRQ=="}, "dilations": {"list": {"i": ["1", "1", "1", "1"]}}, "num_args": {"i": "1"}, "strides": {"list": {"i": ["1", "1", "1", "1"]}}, "explicit_paddings": {"list": {}}, "fused_ops": {"list": {"s": ["Qmlhc0FkZA==", "UmVsdTY="]}}, "T": {"type": "DT_FLOAT"}}}, {"name": "StatefulPartitionedCall/intermediate_layer_getter/block_5_project_BN/FusedBatchNormV3", "op": "_FusedConv2D", "input": ["StatefulPartitionedCall/intermediate_layer_getter/block_5_depthwise/depthwise", "StatefulPartitionedCall/intermediate_layer_getter/block_5_project/Conv2D_weights", "StatefulPartitionedCall/intermediate_layer_getter/block_5_project/Conv2D_bn_offset"], "device": "/device:CPU:0", "attr": {"epsilon": {"f": 0.0}, "dilations": {"list": {"i": ["1", "1", "1", "1"]}}, "data_format": {"s": "TkhXQw=="}, "strides": {"list": {"i": ["1", "1", "1", "1"]}}, "use_cudnn_on_gpu": {"b": true}, "fused_ops": {"list": {"s": ["Qmlhc0FkZA=="]}}, "explicit_paddings": {"list": {}}, "T": {"type": "DT_FLOAT"}, "padding": {"s": "U0FNRQ=="}, "num_args": {"i": "1"}}}, {"name": "StatefulPartitionedCall/intermediate_layer_getter/block_5_add/add", "op": "AddV2", "input": ["StatefulPartitionedCall/intermediate_layer_getter/block_4_add/add", "StatefulPartitionedCall/intermediate_layer_getter/block_5_project_BN/FusedBatchNormV3"], "attr": {"T": {"type": "DT_FLOAT"}}}, {"name": "StatefulPartitionedCall/intermediate_layer_getter/block_6_expand_relu/Relu6", "op": "_FusedConv2D", "input": ["StatefulPartitionedCall/intermediate_layer_getter/block_5_add/add", "StatefulPartitionedCall/intermediate_layer_getter/block_6_expand/Conv2D_weights", "StatefulPartitionedCall/intermediate_layer_getter/block_6_expand/Conv2D_bn_offset"], "device": "/device:CPU:0", "attr": {"padding": {"s": "U0FNRQ=="}, "strides": {"list": {"i": ["1", "1", "1", "1"]}}, "num_args": {"i": "1"}, "explicit_paddings": {"list": {}}, "dilations": {"list": {"i": ["1", "1", "1", "1"]}}, "use_cudnn_on_gpu": {"b": true}, "fused_ops": {"list": {"s": ["Qmlhc0FkZA==", "UmVsdTY="]}}, "data_format": {"s": "TkhXQw=="}, "epsilon": {"f": 0.0}, "T": {"type": "DT_FLOAT"}}}, {"name": "StatefulPartitionedCall/feature_pyramid_network/conv2d_1/BiasAdd", "op": "_FusedConv2D", "input": ["StatefulPartitionedCall/intermediate_layer_getter/block_6_expand_relu/Relu6", "StatefulPartitionedCall/feature_pyramid_network/conv2d_1/Conv2D/ReadVariableOp", "StatefulPartitionedCall/feature_pyramid_network/conv2d_1/BiasAdd/ReadVariableOp"], "device": "/device:CPU:0", "attr": {"explicit_paddings": {"list": {}}, "use_cudnn_on_gpu": {"b": true}, "dilations": {"list": {"i": ["1", "1", "1", "1"]}}, "fused_ops": {"list": {"s": ["Qmlhc0FkZA=="]}}, "epsilon": {"f": 0.0}, "num_args": {"i": "1"}, "data_format": {"s": "TkhXQw=="}, "T": {"type": "DT_FLOAT"}, "padding": {"s": "VkFMSUQ="}, "strides": {"list": {"i": ["1", "1", "1", "1"]}}}}, {"name": "StatefulPartitionedCall/intermediate_layer_getter/block_6_pad/Pad", "op": "Pad", "input": ["StatefulPartitionedCall/intermediate_layer_getter/block_6_expand_relu/Relu6", "StatefulPartitionedCall/intermediate_layer_getter/block_6_pad/Pad/paddings"], "attr": {"Tpaddings": {"type": "DT_INT32"}, "T": {"type": "DT_FLOAT"}}}, {"name": "StatefulPartitionedCall/feature_pyramid_network/sequential_1/activation_1/Relu", "op": "_FusedConv2D", "input": ["StatefulPartitionedCall/feature_pyramid_network/conv2d_1/BiasAdd", "StatefulPartitionedCall/feature_pyramid_network/sequential_1/conv2d_5/Conv2D_weights", "StatefulPartitionedCall/feature_pyramid_network/sequential_1/conv2d_5/Conv2D_bn_offset"], "device": "/device:CPU:0", "attr": {"epsilon": {"f": 0.0}, "use_cudnn_on_gpu": {"b": true}, "strides": {"list": {"i": ["1", "1", "1", "1"]}}, "fused_ops": {"list": {"s": ["Qmlhc0FkZA==", "UmVsdQ=="]}}, "T": {"type": "DT_FLOAT"}, "data_format": {"s": "TkhXQw=="}, "padding": {"s": "U0FNRQ=="}, "dilations": {"list": {"i": ["1", "1", "1", "1"]}}, "explicit_paddings": {"list": {}}, "num_args": {"i": "1"}}}, {"name": "StatefulPartitionedCall/intermediate_layer_getter/block_6_depthwise/depthwise", "op": "FusedDepthwiseConv2dNative", "input": ["StatefulPartitionedCall/intermediate_layer_getter/block_6_pad/Pad", "StatefulPartitionedCall/intermediate_layer_getter/block_6_depthwise/depthwise_weights", "StatefulPartitionedCall/intermediate_layer_getter/block_6_depthwise/depthwise_bn_offset"], "attr": {"data_format": {"s": "TkhXQw=="}, "num_args": {"i": "1"}, "fused_ops": {"list": {"s": ["Qmlhc0FkZA==", "UmVsdTY="]}}, "strides": {"list": {"i": ["1", "2", "2", "1"]}}, "padding": {"s": "VkFMSUQ="}, "explicit_paddings": {"list": {}}, "T": {"type": "DT_FLOAT"}, "dilations": {"list": {"i": ["1", "1", "1", "1"]}}}}, {"name": "StatefulPartitionedCall/feature_pyramid_network/sequential_1/up_sampling2d_1/resize/ResizeNearestNeighbor", "op": "ResizeNearestNeighbor", "input": ["StatefulPartitionedCall/feature_pyramid_network/sequential_1/activation_1/Relu", "StatefulPartitionedCall/feature_pyramid_network/sequential_1/up_sampling2d_1/mul"], "attr": {"T": {"type": "DT_FLOAT"}, "half_pixel_centers": {"b": true}, "align_corners": {"b": false}}}, {"name": "StatefulPartitionedCall/intermediate_layer_getter/block_6_project_BN/FusedBatchNormV3", "op": "_FusedConv2D", "input": ["StatefulPartitionedCall/intermediate_layer_getter/block_6_depthwise/depthwise", "StatefulPartitionedCall/intermediate_layer_getter/block_6_project/Conv2D_weights", "StatefulPartitionedCall/intermediate_layer_getter/block_6_project/Conv2D_bn_offset"], "device": "/device:CPU:0", "attr": {"padding": {"s": "U0FNRQ=="}, "use_cudnn_on_gpu": {"b": true}, "num_args": {"i": "1"}, "dilations": {"list": {"i": ["1", "1", "1", "1"]}}, "fused_ops": {"list": {"s": ["Qmlhc0FkZA=="]}}, "strides": {"list": {"i": ["1", "1", "1", "1"]}}, "data_format": {"s": "TkhXQw=="}, "explicit_paddings": {"list": {}}, "T": {"type": "DT_FLOAT"}, "epsilon": {"f": 0.0}}}, {"name": "StatefulPartitionedCall/intermediate_layer_getter/block_7_expand_relu/Relu6", "op": "_FusedConv2D", "input": ["StatefulPartitionedCall/intermediate_layer_getter/block_6_project_BN/FusedBatchNormV3", "StatefulPartitionedCall/intermediate_layer_getter/block_7_expand/Conv2D_weights", "StatefulPartitionedCall/intermediate_layer_getter/block_7_expand/Conv2D_bn_offset"], "device": "/device:CPU:0", "attr": {"use_cudnn_on_gpu": {"b": true}, "fused_ops": {"list": {"s": ["Qmlhc0FkZA==", "UmVsdTY="]}}, "epsilon": {"f": 0.0}, "padding": {"s": "U0FNRQ=="}, "num_args": {"i": "1"}, "explicit_paddings": {"list": {}}, "strides": {"list": {"i": ["1", "1", "1", "1"]}}, "T": {"type": "DT_FLOAT"}, "data_format": {"s": "TkhXQw=="}, "dilations": {"list": {"i": ["1", "1", "1", "1"]}}}}, {"name": "StatefulPartitionedCall/intermediate_layer_getter/block_7_depthwise/depthwise", "op": "FusedDepthwiseConv2dNative", "input": ["StatefulPartitionedCall/intermediate_layer_getter/block_7_expand_relu/Relu6", "StatefulPartitionedCall/intermediate_layer_getter/block_7_depthwise/depthwise_weights", "StatefulPartitionedCall/intermediate_layer_getter/block_7_depthwise/depthwise_bn_offset"], "attr": {"data_format": {"s": "TkhXQw=="}, "explicit_paddings": {"list": {}}, "dilations": {"list": {"i": ["1", "1", "1", "1"]}}, "fused_ops": {"list": {"s": ["Qmlhc0FkZA==", "UmVsdTY="]}}, "padding": {"s": "U0FNRQ=="}, "strides": {"list": {"i": ["1", "1", "1", "1"]}}, "T": {"type": "DT_FLOAT"}, "num_args": {"i": "1"}}}, {"name": "StatefulPartitionedCall/intermediate_layer_getter/block_7_project_BN/FusedBatchNormV3", "op": "_FusedConv2D", "input": ["StatefulPartitionedCall/intermediate_layer_getter/block_7_depthwise/depthwise", "StatefulPartitionedCall/intermediate_layer_getter/block_7_project/Conv2D_weights", "StatefulPartitionedCall/intermediate_layer_getter/block_7_project/Conv2D_bn_offset"], "device": "/device:CPU:0", "attr": {"data_format": {"s": "TkhXQw=="}, "strides": {"list": {"i": ["1", "1", "1", "1"]}}, "num_args": {"i": "1"}, "dilations": {"list": {"i": ["1", "1", "1", "1"]}}, "explicit_paddings": {"list": {}}, "T": {"type": "DT_FLOAT"}, "use_cudnn_on_gpu": {"b": true}, "fused_ops": {"list": {"s": ["Qmlhc0FkZA=="]}}, "padding": {"s": "U0FNRQ=="}, "epsilon": {"f": 0.0}}}, {"name": "StatefulPartitionedCall/intermediate_layer_getter/block_7_add/add", "op": "AddV2", "input": ["StatefulPartitionedCall/intermediate_layer_getter/block_6_project_BN/FusedBatchNormV3", "StatefulPartitionedCall/intermediate_layer_getter/block_7_project_BN/FusedBatchNormV3"], "attr": {"T": {"type": "DT_FLOAT"}}}, {"name": "StatefulPartitionedCall/intermediate_layer_getter/block_8_expand_relu/Relu6", "op": "_FusedConv2D", "input": ["StatefulPartitionedCall/intermediate_layer_getter/block_7_add/add", "StatefulPartitionedCall/intermediate_layer_getter/block_8_expand/Conv2D_weights", "StatefulPartitionedCall/intermediate_layer_getter/block_8_expand/Conv2D_bn_offset"], "device": "/device:CPU:0", "attr": {"T": {"type": "DT_FLOAT"}, "explicit_paddings": {"list": {}}, "strides": {"list": {"i": ["1", "1", "1", "1"]}}, "dilations": {"list": {"i": ["1", "1", "1", "1"]}}, "epsilon": {"f": 0.0}, "fused_ops": {"list": {"s": ["Qmlhc0FkZA==", "UmVsdTY="]}}, "padding": {"s": "U0FNRQ=="}, "use_cudnn_on_gpu": {"b": true}, "data_format": {"s": "TkhXQw=="}, "num_args": {"i": "1"}}}, {"name": "StatefulPartitionedCall/intermediate_layer_getter/block_8_depthwise/depthwise", "op": "FusedDepthwiseConv2dNative", "input": ["StatefulPartitionedCall/intermediate_layer_getter/block_8_expand_relu/Relu6", "StatefulPartitionedCall/intermediate_layer_getter/block_8_depthwise/depthwise_weights", "StatefulPartitionedCall/intermediate_layer_getter/block_8_depthwise/depthwise_bn_offset"], "attr": {"num_args": {"i": "1"}, "data_format": {"s": "TkhXQw=="}, "T": {"type": "DT_FLOAT"}, "dilations": {"list": {"i": ["1", "1", "1", "1"]}}, "fused_ops": {"list": {"s": ["Qmlhc0FkZA==", "UmVsdTY="]}}, "explicit_paddings": {"list": {}}, "strides": {"list": {"i": ["1", "1", "1", "1"]}}, "padding": {"s": "U0FNRQ=="}}}, {"name": "StatefulPartitionedCall/intermediate_layer_getter/block_8_project_BN/FusedBatchNormV3", "op": "_FusedConv2D", "input": ["StatefulPartitionedCall/intermediate_layer_getter/block_8_depthwise/depthwise", "StatefulPartitionedCall/intermediate_layer_getter/block_8_project/Conv2D_weights", "StatefulPartitionedCall/intermediate_layer_getter/block_8_project/Conv2D_bn_offset"], "device": "/device:CPU:0", "attr": {"padding": {"s": "U0FNRQ=="}, "T": {"type": "DT_FLOAT"}, "strides": {"list": {"i": ["1", "1", "1", "1"]}}, "use_cudnn_on_gpu": {"b": true}, "fused_ops": {"list": {"s": ["Qmlhc0FkZA=="]}}, "num_args": {"i": "1"}, "dilations": {"list": {"i": ["1", "1", "1", "1"]}}, "data_format": {"s": "TkhXQw=="}, "epsilon": {"f": 0.0}, "explicit_paddings": {"list": {}}}}, {"name": "StatefulPartitionedCall/intermediate_layer_getter/block_8_add/add", "op": "AddV2", "input": ["StatefulPartitionedCall/intermediate_layer_getter/block_7_add/add", "StatefulPartitionedCall/intermediate_layer_getter/block_8_project_BN/FusedBatchNormV3"], "attr": {"T": {"type": "DT_FLOAT"}}}, {"name": "StatefulPartitionedCall/intermediate_layer_getter/block_9_expand_relu/Relu6", "op": "_FusedConv2D", "input": ["StatefulPartitionedCall/intermediate_layer_getter/block_8_add/add", "StatefulPartitionedCall/intermediate_layer_getter/block_9_expand/Conv2D_weights", "StatefulPartitionedCall/intermediate_layer_getter/block_9_expand/Conv2D_bn_offset"], "device": "/device:CPU:0", "attr": {"num_args": {"i": "1"}, "epsilon": {"f": 0.0}, "padding": {"s": "U0FNRQ=="}, "fused_ops": {"list": {"s": ["Qmlhc0FkZA==", "UmVsdTY="]}}, "T": {"type": "DT_FLOAT"}, "explicit_paddings": {"list": {}}, "data_format": {"s": "TkhXQw=="}, "strides": {"list": {"i": ["1", "1", "1", "1"]}}, "dilations": {"list": {"i": ["1", "1", "1", "1"]}}, "use_cudnn_on_gpu": {"b": true}}}, {"name": "StatefulPartitionedCall/intermediate_layer_getter/block_9_depthwise/depthwise", "op": "FusedDepthwiseConv2dNative", "input": ["StatefulPartitionedCall/intermediate_layer_getter/block_9_expand_relu/Relu6", "StatefulPartitionedCall/intermediate_layer_getter/block_9_depthwise/depthwise_weights", "StatefulPartitionedCall/intermediate_layer_getter/block_9_depthwise/depthwise_bn_offset"], "attr": {"num_args": {"i": "1"}, "data_format": {"s": "TkhXQw=="}, "explicit_paddings": {"list": {}}, "fused_ops": {"list": {"s": ["Qmlhc0FkZA==", "UmVsdTY="]}}, "padding": {"s": "U0FNRQ=="}, "strides": {"list": {"i": ["1", "1", "1", "1"]}}, "T": {"type": "DT_FLOAT"}, "dilations": {"list": {"i": ["1", "1", "1", "1"]}}}}, {"name": "StatefulPartitionedCall/intermediate_layer_getter/block_9_project_BN/FusedBatchNormV3", "op": "_FusedConv2D", "input": ["StatefulPartitionedCall/intermediate_layer_getter/block_9_depthwise/depthwise", "StatefulPartitionedCall/intermediate_layer_getter/block_9_project/Conv2D_weights", "StatefulPartitionedCall/intermediate_layer_getter/block_9_project/Conv2D_bn_offset"], "device": "/device:CPU:0", "attr": {"use_cudnn_on_gpu": {"b": true}, "fused_ops": {"list": {"s": ["Qmlhc0FkZA=="]}}, "data_format": {"s": "TkhXQw=="}, "epsilon": {"f": 0.0}, "dilations": {"list": {"i": ["1", "1", "1", "1"]}}, "T": {"type": "DT_FLOAT"}, "num_args": {"i": "1"}, "padding": {"s": "U0FNRQ=="}, "explicit_paddings": {"list": {}}, "strides": {"list": {"i": ["1", "1", "1", "1"]}}}}, {"name": "StatefulPartitionedCall/intermediate_layer_getter/block_9_add/add", "op": "AddV2", "input": ["StatefulPartitionedCall/intermediate_layer_getter/block_8_add/add", "StatefulPartitionedCall/intermediate_layer_getter/block_9_project_BN/FusedBatchNormV3"], "attr": {"T": {"type": "DT_FLOAT"}}}, {"name": "StatefulPartitionedCall/intermediate_layer_getter/block_10_expand_relu/Relu6", "op": "_FusedConv2D", "input": ["StatefulPartitionedCall/intermediate_layer_getter/block_9_add/add", "StatefulPartitionedCall/intermediate_layer_getter/block_10_expand/Conv2D_weights", "StatefulPartitionedCall/intermediate_layer_getter/block_10_expand/Conv2D_bn_offset"], "device": "/device:CPU:0", "attr": {"data_format": {"s": "TkhXQw=="}, "strides": {"list": {"i": ["1", "1", "1", "1"]}}, "explicit_paddings": {"list": {}}, "num_args": {"i": "1"}, "epsilon": {"f": 0.0}, "dilations": {"list": {"i": ["1", "1", "1", "1"]}}, "use_cudnn_on_gpu": {"b": true}, "fused_ops": {"list": {"s": ["Qmlhc0FkZA==", "UmVsdTY="]}}, "padding": {"s": "U0FNRQ=="}, "T": {"type": "DT_FLOAT"}}}, {"name": "StatefulPartitionedCall/intermediate_layer_getter/block_10_depthwise/depthwise", "op": "FusedDepthwiseConv2dNative", "input": ["StatefulPartitionedCall/intermediate_layer_getter/block_10_expand_relu/Relu6", "StatefulPartitionedCall/intermediate_layer_getter/block_10_depthwise/depthwise_weights", "StatefulPartitionedCall/intermediate_layer_getter/block_10_depthwise/depthwise_bn_offset"], "attr": {"data_format": {"s": "TkhXQw=="}, "fused_ops": {"list": {"s": ["Qmlhc0FkZA==", "UmVsdTY="]}}, "explicit_paddings": {"list": {}}, "T": {"type": "DT_FLOAT"}, "strides": {"list": {"i": ["1", "1", "1", "1"]}}, "dilations": {"list": {"i": ["1", "1", "1", "1"]}}, "num_args": {"i": "1"}, "padding": {"s": "U0FNRQ=="}}}, {"name": "StatefulPartitionedCall/intermediate_layer_getter/block_10_project_BN/FusedBatchNormV3", "op": "_FusedConv2D", "input": ["StatefulPartitionedCall/intermediate_layer_getter/block_10_depthwise/depthwise", "StatefulPartitionedCall/intermediate_layer_getter/block_10_project/Conv2D_weights", "StatefulPartitionedCall/intermediate_layer_getter/block_10_project/Conv2D_bn_offset"], "device": "/device:CPU:0", "attr": {"use_cudnn_on_gpu": {"b": true}, "fused_ops": {"list": {"s": ["Qmlhc0FkZA=="]}}, "data_format": {"s": "TkhXQw=="}, "dilations": {"list": {"i": ["1", "1", "1", "1"]}}, "epsilon": {"f": 0.0}, "explicit_paddings": {"list": {}}, "T": {"type": "DT_FLOAT"}, "num_args": {"i": "1"}, "padding": {"s": "U0FNRQ=="}, "strides": {"list": {"i": ["1", "1", "1", "1"]}}}}, {"name": "StatefulPartitionedCall/intermediate_layer_getter/block_11_expand_relu/Relu6", "op": "_FusedConv2D", "input": ["StatefulPartitionedCall/intermediate_layer_getter/block_10_project_BN/FusedBatchNormV3", "StatefulPartitionedCall/intermediate_layer_getter/block_11_expand/Conv2D_weights", "StatefulPartitionedCall/intermediate_layer_getter/block_11_expand/Conv2D_bn_offset"], "device": "/device:CPU:0", "attr": {"explicit_paddings": {"list": {}}, "padding": {"s": "U0FNRQ=="}, "dilations": {"list": {"i": ["1", "1", "1", "1"]}}, "strides": {"list": {"i": ["1", "1", "1", "1"]}}, "num_args": {"i": "1"}, "epsilon": {"f": 0.0}, "data_format": {"s": "TkhXQw=="}, "use_cudnn_on_gpu": {"b": true}, "fused_ops": {"list": {"s": ["Qmlhc0FkZA==", "UmVsdTY="]}}, "T": {"type": "DT_FLOAT"}}}, {"name": "StatefulPartitionedCall/intermediate_layer_getter/block_11_depthwise/depthwise", "op": "FusedDepthwiseConv2dNative", "input": ["StatefulPartitionedCall/intermediate_layer_getter/block_11_expand_relu/Relu6", "StatefulPartitionedCall/intermediate_layer_getter/block_11_depthwise/depthwise_weights", "StatefulPartitionedCall/intermediate_layer_getter/block_11_depthwise/depthwise_bn_offset"], "attr": {"strides": {"list": {"i": ["1", "1", "1", "1"]}}, "padding": {"s": "U0FNRQ=="}, "data_format": {"s": "TkhXQw=="}, "fused_ops": {"list": {"s": ["Qmlhc0FkZA==", "UmVsdTY="]}}, "dilations": {"list": {"i": ["1", "1", "1", "1"]}}, "explicit_paddings": {"list": {}}, "T": {"type": "DT_FLOAT"}, "num_args": {"i": "1"}}}, {"name": "StatefulPartitionedCall/intermediate_layer_getter/block_11_project_BN/FusedBatchNormV3", "op": "_FusedConv2D", "input": ["StatefulPartitionedCall/intermediate_layer_getter/block_11_depthwise/depthwise", "StatefulPartitionedCall/intermediate_layer_getter/block_11_project/Conv2D_weights", "StatefulPartitionedCall/intermediate_layer_getter/block_11_project/Conv2D_bn_offset"], "device": "/device:CPU:0", "attr": {"num_args": {"i": "1"}, "T": {"type": "DT_FLOAT"}, "dilations": {"list": {"i": ["1", "1", "1", "1"]}}, "epsilon": {"f": 0.0}, "strides": {"list": {"i": ["1", "1", "1", "1"]}}, "explicit_paddings": {"list": {}}, "fused_ops": {"list": {"s": ["Qmlhc0FkZA=="]}}, "padding": {"s": "U0FNRQ=="}, "use_cudnn_on_gpu": {"b": true}, "data_format": {"s": "TkhXQw=="}}}, {"name": "StatefulPartitionedCall/intermediate_layer_getter/block_11_add/add", "op": "AddV2", "input": ["StatefulPartitionedCall/intermediate_layer_getter/block_10_project_BN/FusedBatchNormV3", "StatefulPartitionedCall/intermediate_layer_getter/block_11_project_BN/FusedBatchNormV3"], "attr": {"T": {"type": "DT_FLOAT"}}}, {"name": "StatefulPartitionedCall/intermediate_layer_getter/block_12_expand_relu/Relu6", "op": "_FusedConv2D", "input": ["StatefulPartitionedCall/intermediate_layer_getter/block_11_add/add", "StatefulPartitionedCall/intermediate_layer_getter/block_12_expand/Conv2D_weights", "StatefulPartitionedCall/intermediate_layer_getter/block_12_expand/Conv2D_bn_offset"], "device": "/device:CPU:0", "attr": {"data_format": {"s": "TkhXQw=="}, "explicit_paddings": {"list": {}}, "epsilon": {"f": 0.0}, "num_args": {"i": "1"}, "use_cudnn_on_gpu": {"b": true}, "padding": {"s": "U0FNRQ=="}, "dilations": {"list": {"i": ["1", "1", "1", "1"]}}, "T": {"type": "DT_FLOAT"}, "strides": {"list": {"i": ["1", "1", "1", "1"]}}, "fused_ops": {"list": {"s": ["Qmlhc0FkZA==", "UmVsdTY="]}}}}, {"name": "StatefulPartitionedCall/intermediate_layer_getter/block_12_depthwise/depthwise", "op": "FusedDepthwiseConv2dNative", "input": ["StatefulPartitionedCall/intermediate_layer_getter/block_12_expand_relu/Relu6", "StatefulPartitionedCall/intermediate_layer_getter/block_12_depthwise/depthwise_weights", "StatefulPartitionedCall/intermediate_layer_getter/block_12_depthwise/depthwise_bn_offset"], "attr": {"padding": {"s": "U0FNRQ=="}, "fused_ops": {"list": {"s": ["Qmlhc0FkZA==", "UmVsdTY="]}}, "strides": {"list": {"i": ["1", "1", "1", "1"]}}, "data_format": {"s": "TkhXQw=="}, "explicit_paddings": {"list": {}}, "num_args": {"i": "1"}, "T": {"type": "DT_FLOAT"}, "dilations": {"list": {"i": ["1", "1", "1", "1"]}}}}, {"name": "StatefulPartitionedCall/intermediate_layer_getter/block_12_project_BN/FusedBatchNormV3", "op": "_FusedConv2D", "input": ["StatefulPartitionedCall/intermediate_layer_getter/block_12_depthwise/depthwise", "StatefulPartitionedCall/intermediate_layer_getter/block_12_project/Conv2D_weights", "StatefulPartitionedCall/intermediate_layer_getter/block_12_project/Conv2D_bn_offset"], "device": "/device:CPU:0", "attr": {"padding": {"s": "U0FNRQ=="}, "T": {"type": "DT_FLOAT"}, "explicit_paddings": {"list": {}}, "use_cudnn_on_gpu": {"b": true}, "data_format": {"s": "TkhXQw=="}, "dilations": {"list": {"i": ["1", "1", "1", "1"]}}, "epsilon": {"f": 0.0}, "fused_ops": {"list": {"s": ["Qmlhc0FkZA=="]}}, "num_args": {"i": "1"}, "strides": {"list": {"i": ["1", "1", "1", "1"]}}}}, {"name": "StatefulPartitionedCall/intermediate_layer_getter/block_12_add/add", "op": "AddV2", "input": ["StatefulPartitionedCall/intermediate_layer_getter/block_11_add/add", "StatefulPartitionedCall/intermediate_layer_getter/block_12_project_BN/FusedBatchNormV3"], "attr": {"T": {"type": "DT_FLOAT"}}}, {"name": "StatefulPartitionedCall/intermediate_layer_getter/block_13_expand_relu/Relu6", "op": "_FusedConv2D", "input": ["StatefulPartitionedCall/intermediate_layer_getter/block_12_add/add", "StatefulPartitionedCall/intermediate_layer_getter/block_13_expand/Conv2D_weights", "StatefulPartitionedCall/intermediate_layer_getter/block_13_expand/Conv2D_bn_offset"], "device": "/device:CPU:0", "attr": {"T": {"type": "DT_FLOAT"}, "use_cudnn_on_gpu": {"b": true}, "padding": {"s": "U0FNRQ=="}, "num_args": {"i": "1"}, "data_format": {"s": "TkhXQw=="}, "strides": {"list": {"i": ["1", "1", "1", "1"]}}, "fused_ops": {"list": {"s": ["Qmlhc0FkZA==", "UmVsdTY="]}}, "epsilon": {"f": 0.0}, "explicit_paddings": {"list": {}}, "dilations": {"list": {"i": ["1", "1", "1", "1"]}}}}, {"name": "StatefulPartitionedCall/feature_pyramid_network/conv2d_2/BiasAdd", "op": "_FusedConv2D", "input": ["StatefulPartitionedCall/intermediate_layer_getter/block_13_expand_relu/Relu6", "StatefulPartitionedCall/feature_pyramid_network/conv2d_2/Conv2D/ReadVariableOp", "StatefulPartitionedCall/feature_pyramid_network/conv2d_2/BiasAdd/ReadVariableOp"], "device": "/device:CPU:0", "attr": {"num_args": {"i": "1"}, "dilations": {"list": {"i": ["1", "1", "1", "1"]}}, "explicit_paddings": {"list": {}}, "padding": {"s": "VkFMSUQ="}, "use_cudnn_on_gpu": {"b": true}, "data_format": {"s": "TkhXQw=="}, "strides": {"list": {"i": ["1", "1", "1", "1"]}}, "T": {"type": "DT_FLOAT"}, "fused_ops": {"list": {"s": ["Qmlhc0FkZA=="]}}, "epsilon": {"f": 0.0}}}, {"name": "StatefulPartitionedCall/intermediate_layer_getter/block_13_pad/Pad", "op": "Pad", "input": ["StatefulPartitionedCall/intermediate_layer_getter/block_13_expand_relu/Relu6", "StatefulPartitionedCall/intermediate_layer_getter/block_13_pad/Pad/paddings"], "attr": {"Tpaddings": {"type": "DT_INT32"}, "T": {"type": "DT_FLOAT"}}}, {"name": "StatefulPartitionedCall/feature_pyramid_network/sequential_2/activation_2/Relu", "op": "_FusedConv2D", "input": ["StatefulPartitionedCall/feature_pyramid_network/conv2d_2/BiasAdd", "StatefulPartitionedCall/feature_pyramid_network/sequential_2/conv2d_6/Conv2D_weights", "StatefulPartitionedCall/feature_pyramid_network/sequential_2/conv2d_6/Conv2D_bn_offset"], "device": "/device:CPU:0", "attr": {"strides": {"list": {"i": ["1", "1", "1", "1"]}}, "fused_ops": {"list": {"s": ["Qmlhc0FkZA==", "UmVsdQ=="]}}, "T": {"type": "DT_FLOAT"}, "epsilon": {"f": 0.0}, "explicit_paddings": {"list": {}}, "dilations": {"list": {"i": ["1", "1", "1", "1"]}}, "padding": {"s": "U0FNRQ=="}, "data_format": {"s": "TkhXQw=="}, "use_cudnn_on_gpu": {"b": true}, "num_args": {"i": "1"}}}, {"name": "StatefulPartitionedCall/intermediate_layer_getter/block_13_depthwise/depthwise", "op": "FusedDepthwiseConv2dNative", "input": ["StatefulPartitionedCall/intermediate_layer_getter/block_13_pad/Pad", "StatefulPartitionedCall/intermediate_layer_getter/block_13_depthwise/depthwise_weights", "StatefulPartitionedCall/intermediate_layer_getter/block_13_depthwise/depthwise_bn_offset"], "attr": {"fused_ops": {"list": {"s": ["Qmlhc0FkZA==", "UmVsdTY="]}}, "strides": {"list": {"i": ["1", "2", "2", "1"]}}, "explicit_paddings": {"list": {}}, "padding": {"s": "VkFMSUQ="}, "data_format": {"s": "TkhXQw=="}, "T": {"type": "DT_FLOAT"}, "num_args": {"i": "1"}, "dilations": {"list": {"i": ["1", "1", "1", "1"]}}}}, {"name": "StatefulPartitionedCall/feature_pyramid_network/sequential_2/up_sampling2d_2/resize/ResizeNearestNeighbor", "op": "ResizeNearestNeighbor", "input": ["StatefulPartitionedCall/feature_pyramid_network/sequential_2/activation_2/Relu", "StatefulPartitionedCall/feature_pyramid_network/sequential_2/up_sampling2d_2/mul"], "attr": {"align_corners": {"b": false}, "T": {"type": "DT_FLOAT"}, "half_pixel_centers": {"b": true}}}, {"name": "StatefulPartitionedCall/intermediate_layer_getter/block_13_project_BN/FusedBatchNormV3", "op": "_FusedConv2D", "input": ["StatefulPartitionedCall/intermediate_layer_getter/block_13_depthwise/depthwise", "StatefulPartitionedCall/intermediate_layer_getter/block_13_project/Conv2D_weights", "StatefulPartitionedCall/intermediate_layer_getter/block_13_project/Conv2D_bn_offset"], "device": "/device:CPU:0", "attr": {"strides": {"list": {"i": ["1", "1", "1", "1"]}}, "dilations": {"list": {"i": ["1", "1", "1", "1"]}}, "padding": {"s": "U0FNRQ=="}, "data_format": {"s": "TkhXQw=="}, "explicit_paddings": {"list": {}}, "epsilon": {"f": 0.0}, "use_cudnn_on_gpu": {"b": true}, "T": {"type": "DT_FLOAT"}, "fused_ops": {"list": {"s": ["Qmlhc0FkZA=="]}}, "num_args": {"i": "1"}}}, {"name": "StatefulPartitionedCall/intermediate_layer_getter/block_14_expand_relu/Relu6", "op": "_FusedConv2D", "input": ["StatefulPartitionedCall/intermediate_layer_getter/block_13_project_BN/FusedBatchNormV3", "StatefulPartitionedCall/intermediate_layer_getter/block_14_expand/Conv2D_weights", "StatefulPartitionedCall/intermediate_layer_getter/block_14_expand/Conv2D_bn_offset"], "device": "/device:CPU:0", "attr": {"data_format": {"s": "TkhXQw=="}, "padding": {"s": "U0FNRQ=="}, "T": {"type": "DT_FLOAT"}, "epsilon": {"f": 0.0}, "dilations": {"list": {"i": ["1", "1", "1", "1"]}}, "explicit_paddings": {"list": {}}, "use_cudnn_on_gpu": {"b": true}, "strides": {"list": {"i": ["1", "1", "1", "1"]}}, "num_args": {"i": "1"}, "fused_ops": {"list": {"s": ["Qmlhc0FkZA==", "UmVsdTY="]}}}}, {"name": "StatefulPartitionedCall/intermediate_layer_getter/block_14_depthwise/depthwise", "op": "FusedDepthwiseConv2dNative", "input": ["StatefulPartitionedCall/intermediate_layer_getter/block_14_expand_relu/Relu6", "StatefulPartitionedCall/intermediate_layer_getter/block_14_depthwise/depthwise_weights", "StatefulPartitionedCall/intermediate_layer_getter/block_14_depthwise/depthwise_bn_offset"], "attr": {"padding": {"s": "U0FNRQ=="}, "strides": {"list": {"i": ["1", "1", "1", "1"]}}, "fused_ops": {"list": {"s": ["Qmlhc0FkZA==", "UmVsdTY="]}}, "T": {"type": "DT_FLOAT"}, "num_args": {"i": "1"}, "dilations": {"list": {"i": ["1", "1", "1", "1"]}}, "data_format": {"s": "TkhXQw=="}, "explicit_paddings": {"list": {}}}}, {"name": "StatefulPartitionedCall/intermediate_layer_getter/block_14_project_BN/FusedBatchNormV3", "op": "_FusedConv2D", "input": ["StatefulPartitionedCall/intermediate_layer_getter/block_14_depthwise/depthwise", "StatefulPartitionedCall/intermediate_layer_getter/block_14_project/Conv2D_weights", "StatefulPartitionedCall/intermediate_layer_getter/block_14_project/Conv2D_bn_offset"], "device": "/device:CPU:0", "attr": {"num_args": {"i": "1"}, "epsilon": {"f": 0.0}, "fused_ops": {"list": {"s": ["Qmlhc0FkZA=="]}}, "explicit_paddings": {"list": {}}, "use_cudnn_on_gpu": {"b": true}, "dilations": {"list": {"i": ["1", "1", "1", "1"]}}, "T": {"type": "DT_FLOAT"}, "strides": {"list": {"i": ["1", "1", "1", "1"]}}, "padding": {"s": "U0FNRQ=="}, "data_format": {"s": "TkhXQw=="}}}, {"name": "StatefulPartitionedCall/intermediate_layer_getter/block_14_add/add", "op": "AddV2", "input": ["StatefulPartitionedCall/intermediate_layer_getter/block_13_project_BN/FusedBatchNormV3", "StatefulPartitionedCall/intermediate_layer_getter/block_14_project_BN/FusedBatchNormV3"], "attr": {"T": {"type": "DT_FLOAT"}}}, {"name": "StatefulPartitionedCall/intermediate_layer_getter/block_15_expand_relu/Relu6", "op": "_FusedConv2D", "input": ["StatefulPartitionedCall/intermediate_layer_getter/block_14_add/add", "StatefulPartitionedCall/intermediate_layer_getter/block_15_expand/Conv2D_weights", "StatefulPartitionedCall/intermediate_layer_getter/block_15_expand/Conv2D_bn_offset"], "device": "/device:CPU:0", "attr": {"data_format": {"s": "TkhXQw=="}, "explicit_paddings": {"list": {}}, "fused_ops": {"list": {"s": ["Qmlhc0FkZA==", "UmVsdTY="]}}, "epsilon": {"f": 0.0}, "strides": {"list": {"i": ["1", "1", "1", "1"]}}, "num_args": {"i": "1"}, "dilations": {"list": {"i": ["1", "1", "1", "1"]}}, "padding": {"s": "U0FNRQ=="}, "use_cudnn_on_gpu": {"b": true}, "T": {"type": "DT_FLOAT"}}}, {"name": "StatefulPartitionedCall/intermediate_layer_getter/block_15_depthwise/depthwise", "op": "FusedDepthwiseConv2dNative", "input": ["StatefulPartitionedCall/intermediate_layer_getter/block_15_expand_relu/Relu6", "StatefulPartitionedCall/intermediate_layer_getter/block_15_depthwise/depthwise_weights", "StatefulPartitionedCall/intermediate_layer_getter/block_15_depthwise/depthwise_bn_offset"], "attr": {"strides": {"list": {"i": ["1", "1", "1", "1"]}}, "num_args": {"i": "1"}, "padding": {"s": "U0FNRQ=="}, "data_format": {"s": "TkhXQw=="}, "explicit_paddings": {"list": {}}, "fused_ops": {"list": {"s": ["Qmlhc0FkZA==", "UmVsdTY="]}}, "dilations": {"list": {"i": ["1", "1", "1", "1"]}}, "T": {"type": "DT_FLOAT"}}}, {"name": "StatefulPartitionedCall/intermediate_layer_getter/block_15_project_BN/FusedBatchNormV3", "op": "_FusedConv2D", "input": ["StatefulPartitionedCall/intermediate_layer_getter/block_15_depthwise/depthwise", "StatefulPartitionedCall/intermediate_layer_getter/block_15_project/Conv2D_weights", "StatefulPartitionedCall/intermediate_layer_getter/block_15_project/Conv2D_bn_offset"], "device": "/device:CPU:0", "attr": {"T": {"type": "DT_FLOAT"}, "padding": {"s": "U0FNRQ=="}, "use_cudnn_on_gpu": {"b": true}, "fused_ops": {"list": {"s": ["Qmlhc0FkZA=="]}}, "strides": {"list": {"i": ["1", "1", "1", "1"]}}, "epsilon": {"f": 0.0}, "num_args": {"i": "1"}, "dilations": {"list": {"i": ["1", "1", "1", "1"]}}, "data_format": {"s": "TkhXQw=="}, "explicit_paddings": {"list": {}}}}, {"name": "StatefulPartitionedCall/intermediate_layer_getter/block_15_add/add", "op": "AddV2", "input": ["StatefulPartitionedCall/intermediate_layer_getter/block_14_add/add", "StatefulPartitionedCall/intermediate_layer_getter/block_15_project_BN/FusedBatchNormV3"], "attr": {"T": {"type": "DT_FLOAT"}}}, {"name": "StatefulPartitionedCall/intermediate_layer_getter/block_16_expand_relu/Relu6", "op": "_FusedConv2D", "input": ["StatefulPartitionedCall/intermediate_layer_getter/block_15_add/add", "StatefulPartitionedCall/intermediate_layer_getter/block_16_expand/Conv2D_weights", "StatefulPartitionedCall/intermediate_layer_getter/block_16_expand/Conv2D_bn_offset"], "device": "/device:CPU:0", "attr": {"data_format": {"s": "TkhXQw=="}, "padding": {"s": "U0FNRQ=="}, "fused_ops": {"list": {"s": ["Qmlhc0FkZA==", "UmVsdTY="]}}, "T": {"type": "DT_FLOAT"}, "strides": {"list": {"i": ["1", "1", "1", "1"]}}, "num_args": {"i": "1"}, "epsilon": {"f": 0.0}, "use_cudnn_on_gpu": {"b": true}, "explicit_paddings": {"list": {}}, "dilations": {"list": {"i": ["1", "1", "1", "1"]}}}}, {"name": "StatefulPartitionedCall/intermediate_layer_getter/block_16_depthwise/depthwise", "op": "FusedDepthwiseConv2dNative", "input": ["StatefulPartitionedCall/intermediate_layer_getter/block_16_expand_relu/Relu6", "StatefulPartitionedCall/intermediate_layer_getter/block_16_depthwise/depthwise_weights", "StatefulPartitionedCall/intermediate_layer_getter/block_16_depthwise/depthwise_bn_offset"], "attr": {"padding": {"s": "U0FNRQ=="}, "T": {"type": "DT_FLOAT"}, "strides": {"list": {"i": ["1", "1", "1", "1"]}}, "num_args": {"i": "1"}, "data_format": {"s": "TkhXQw=="}, "fused_ops": {"list": {"s": ["Qmlhc0FkZA==", "UmVsdTY="]}}, "dilations": {"list": {"i": ["1", "1", "1", "1"]}}, "explicit_paddings": {"list": {}}}}, {"name": "StatefulPartitionedCall/intermediate_layer_getter/block_16_project_BN/FusedBatchNormV3", "op": "_FusedConv2D", "input": ["StatefulPartitionedCall/intermediate_layer_getter/block_16_depthwise/depthwise", "StatefulPartitionedCall/intermediate_layer_getter/block_16_project/Conv2D_weights", "StatefulPartitionedCall/intermediate_layer_getter/block_16_project/Conv2D_bn_offset"], "device": "/device:CPU:0", "attr": {"padding": {"s": "U0FNRQ=="}, "num_args": {"i": "1"}, "explicit_paddings": {"list": {}}, "data_format": {"s": "TkhXQw=="}, "strides": {"list": {"i": ["1", "1", "1", "1"]}}, "epsilon": {"f": 0.0}, "T": {"type": "DT_FLOAT"}, "use_cudnn_on_gpu": {"b": true}, "dilations": {"list": {"i": ["1", "1", "1", "1"]}}, "fused_ops": {"list": {"s": ["Qmlhc0FkZA=="]}}}}, {"name": "StatefulPartitionedCall/intermediate_layer_getter/out_relu/Relu6", "op": "_FusedConv2D", "input": ["StatefulPartitionedCall/intermediate_layer_getter/block_16_project_BN/FusedBatchNormV3", "StatefulPartitionedCall/intermediate_layer_getter/Conv_1/Conv2D_weights", "StatefulPartitionedCall/intermediate_layer_getter/Conv_1/Conv2D_bn_offset"], "device": "/device:CPU:0", "attr": {"padding": {"s": "VkFMSUQ="}, "T": {"type": "DT_FLOAT"}, "data_format": {"s": "TkhXQw=="}, "strides": {"list": {"i": ["1", "1", "1", "1"]}}, "explicit_paddings": {"list": {}}, "epsilon": {"f": 0.0}, "dilations": {"list": {"i": ["1", "1", "1", "1"]}}, "use_cudnn_on_gpu": {"b": true}, "num_args": {"i": "1"}, "fused_ops": {"list": {"s": ["Qmlhc0FkZA==", "UmVsdTY="]}}}}, {"name": "StatefulPartitionedCall/feature_pyramid_network/conv2d_3/BiasAdd", "op": "_FusedConv2D", "input": ["StatefulPartitionedCall/intermediate_layer_getter/out_relu/Relu6", "StatefulPartitionedCall/feature_pyramid_network/conv2d_3/Conv2D/ReadVariableOp", "StatefulPartitionedCall/feature_pyramid_network/conv2d_3/BiasAdd/ReadVariableOp"], "device": "/device:CPU:0", "attr": {"use_cudnn_on_gpu": {"b": true}, "data_format": {"s": "TkhXQw=="}, "strides": {"list": {"i": ["1", "1", "1", "1"]}}, "epsilon": {"f": 0.0}, "dilations": {"list": {"i": ["1", "1", "1", "1"]}}, "fused_ops": {"list": {"s": ["Qmlhc0FkZA=="]}}, "T": {"type": "DT_FLOAT"}, "explicit_paddings": {"list": {}}, "padding": {"s": "VkFMSUQ="}, "num_args": {"i": "1"}}}, {"name": "StatefulPartitionedCall/feature_pyramid_network/sequential_3/activation_3/Relu", "op": "_FusedConv2D", "input": ["StatefulPartitionedCall/feature_pyramid_network/conv2d_3/BiasAdd", "StatefulPartitionedCall/feature_pyramid_network/sequential_3/conv2d_7/Conv2D_weights", "StatefulPartitionedCall/feature_pyramid_network/sequential_3/conv2d_7/Conv2D_bn_offset"], "device": "/device:CPU:0", "attr": {"dilations": {"list": {"i": ["1", "1", "1", "1"]}}, "explicit_paddings": {"list": {}}, "data_format": {"s": "TkhXQw=="}, "padding": {"s": "U0FNRQ=="}, "use_cudnn_on_gpu": {"b": true}, "fused_ops": {"list": {"s": ["Qmlhc0FkZA==", "UmVsdQ=="]}}, "num_args": {"i": "1"}, "T": {"type": "DT_FLOAT"}, "epsilon": {"f": 0.0}, "strides": {"list": {"i": ["1", "1", "1", "1"]}}}}, {"name": "StatefulPartitionedCall/feature_pyramid_network/sequential_3/up_sampling2d_3/resize/ResizeNearestNeighbor", "op": "ResizeNearestNeighbor", "input": ["StatefulPartitionedCall/feature_pyramid_network/sequential_3/activation_3/Relu", "StatefulPartitionedCall/feature_pyramid_network/sequential_3/up_sampling2d_3/mul"], "attr": {"half_pixel_centers": {"b": true}, "align_corners": {"b": false}, "T": {"type": "DT_FLOAT"}}}, {"name": "StatefulPartitionedCall/feature_pyramid_network/concatenate/concat", "op": "ConcatV2", "input": ["StatefulPartitionedCall/feature_pyramid_network/sequential/activation/Relu", "StatefulPartitionedCall/feature_pyramid_network/sequential_1/up_sampling2d_1/resize/ResizeNearestNeighbor", "StatefulPartitionedCall/feature_pyramid_network/sequential_2/up_sampling2d_2/resize/ResizeNearestNeighbor", "StatefulPartitionedCall/feature_pyramid_network/sequential_3/up_sampling2d_3/resize/ResizeNearestNeighbor", "StatefulPartitionedCall/feature_pyramid_network/concatenate/concat/axis"], "attr": {"Tidx": {"type": "DT_INT32"}, "T": {"type": "DT_FLOAT"}, "N": {"i": "4"}}}, {"name": "StatefulPartitionedCall/sequential_4/activation_4/Relu", "op": "_FusedConv2D", "input": ["StatefulPartitionedCall/feature_pyramid_network/concatenate/concat", "StatefulPartitionedCall/sequential_4/conv2d_8/Conv2D_weights", "StatefulPartitionedCall/sequential_4/conv2d_8/Conv2D_bn_offset"], "device": "/device:CPU:0", "attr": {"dilations": {"list": {"i": ["1", "1", "1", "1"]}}, "use_cudnn_on_gpu": {"b": true}, "data_format": {"s": "TkhXQw=="}, "num_args": {"i": "1"}, "fused_ops": {"list": {"s": ["Qmlhc0FkZA==", "UmVsdQ=="]}}, "padding": {"s": "U0FNRQ=="}, "explicit_paddings": {"list": {}}, "strides": {"list": {"i": ["1", "1", "1", "1"]}}, "epsilon": {"f": 0.0}, "T": {"type": "DT_FLOAT"}}}, {"name": "StatefulPartitionedCall/sequential_4/conv2d_transpose/Shape", "op": "Shape", "input": ["StatefulPartitionedCall/sequential_4/activation_4/Relu"], "attr": {"T": {"type": "DT_FLOAT"}, "out_type": {"type": "DT_INT32"}}}, {"name": "StatefulPartitionedCall/sequential_4/conv2d_transpose/strided_slice", "op": "StridedSlice", "input": ["StatefulPartitionedCall/sequential_4/conv2d_transpose/Shape", "StatefulPartitionedCall/sequential_4/conv2d_transpose/strided_slice/stack", "StatefulPartitionedCall/sequential_4/conv2d_transpose/strided_slice/stack_1", "StatefulPartitionedCall/sequential_4/conv2d_transpose/strided_slice/stack_2"], "attr": {"begin_mask": {"i": "0"}, "T": {"type": "DT_INT32"}, "new_axis_mask": {"i": "0"}, "Index": {"type": "DT_INT32"}, "end_mask": {"i": "0"}, "ellipsis_mask": {"i": "0"}, "shrink_axis_mask": {"i": "1"}}}, {"name": "StatefulPartitionedCall/sequential_4/conv2d_transpose/stack", "op": "Pack", "input": ["StatefulPartitionedCall/sequential_4/conv2d_transpose/strided_slice", "StatefulPartitionedCall/sequential_4/conv2d_transpose/stack/1", "StatefulPartitionedCall/sequential_4/conv2d_transpose/stack/2", "StatefulPartitionedCall/sequential_4/conv2d_transpose/stack/3"], "attr": {"axis": {"i": "0"}, "N": {"i": "4"}, "T": {"type": "DT_INT32"}}}, {"name": "StatefulPartitionedCall/sequential_4/conv2d_transpose/conv2d_transpose", "op": "Conv2DBackpropInput", "input": ["StatefulPartitionedCall/sequential_4/conv2d_transpose/stack", "StatefulPartitionedCall/sequential_4/conv2d_transpose/conv2d_transpose/ReadVariableOp", "StatefulPartitionedCall/sequential_4/activation_4/Relu"], "attr": {"use_cudnn_on_gpu": {"b": true}, "padding": {"s": "VkFMSUQ="}, "data_format": {"s": "TkhXQw=="}, "explicit_paddings": {"list": {}}, "dilations": {"list": {"i": ["1", "1", "1", "1"]}}, "T": {"type": "DT_FLOAT"}, "strides": {"list": {"i": ["1", "2", "2", "1"]}}}}, {"name": "StatefulPartitionedCall/sequential_4/batch_normalization_5/FusedBatchNormV3/Mul", "op": "Mul", "input": ["StatefulPartitionedCall/sequential_4/conv2d_transpose/conv2d_transpose", "StatefulPartitionedCall/sequential_4/batch_normalization_5/FusedBatchNormV3/Scaled"], "attr": {"T": {"type": "DT_FLOAT"}}}, {"name": "StatefulPartitionedCall/sequential_4/batch_normalization_5/FusedBatchNormV3", "op": "Add", "input": ["StatefulPartitionedCall/sequential_4/batch_normalization_5/FusedBatchNormV3/Mul", "StatefulPartitionedCall/sequential_4/batch_normalization_5/FusedBatchNormV3/Offset"], "attr": {"T": {"type": "DT_FLOAT"}}}, {"name": "StatefulPartitionedCall/sequential_4/activation_5/Relu", "op": "Relu", "input": ["StatefulPartitionedCall/sequential_4/batch_normalization_5/FusedBatchNormV3"], "attr": {"T": {"type": "DT_FLOAT"}}}, {"name": "StatefulPartitionedCall/sequential_4/conv2d_transpose_1/Shape", "op": "Shape", "input": ["StatefulPartitionedCall/sequential_4/activation_5/Relu"], "attr": {"T": {"type": "DT_FLOAT"}, "out_type": {"type": "DT_INT32"}}}, {"name": "StatefulPartitionedCall/sequential_4/conv2d_transpose_1/strided_slice", "op": "StridedSlice", "input": ["StatefulPartitionedCall/sequential_4/conv2d_transpose_1/Shape", "StatefulPartitionedCall/sequential_4/conv2d_transpose_1/strided_slice/stack", "StatefulPartitionedCall/sequential_4/conv2d_transpose_1/strided_slice/stack_1", "StatefulPartitionedCall/sequential_4/conv2d_transpose_1/strided_slice/stack_2"], "attr": {"new_axis_mask": {"i": "0"}, "Index": {"type": "DT_INT32"}, "shrink_axis_mask": {"i": "1"}, "end_mask": {"i": "0"}, "ellipsis_mask": {"i": "0"}, "begin_mask": {"i": "0"}, "T": {"type": "DT_INT32"}}}, {"name": "StatefulPartitionedCall/sequential_4/conv2d_transpose_1/stack", "op": "Pack", "input": ["StatefulPartitionedCall/sequential_4/conv2d_transpose_1/strided_slice", "StatefulPartitionedCall/sequential_4/conv2d_transpose_1/stack/1", "StatefulPartitionedCall/sequential_4/conv2d_transpose_1/stack/2", "StatefulPartitionedCall/sequential_4/conv2d_transpose_1/stack/3"], "attr": {"axis": {"i": "0"}, "T": {"type": "DT_INT32"}, "N": {"i": "4"}}}, {"name": "StatefulPartitionedCall/sequential_4/conv2d_transpose_1/conv2d_transpose", "op": "Conv2DBackpropInput", "input": ["StatefulPartitionedCall/sequential_4/conv2d_transpose_1/stack", "StatefulPartitionedCall/sequential_4/conv2d_transpose_1/conv2d_transpose/ReadVariableOp", "StatefulPartitionedCall/sequential_4/activation_5/Relu"], "attr": {"strides": {"list": {"i": ["1", "2", "2", "1"]}}, "use_cudnn_on_gpu": {"b": true}, "explicit_paddings": {"list": {}}, "dilations": {"list": {"i": ["1", "1", "1", "1"]}}, "T": {"type": "DT_FLOAT"}, "padding": {"s": "VkFMSUQ="}, "data_format": {"s": "TkhXQw=="}}}, {"name": "StatefulPartitionedCall/sequential_4/conv2d_transpose_1/BiasAdd", "op": "BiasAdd", "input": ["StatefulPartitionedCall/sequential_4/conv2d_transpose_1/conv2d_transpose", "StatefulPartitionedCall/sequential_4/conv2d_transpose_1/BiasAdd/ReadVariableOp"], "attr": {"data_format": {"s": "TkhXQw=="}, "T": {"type": "DT_FLOAT"}}}, {"name": "StatefulPartitionedCall/Sigmoid", "op": "Sigmoid", "input": ["StatefulPartitionedCall/sequential_4/conv2d_transpose_1/BiasAdd"], "attr": {"T": {"type": "DT_FLOAT"}}}, {"name": "Identity", "op": "Identity", "input": ["StatefulPartitionedCall/Sigmoid"], "attr": {"T": {"type": "DT_FLOAT"}}}], "library": {}, "versions": {"producer": 716}}, "weightsManifest": [{"paths": ["group1-shard1of4.bin", "group1-shard2of4.bin", "group1-shard3of4.bin", "group1-shard4of4.bin"], "weights": [{"name": "StatefulPartitionedCall/sequential_4/conv2d_transpose_1/strided_slice/stack", "shape": [1], "dtype": "int32"}, {"name": "StatefulPartitionedCall/sequential_4/conv2d_transpose_1/strided_slice/stack_1", "shape": [1], "dtype": "int32"}, {"name": "StatefulPartitionedCall/sequential_4/conv2d_transpose_1/strided_slice/stack_2", "shape": [1], "dtype": "int32"}, {"name": "StatefulPartitionedCall/sequential_4/conv2d_transpose_1/stack/1", "shape": [], "dtype": "int32"}, {"name": "StatefulPartitionedCall/sequential_4/conv2d_transpose_1/stack/2", "shape": [], "dtype": "int32"}, {"name": "StatefulPartitionedCall/sequential_4/conv2d_transpose_1/stack/3", "shape": [], "dtype": "int32"}, {"name": "StatefulPartitionedCall/sequential_4/conv2d_transpose_1/conv2d_transpose/ReadVariableOp", "shape": [2, 2, 1, 64], "dtype": "float32"}, {"name": "StatefulPartitionedCall/sequential_4/conv2d_transpose/strided_slice/stack", "shape": [1], "dtype": "int32"}, {"name": "StatefulPartitionedCall/sequential_4/conv2d_transpose/strided_slice/stack_1", "shape": [1], "dtype": "int32"}, {"name": "StatefulPartitionedCall/sequential_4/conv2d_transpose/strided_slice/stack_2", "shape": [1], "dtype": "int32"}, {"name": "StatefulPartitionedCall/sequential_4/conv2d_transpose/stack/1", "shape": [], "dtype": "int32"}, {"name": "StatefulPartitionedCall/sequential_4/conv2d_transpose/stack/2", "shape": [], "dtype": "int32"}, {"name": "StatefulPartitionedCall/sequential_4/conv2d_transpose/stack/3", "shape": [], "dtype": "int32"}, {"name": "StatefulPartitionedCall/sequential_4/conv2d_transpose/conv2d_transpose/ReadVariableOp", "shape": [2, 2, 64, 64], "dtype": "float32"}, {"name": "StatefulPartitionedCall/feature_pyramid_network/conv2d/Conv2D/ReadVariableOp", "shape": [1, 1, 144, 128], "dtype": "float32"}, {"name": "StatefulPartitionedCall/feature_pyramid_network/conv2d/BiasAdd/ReadVariableOp", "shape": [128], "dtype": "float32"}, {"name": "StatefulPartitionedCall/feature_pyramid_network/conv2d_1/Conv2D/ReadVariableOp", "shape": [1, 1, 192, 128], "dtype": "float32"}, {"name": "StatefulPartitionedCall/feature_pyramid_network/conv2d_1/BiasAdd/ReadVariableOp", "shape": [128], "dtype": "float32"}, {"name": "StatefulPartitionedCall/feature_pyramid_network/sequential_1/up_sampling2d_1/mul", "shape": [2], "dtype": "int32"}, {"name": "StatefulPartitionedCall/feature_pyramid_network/conv2d_2/Conv2D/ReadVariableOp", "shape": [1, 1, 576, 128], "dtype": "float32"}, {"name": "StatefulPartitionedCall/feature_pyramid_network/conv2d_2/BiasAdd/ReadVariableOp", "shape": [128], "dtype": "float32"}, {"name": "StatefulPartitionedCall/feature_pyramid_network/sequential_2/up_sampling2d_2/mul", "shape": [2], "dtype": "int32"}, {"name": "StatefulPartitionedCall/intermediate_layer_getter/block_1_pad/Pad/paddings", "shape": [4, 2], "dtype": "int32"}, {"name": "StatefulPartitionedCall/intermediate_layer_getter/block_3_pad/Pad/paddings", "shape": [4, 2], "dtype": "int32"}, {"name": "StatefulPartitionedCall/intermediate_layer_getter/block_6_pad/Pad/paddings", "shape": [4, 2], "dtype": "int32"}, {"name": "StatefulPartitionedCall/intermediate_layer_getter/block_13_pad/Pad/paddings", "shape": [4, 2], "dtype": "int32"}, {"name": "StatefulPartitionedCall/feature_pyramid_network/conv2d_3/Conv2D/ReadVariableOp", "shape": [1, 1, 1280, 128], "dtype": "float32"}, {"name": "StatefulPartitionedCall/feature_pyramid_network/conv2d_3/BiasAdd/ReadVariableOp", "shape": [128], "dtype": "float32"}, {"name": "StatefulPartitionedCall/feature_pyramid_network/sequential_3/up_sampling2d_3/mul", "shape": [2], "dtype": "int32"}, {"name": "StatefulPartitionedCall/feature_pyramid_network/concatenate/concat/axis", "shape": [], "dtype": "int32"}, {"name": "StatefulPartitionedCall/sequential_4/conv2d_transpose_1/BiasAdd/ReadVariableOp", "shape": [1], "dtype": "float32"}, {"name": "StatefulPartitionedCall/intermediate_layer_getter/Conv1/Conv2D_weights", "shape": [3, 3, 3, 32], "dtype": "float32"}, {"name": "StatefulPartitionedCall/intermediate_layer_getter/Conv1/Conv2D_bn_offset", "shape": [32], "dtype": "float32"}, {"name": "StatefulPartitionedCall/intermediate_layer_getter/block_15_expand/Conv2D_bn_offset", "shape": [960], "dtype": "float32"}, {"name": "StatefulPartitionedCall/intermediate_layer_getter/expanded_conv_depthwise/depthwise_weights", "shape": [3, 3, 32, 1], "dtype": "float32"}, {"name": "StatefulPartitionedCall/intermediate_layer_getter/expanded_conv_depthwise/depthwise_bn_offset", "shape": [32], "dtype": "float32"}, {"name": "StatefulPartitionedCall/intermediate_layer_getter/expanded_conv_project/Conv2D_weights", "shape": [1, 1, 32, 16], "dtype": "float32"}, {"name": "StatefulPartitionedCall/intermediate_layer_getter/expanded_conv_project/Conv2D_bn_offset", "shape": [16], "dtype": "float32"}, {"name": "StatefulPartitionedCall/intermediate_layer_getter/block_1_expand/Conv2D_weights", "shape": [1, 1, 16, 96], "dtype": "float32"}, {"name": "StatefulPartitionedCall/intermediate_layer_getter/block_1_expand/Conv2D_bn_offset", "shape": [96], "dtype": "float32"}, {"name": "StatefulPartitionedCall/intermediate_layer_getter/block_15_depthwise/depthwise_weights", "shape": [3, 3, 960, 1], "dtype": "float32"}, {"name": "StatefulPartitionedCall/intermediate_layer_getter/block_1_depthwise/depthwise_weights", "shape": [3, 3, 96, 1], "dtype": "float32"}, {"name": "StatefulPartitionedCall/intermediate_layer_getter/block_1_depthwise/depthwise_bn_offset", "shape": [96], "dtype": "float32"}, {"name": "StatefulPartitionedCall/intermediate_layer_getter/block_1_project/Conv2D_weights", "shape": [1, 1, 96, 24], "dtype": "float32"}, {"name": "StatefulPartitionedCall/intermediate_layer_getter/block_1_project/Conv2D_bn_offset", "shape": [24], "dtype": "float32"}, {"name": "StatefulPartitionedCall/intermediate_layer_getter/block_2_expand/Conv2D_weights", "shape": [1, 1, 24, 144], "dtype": "float32"}, {"name": "StatefulPartitionedCall/intermediate_layer_getter/block_15_depthwise/depthwise_bn_offset", "shape": [960], "dtype": "float32"}, {"name": "StatefulPartitionedCall/intermediate_layer_getter/block_2_expand/Conv2D_bn_offset", "shape": [144], "dtype": "float32"}, {"name": "StatefulPartitionedCall/intermediate_layer_getter/block_2_depthwise/depthwise_weights", "shape": [3, 3, 144, 1], "dtype": "float32"}, {"name": "StatefulPartitionedCall/intermediate_layer_getter/block_2_depthwise/depthwise_bn_offset", "shape": [144], "dtype": "float32"}, {"name": "StatefulPartitionedCall/intermediate_layer_getter/block_2_project/Conv2D_weights", "shape": [1, 1, 144, 24], "dtype": "float32"}, {"name": "StatefulPartitionedCall/intermediate_layer_getter/block_2_project/Conv2D_bn_offset", "shape": [24], "dtype": "float32"}, {"name": "StatefulPartitionedCall/intermediate_layer_getter/block_3_expand/Conv2D_weights", "shape": [1, 1, 24, 144], "dtype": "float32"}, {"name": "StatefulPartitionedCall/intermediate_layer_getter/block_15_project/Conv2D_weights", "shape": [1, 1, 960, 160], "dtype": "float32"}, {"name": "StatefulPartitionedCall/intermediate_layer_getter/block_3_expand/Conv2D_bn_offset", "shape": [144], "dtype": "float32"}, {"name": "StatefulPartitionedCall/intermediate_layer_getter/block_15_project/Conv2D_bn_offset", "shape": [160], "dtype": "float32"}, {"name": "StatefulPartitionedCall/intermediate_layer_getter/block_3_depthwise/depthwise_weights", "shape": [3, 3, 144, 1], "dtype": "float32"}, {"name": "StatefulPartitionedCall/intermediate_layer_getter/block_3_depthwise/depthwise_bn_offset", "shape": [144], "dtype": "float32"}, {"name": "StatefulPartitionedCall/feature_pyramid_network/sequential/conv2d_4/Conv2D_weights", "shape": [3, 3, 128, 128], "dtype": "float32"}, {"name": "StatefulPartitionedCall/feature_pyramid_network/sequential/conv2d_4/Conv2D_bn_offset", "shape": [128], "dtype": "float32"}, {"name": "StatefulPartitionedCall/intermediate_layer_getter/block_3_project/Conv2D_weights", "shape": [1, 1, 144, 32], "dtype": "float32"}, {"name": "StatefulPartitionedCall/intermediate_layer_getter/block_16_expand/Conv2D_weights", "shape": [1, 1, 160, 960], "dtype": "float32"}, {"name": "StatefulPartitionedCall/intermediate_layer_getter/block_3_project/Conv2D_bn_offset", "shape": [32], "dtype": "float32"}, {"name": "StatefulPartitionedCall/intermediate_layer_getter/block_4_expand/Conv2D_weights", "shape": [1, 1, 32, 192], "dtype": "float32"}, {"name": "StatefulPartitionedCall/intermediate_layer_getter/block_4_expand/Conv2D_bn_offset", "shape": [192], "dtype": "float32"}, {"name": "StatefulPartitionedCall/intermediate_layer_getter/block_16_expand/Conv2D_bn_offset", "shape": [960], "dtype": "float32"}, {"name": "StatefulPartitionedCall/intermediate_layer_getter/block_4_depthwise/depthwise_weights", "shape": [3, 3, 192, 1], "dtype": "float32"}, {"name": "StatefulPartitionedCall/intermediate_layer_getter/block_4_depthwise/depthwise_bn_offset", "shape": [192], "dtype": "float32"}, {"name": "StatefulPartitionedCall/intermediate_layer_getter/block_4_project/Conv2D_weights", "shape": [1, 1, 192, 32], "dtype": "float32"}, {"name": "StatefulPartitionedCall/intermediate_layer_getter/block_4_project/Conv2D_bn_offset", "shape": [32], "dtype": "float32"}, {"name": "StatefulPartitionedCall/intermediate_layer_getter/block_5_expand/Conv2D_weights", "shape": [1, 1, 32, 192], "dtype": "float32"}, {"name": "StatefulPartitionedCall/intermediate_layer_getter/block_5_expand/Conv2D_bn_offset", "shape": [192], "dtype": "float32"}, {"name": "StatefulPartitionedCall/intermediate_layer_getter/block_16_depthwise/depthwise_weights", "shape": [3, 3, 960, 1], "dtype": "float32"}, {"name": "StatefulPartitionedCall/intermediate_layer_getter/block_5_depthwise/depthwise_weights", "shape": [3, 3, 192, 1], "dtype": "float32"}, {"name": "StatefulPartitionedCall/intermediate_layer_getter/block_5_depthwise/depthwise_bn_offset", "shape": [192], "dtype": "float32"}, {"name": "StatefulPartitionedCall/intermediate_layer_getter/block_5_project/Conv2D_weights", "shape": [1, 1, 192, 32], "dtype": "float32"}, {"name": "StatefulPartitionedCall/intermediate_layer_getter/block_5_project/Conv2D_bn_offset", "shape": [32], "dtype": "float32"}, {"name": "StatefulPartitionedCall/intermediate_layer_getter/block_6_expand/Conv2D_weights", "shape": [1, 1, 32, 192], "dtype": "float32"}, {"name": "StatefulPartitionedCall/intermediate_layer_getter/block_16_depthwise/depthwise_bn_offset", "shape": [960], "dtype": "float32"}, {"name": "StatefulPartitionedCall/intermediate_layer_getter/block_6_expand/Conv2D_bn_offset", "shape": [192], "dtype": "float32"}, {"name": "StatefulPartitionedCall/intermediate_layer_getter/block_6_depthwise/depthwise_weights", "shape": [3, 3, 192, 1], "dtype": "float32"}, {"name": "StatefulPartitionedCall/intermediate_layer_getter/block_6_depthwise/depthwise_bn_offset", "shape": [192], "dtype": "float32"}, {"name": "StatefulPartitionedCall/feature_pyramid_network/sequential_1/conv2d_5/Conv2D_weights", "shape": [3, 3, 128, 128], "dtype": "float32"}, {"name": "StatefulPartitionedCall/intermediate_layer_getter/block_16_project/Conv2D_weights", "shape": [1, 1, 960, 320], "dtype": "float32"}, {"name": "StatefulPartitionedCall/feature_pyramid_network/sequential_1/conv2d_5/Conv2D_bn_offset", "shape": [128], "dtype": "float32"}, {"name": "StatefulPartitionedCall/intermediate_layer_getter/block_6_project/Conv2D_weights", "shape": [1, 1, 192, 64], "dtype": "float32"}, {"name": "StatefulPartitionedCall/intermediate_layer_getter/block_16_project/Conv2D_bn_offset", "shape": [320], "dtype": "float32"}, {"name": "StatefulPartitionedCall/intermediate_layer_getter/block_6_project/Conv2D_bn_offset", "shape": [64], "dtype": "float32"}, {"name": "StatefulPartitionedCall/intermediate_layer_getter/block_7_expand/Conv2D_weights", "shape": [1, 1, 64, 384], "dtype": "float32"}, {"name": "StatefulPartitionedCall/intermediate_layer_getter/block_7_expand/Conv2D_bn_offset", "shape": [384], "dtype": "float32"}, {"name": "StatefulPartitionedCall/intermediate_layer_getter/Conv_1/Conv2D_weights", "shape": [1, 1, 320, 1280], "dtype": "float32"}, {"name": "StatefulPartitionedCall/intermediate_layer_getter/block_7_depthwise/depthwise_weights", "shape": [3, 3, 384, 1], "dtype": "float32"}, {"name": "StatefulPartitionedCall/intermediate_layer_getter/block_7_depthwise/depthwise_bn_offset", "shape": [384], "dtype": "float32"}, {"name": "StatefulPartitionedCall/intermediate_layer_getter/block_7_project/Conv2D_weights", "shape": [1, 1, 384, 64], "dtype": "float32"}, {"name": "StatefulPartitionedCall/intermediate_layer_getter/block_7_project/Conv2D_bn_offset", "shape": [64], "dtype": "float32"}, {"name": "StatefulPartitionedCall/intermediate_layer_getter/block_8_expand/Conv2D_weights", "shape": [1, 1, 64, 384], "dtype": "float32"}, {"name": "StatefulPartitionedCall/intermediate_layer_getter/Conv_1/Conv2D_bn_offset", "shape": [1280], "dtype": "float32"}, {"name": "StatefulPartitionedCall/intermediate_layer_getter/block_8_expand/Conv2D_bn_offset", "shape": [384], "dtype": "float32"}, {"name": "StatefulPartitionedCall/intermediate_layer_getter/block_8_depthwise/depthwise_weights", "shape": [3, 3, 384, 1], "dtype": "float32"}, {"name": "StatefulPartitionedCall/intermediate_layer_getter/block_8_depthwise/depthwise_bn_offset", "shape": [384], "dtype": "float32"}, {"name": "StatefulPartitionedCall/intermediate_layer_getter/block_8_project/Conv2D_weights", "shape": [1, 1, 384, 64], "dtype": "float32"}, {"name": "StatefulPartitionedCall/intermediate_layer_getter/block_8_project/Conv2D_bn_offset", "shape": [64], "dtype": "float32"}, {"name": "StatefulPartitionedCall/intermediate_layer_getter/block_9_expand/Conv2D_weights", "shape": [1, 1, 64, 384], "dtype": "float32"}, {"name": "StatefulPartitionedCall/intermediate_layer_getter/block_9_expand/Conv2D_bn_offset", "shape": [384], "dtype": "float32"}, {"name": "StatefulPartitionedCall/intermediate_layer_getter/block_9_depthwise/depthwise_weights", "shape": [3, 3, 384, 1], "dtype": "float32"}, {"name": "StatefulPartitionedCall/intermediate_layer_getter/block_9_depthwise/depthwise_bn_offset", "shape": [384], "dtype": "float32"}, {"name": "StatefulPartitionedCall/intermediate_layer_getter/block_9_project/Conv2D_weights", "shape": [1, 1, 384, 64], "dtype": "float32"}, {"name": "StatefulPartitionedCall/feature_pyramid_network/sequential_3/conv2d_7/Conv2D_weights", "shape": [3, 3, 128, 128], "dtype": "float32"}, {"name": "StatefulPartitionedCall/intermediate_layer_getter/block_9_project/Conv2D_bn_offset", "shape": [64], "dtype": "float32"}, {"name": "StatefulPartitionedCall/intermediate_layer_getter/block_10_expand/Conv2D_weights", "shape": [1, 1, 64, 384], "dtype": "float32"}, {"name": "StatefulPartitionedCall/sequential_4/batch_normalization_5/FusedBatchNormV3/Scaled", "shape": [64], "dtype": "float32"}, {"name": "StatefulPartitionedCall/intermediate_layer_getter/block_10_expand/Conv2D_bn_offset", "shape": [384], "dtype": "float32"}, {"name": "StatefulPartitionedCall/feature_pyramid_network/sequential_3/conv2d_7/Conv2D_bn_offset", "shape": [128], "dtype": "float32"}, {"name": "StatefulPartitionedCall/intermediate_layer_getter/block_10_depthwise/depthwise_weights", "shape": [3, 3, 384, 1], "dtype": "float32"}, {"name": "StatefulPartitionedCall/intermediate_layer_getter/block_10_depthwise/depthwise_bn_offset", "shape": [384], "dtype": "float32"}, {"name": "StatefulPartitionedCall/intermediate_layer_getter/block_10_project/Conv2D_weights", "shape": [1, 1, 384, 96], "dtype": "float32"}, {"name": "StatefulPartitionedCall/intermediate_layer_getter/block_10_project/Conv2D_bn_offset", "shape": [96], "dtype": "float32"}, {"name": "StatefulPartitionedCall/intermediate_layer_getter/block_11_expand/Conv2D_weights", "shape": [1, 1, 96, 576], "dtype": "float32"}, {"name": "StatefulPartitionedCall/intermediate_layer_getter/block_11_expand/Conv2D_bn_offset", "shape": [576], "dtype": "float32"}, {"name": "StatefulPartitionedCall/intermediate_layer_getter/block_11_depthwise/depthwise_weights", "shape": [3, 3, 576, 1], "dtype": "float32"}, {"name": "StatefulPartitionedCall/intermediate_layer_getter/block_11_depthwise/depthwise_bn_offset", "shape": [576], "dtype": "float32"}, {"name": "StatefulPartitionedCall/intermediate_layer_getter/block_11_project/Conv2D_weights", "shape": [1, 1, 576, 96], "dtype": "float32"}, {"name": "StatefulPartitionedCall/intermediate_layer_getter/block_11_project/Conv2D_bn_offset", "shape": [96], "dtype": "float32"}, {"name": "StatefulPartitionedCall/intermediate_layer_getter/block_12_expand/Conv2D_weights", "shape": [1, 1, 96, 576], "dtype": "float32"}, {"name": "StatefulPartitionedCall/sequential_4/conv2d_8/Conv2D_weights", "shape": [3, 3, 512, 64], "dtype": "float32"}, {"name": "StatefulPartitionedCall/intermediate_layer_getter/block_12_expand/Conv2D_bn_offset", "shape": [576], "dtype": "float32"}, {"name": "StatefulPartitionedCall/intermediate_layer_getter/block_12_depthwise/depthwise_weights", "shape": [3, 3, 576, 1], "dtype": "float32"}, {"name": "StatefulPartitionedCall/intermediate_layer_getter/block_12_depthwise/depthwise_bn_offset", "shape": [576], "dtype": "float32"}, {"name": "StatefulPartitionedCall/intermediate_layer_getter/block_12_project/Conv2D_weights", "shape": [1, 1, 576, 96], "dtype": "float32"}, {"name": "StatefulPartitionedCall/sequential_4/conv2d_8/Conv2D_bn_offset", "shape": [64], "dtype": "float32"}, {"name": "StatefulPartitionedCall/intermediate_layer_getter/block_12_project/Conv2D_bn_offset", "shape": [96], "dtype": "float32"}, {"name": "StatefulPartitionedCall/intermediate_layer_getter/block_13_expand/Conv2D_weights", "shape": [1, 1, 96, 576], "dtype": "float32"}, {"name": "StatefulPartitionedCall/sequential_4/batch_normalization_5/FusedBatchNormV3/Offset", "shape": [64], "dtype": "float32"}, {"name": "StatefulPartitionedCall/intermediate_layer_getter/block_13_expand/Conv2D_bn_offset", "shape": [576], "dtype": "float32"}, {"name": "StatefulPartitionedCall/intermediate_layer_getter/block_13_depthwise/depthwise_weights", "shape": [3, 3, 576, 1], "dtype": "float32"}, {"name": "StatefulPartitionedCall/intermediate_layer_getter/block_13_depthwise/depthwise_bn_offset", "shape": [576], "dtype": "float32"}, {"name": "StatefulPartitionedCall/feature_pyramid_network/sequential_2/conv2d_6/Conv2D_weights", "shape": [3, 3, 128, 128], "dtype": "float32"}, {"name": "StatefulPartitionedCall/feature_pyramid_network/sequential_2/conv2d_6/Conv2D_bn_offset", "shape": [128], "dtype": "float32"}, {"name": "StatefulPartitionedCall/intermediate_layer_getter/block_13_project/Conv2D_weights", "shape": [1, 1, 576, 160], "dtype": "float32"}, {"name": "StatefulPartitionedCall/intermediate_layer_getter/block_13_project/Conv2D_bn_offset", "shape": [160], "dtype": "float32"}, {"name": "StatefulPartitionedCall/intermediate_layer_getter/block_14_expand/Conv2D_weights", "shape": [1, 1, 160, 960], "dtype": "float32"}, {"name": "StatefulPartitionedCall/intermediate_layer_getter/block_14_expand/Conv2D_bn_offset", "shape": [960], "dtype": "float32"}, {"name": "StatefulPartitionedCall/intermediate_layer_getter/block_14_depthwise/depthwise_weights", "shape": [3, 3, 960, 1], "dtype": "float32"}, {"name": "StatefulPartitionedCall/intermediate_layer_getter/block_14_depthwise/depthwise_bn_offset", "shape": [960], "dtype": "float32"}, {"name": "StatefulPartitionedCall/intermediate_layer_getter/block_14_project/Conv2D_weights", "shape": [1, 1, 960, 160], "dtype": "float32"}, {"name": "StatefulPartitionedCall/intermediate_layer_getter/block_14_project/Conv2D_bn_offset", "shape": [160], "dtype": "float32"}, {"name": "StatefulPartitionedCall/intermediate_layer_getter/block_15_expand/Conv2D_weights", "shape": [1, 1, 160, 960], "dtype": "float32"}]}]}