{"format": "graph-model", "generatedBy": "2.5.0", "convertedBy": "TensorFlow.js Converter v3.9.0", "signature": {"inputs": {"input_1": {"name": "input_1:0", "dtype": "DT_FLOAT", "tensorShape": {"dim": [{"size": "-1"}, {"size": "32"}, {"size": "128"}, {"size": "3"}]}}}, "outputs": {"output_1": {"name": "Identity:0", "dtype": "DT_FLOAT", "tensorShape": {"dim": [{"size": "-1"}, {"size": "32"}, {"size": "124"}]}}}}, "modelTopology": {"node": [{"name": "StatefulPartitionedCall/crnn/sequential/dense/Tensordot/Const", "op": "Const", "attr": {"dtype": {"type": "DT_INT32"}, "value": {"tensor": {"dtype": "DT_INT32", "tensorShape": {"dim": [{"size": "1"}]}}}}}, {"name": "StatefulPartitionedCall/crnn/sequential/dense/Tensordot/axes", "op": "Const", "attr": {"dtype": {"type": "DT_INT32"}, "value": {"tensor": {"dtype": "DT_INT32", "tensorShape": {"dim": [{"size": "1"}]}}}}}, {"name": "StatefulPartitionedCall/crnn/sequential/dense/Tensordot/GatherV2_1/axis", "op": "Const", "attr": {"dtype": {"type": "DT_INT32"}, "value": {"tensor": {"dtype": "DT_INT32", "tensorShape": {}}}}}, {"name": "StatefulPartitionedCall/crnn/sequential/dense/Tensordot/Const_1", "op": "Const", "attr": {"dtype": {"type": "DT_INT32"}, "value": {"tensor": {"dtype": "DT_INT32", "tensorShape": {"dim": [{"size": "1"}]}}}}}, {"name": "StatefulPartitionedCall/crnn/sequential/dense/Tensordot/ReadVariableOp", "op": "Const", "attr": {"value": {"tensor": {"dtype": "DT_FLOAT", "tensorShape": {"dim": [{"size": "256"}, {"size": "124"}]}}}, "dtype": {"type": "DT_FLOAT"}}}, {"name": "StatefulPartitionedCall/crnn/sequential/bidirectional_1/forward_lstm_1/PartitionedCall/TensorArrayV2_1/element_shape", "op": "Const", "attr": {"dtype": {"type": "DT_INT32"}, "value": {"tensor": {"dtype": "DT_INT32", "tensorShape": {"dim": [{"size": "2"}]}}}}}, {"name": "StatefulPartitionedCall/crnn/sequential/bidirectional_1/forward_lstm_1/zeros_1/packed/1", "op": "Const", "attr": {"dtype": {"type": "DT_INT32"}, "value": {"tensor": {"dtype": "DT_INT32", "tensorShape": {}}}}}, {"name": "StatefulPartitionedCall/crnn/sequential/bidirectional_1/forward_lstm_1/zeros_1/Const", "op": "Const", "attr": {"dtype": {"type": "DT_FLOAT"}, "value": {"tensor": {"dtype": "DT_FLOAT", "tensorShape": {}}}}}, {"name": "StatefulPartitionedCall/crnn/sequential/bidirectional_1/forward_lstm_1/PartitionedCall/TensorArrayUnstack/TensorListFromTensor/element_shape", "op": "Const", "attr": {"dtype": {"type": "DT_INT32"}, "value": {"tensor": {"dtype": "DT_INT32", "tensorShape": {"dim": [{"size": "2"}]}}}}}, {"name": "StatefulPartitionedCall/crnn/sequential/bidirectional_1/forward_lstm_1/Read/ReadVariableOp", "op": "Const", "attr": {"value": {"tensor": {"dtype": "DT_FLOAT", "tensorShape": {"dim": [{"size": "256"}, {"size": "512"}]}}}, "dtype": {"type": "DT_FLOAT"}}}, {"name": "StatefulPartitionedCall/crnn/sequential/bidirectional_1/forward_lstm_1/strided_slice/stack", "op": "Const", "attr": {"dtype": {"type": "DT_INT32"}, "value": {"tensor": {"dtype": "DT_INT32", "tensorShape": {"dim": [{"size": "1"}]}}}}}, {"name": "StatefulPartitionedCall/crnn/sequential/bidirectional_1/forward_lstm_1/strided_slice/stack_1", "op": "Const", "attr": {"value": {"tensor": {"dtype": "DT_INT32", "tensorShape": {"dim": [{"size": "1"}]}}}, "dtype": {"type": "DT_INT32"}}}, {"name": "StatefulPartitionedCall/crnn/sequential/bidirectional_1/forward_lstm_1/strided_slice/stack_2", "op": "Const", "attr": {"value": {"tensor": {"dtype": "DT_INT32", "tensorShape": {"dim": [{"size": "1"}]}}}, "dtype": {"type": "DT_INT32"}}}, {"name": "StatefulPartitionedCall/crnn/sequential/bidirectional_1/forward_lstm_1/zeros/packed/1", "op": "Const", "attr": {"value": {"tensor": {"dtype": "DT_INT32", "tensorShape": {}}}, "dtype": {"type": "DT_INT32"}}}, {"name": "StatefulPartitionedCall/crnn/sequential/bidirectional_1/forward_lstm_1/zeros/Const", "op": "Const", "attr": {"dtype": {"type": "DT_FLOAT"}, "value": {"tensor": {"dtype": "DT_FLOAT", "tensorShape": {}}}}}, {"name": "StatefulPartitionedCall/crnn/sequential/bidirectional_1/forward_lstm_1/Read_1/ReadVariableOp", "op": "Const", "attr": {"dtype": {"type": "DT_FLOAT"}, "value": {"tensor": {"dtype": "DT_FLOAT", "tensorShape": {"dim": [{"size": "128"}, {"size": "512"}]}}}}}, {"name": "StatefulPartitionedCall/crnn/sequential/bidirectional_1/forward_lstm_1/Read_2/ReadVariableOp", "op": "Const", "attr": {"dtype": {"type": "DT_FLOAT"}, "value": {"tensor": {"dtype": "DT_FLOAT", "tensorShape": {"dim": [{"size": "512"}]}}}}}, {"name": "StatefulPartitionedCall/crnn/sequential/bidirectional_1/forward_lstm_1/PartitionedCall/time", "op": "Const", "attr": {"value": {"tensor": {"dtype": "DT_INT32", "tensorShape": {}}}, "dtype": {"type": "DT_INT32"}}}, {"name": "StatefulPartitionedCall/crnn/sequential/bidirectional_1/forward_lstm_1/PartitionedCall/transpose/perm", "op": "Const", "attr": {"value": {"tensor": {"dtype": "DT_INT32", "tensorShape": {"dim": [{"size": "3"}]}}}, "dtype": {"type": "DT_INT32"}}}, {"name": "StatefulPartitionedCall/crnn/sequential/bidirectional_1/forward_lstm_1/PartitionedCall/strided_slice/stack", "op": "Const", "attr": {"value": {"tensor": {"dtype": "DT_INT32", "tensorShape": {"dim": [{"size": "1"}]}}}, "dtype": {"type": "DT_INT32"}}}, {"name": "StatefulPartitionedCall/crnn/sequential/bidirectional_1/forward_lstm_1/PartitionedCall/strided_slice/stack_1", "op": "Const", "attr": {"dtype": {"type": "DT_INT32"}, "value": {"tensor": {"dtype": "DT_INT32", "tensorShape": {"dim": [{"size": "1"}]}}}}}, {"name": "StatefulPartitionedCall/crnn/sequential/bidirectional_1/forward_lstm_1/PartitionedCall/strided_slice/stack_2", "op": "Const", "attr": {"value": {"tensor": {"dtype": "DT_INT32", "tensorShape": {"dim": [{"size": "1"}]}}}, "dtype": {"type": "DT_INT32"}}}, {"name": "StatefulPartitionedCall/crnn/sequential/bidirectional_1/forward_lstm_1/PartitionedCall/while/loop_counter", "op": "Const", "attr": {"dtype": {"type": "DT_INT32"}, "value": {"tensor": {"dtype": "DT_INT32", "tensorShape": {}}}}}, {"name": "StatefulPartitionedCall/crnn/sequential/bidirectional_1/forward_lstm_1/PartitionedCall/TensorArrayV2Stack/TensorListStack/element_shape", "op": "Const", "attr": {"value": {"tensor": {"dtype": "DT_INT32", "tensorShape": {"dim": [{"size": "2"}]}}}, "dtype": {"type": "DT_INT32"}}}, {"name": "StatefulPartitionedCall/crnn/sequential/bidirectional_1/forward_lstm_1/PartitionedCall/transpose_1/perm", "op": "Const", "attr": {"value": {"tensor": {"dtype": "DT_INT32", "tensorShape": {"dim": [{"size": "3"}]}}}, "dtype": {"type": "DT_INT32"}}}, {"name": "StatefulPartitionedCall/crnn/sequential/bidirectional_1/backward_lstm_1/PartitionedCall/TensorArrayV2_1/element_shape", "op": "Const", "attr": {"value": {"tensor": {"dtype": "DT_INT32", "tensorShape": {"dim": [{"size": "2"}]}}}, "dtype": {"type": "DT_INT32"}}}, {"name": "StatefulPartitionedCall/crnn/sequential/bidirectional_1/backward_lstm_1/zeros_1/packed/1", "op": "Const", "attr": {"dtype": {"type": "DT_INT32"}, "value": {"tensor": {"dtype": "DT_INT32", "tensorShape": {}}}}}, {"name": "StatefulPartitionedCall/crnn/sequential/bidirectional_1/backward_lstm_1/zeros_1/Const", "op": "Const", "attr": {"value": {"tensor": {"dtype": "DT_FLOAT", "tensorShape": {}}}, "dtype": {"type": "DT_FLOAT"}}}, {"name": "StatefulPartitionedCall/crnn/sequential/bidirectional_1/backward_lstm_1/PartitionedCall/ReverseV2/axis", "op": "Const", "attr": {"value": {"tensor": {"dtype": "DT_INT32", "tensorShape": {"dim": [{"size": "1"}]}}}, "dtype": {"type": "DT_INT32"}}}, {"name": "StatefulPartitionedCall/crnn/sequential/bidirectional_1/backward_lstm_1/PartitionedCall/TensorArrayUnstack/TensorListFromTensor/element_shape", "op": "Const", "attr": {"dtype": {"type": "DT_INT32"}, "value": {"tensor": {"dtype": "DT_INT32", "tensorShape": {"dim": [{"size": "2"}]}}}}}, {"name": "StatefulPartitionedCall/crnn/sequential/bidirectional_1/backward_lstm_1/Read/ReadVariableOp", "op": "Const", "attr": {"value": {"tensor": {"dtype": "DT_FLOAT", "tensorShape": {"dim": [{"size": "256"}, {"size": "512"}]}}}, "dtype": {"type": "DT_FLOAT"}}}, {"name": "StatefulPartitionedCall/crnn/sequential/bidirectional_1/backward_lstm_1/strided_slice/stack", "op": "Const", "attr": {"dtype": {"type": "DT_INT32"}, "value": {"tensor": {"dtype": "DT_INT32", "tensorShape": {"dim": [{"size": "1"}]}}}}}, {"name": "StatefulPartitionedCall/crnn/sequential/bidirectional_1/backward_lstm_1/strided_slice/stack_1", "op": "Const", "attr": {"dtype": {"type": "DT_INT32"}, "value": {"tensor": {"dtype": "DT_INT32", "tensorShape": {"dim": [{"size": "1"}]}}}}}, {"name": "StatefulPartitionedCall/crnn/sequential/bidirectional_1/backward_lstm_1/strided_slice/stack_2", "op": "Const", "attr": {"value": {"tensor": {"dtype": "DT_INT32", "tensorShape": {"dim": [{"size": "1"}]}}}, "dtype": {"type": "DT_INT32"}}}, {"name": "StatefulPartitionedCall/crnn/sequential/bidirectional_1/backward_lstm_1/zeros/packed/1", "op": "Const", "attr": {"value": {"tensor": {"dtype": "DT_INT32", "tensorShape": {}}}, "dtype": {"type": "DT_INT32"}}}, {"name": "StatefulPartitionedCall/crnn/sequential/bidirectional_1/backward_lstm_1/zeros/Const", "op": "Const", "attr": {"value": {"tensor": {"dtype": "DT_FLOAT", "tensorShape": {}}}, "dtype": {"type": "DT_FLOAT"}}}, {"name": "StatefulPartitionedCall/crnn/sequential/bidirectional_1/backward_lstm_1/Read_1/ReadVariableOp", "op": "Const", "attr": {"value": {"tensor": {"dtype": "DT_FLOAT", "tensorShape": {"dim": [{"size": "128"}, {"size": "512"}]}}}, "dtype": {"type": "DT_FLOAT"}}}, {"name": "StatefulPartitionedCall/crnn/sequential/bidirectional_1/backward_lstm_1/Read_2/ReadVariableOp", "op": "Const", "attr": {"dtype": {"type": "DT_FLOAT"}, "value": {"tensor": {"dtype": "DT_FLOAT", "tensorShape": {"dim": [{"size": "512"}]}}}}}, {"name": "StatefulPartitionedCall/crnn/sequential/bidirectional_1/backward_lstm_1/PartitionedCall/time", "op": "Const", "attr": {"dtype": {"type": "DT_INT32"}, "value": {"tensor": {"dtype": "DT_INT32", "tensorShape": {}}}}}, {"name": "StatefulPartitionedCall/crnn/sequential/bidirectional/forward_lstm/PartitionedCall/TensorArrayV2_1/element_shape", "op": "Const", "attr": {"dtype": {"type": "DT_INT32"}, "value": {"tensor": {"dtype": "DT_INT32", "tensorShape": {"dim": [{"size": "2"}]}}}}}, {"name": "StatefulPartitionedCall/crnn/sequential/bidirectional/forward_lstm/zeros_1/packed/1", "op": "Const", "attr": {"dtype": {"type": "DT_INT32"}, "value": {"tensor": {"dtype": "DT_INT32", "tensorShape": {}}}}}, {"name": "StatefulPartitionedCall/crnn/sequential/bidirectional/forward_lstm/zeros_1/Const", "op": "Const", "attr": {"value": {"tensor": {"dtype": "DT_FLOAT", "tensorShape": {}}}, "dtype": {"type": "DT_FLOAT"}}}, {"name": "StatefulPartitionedCall/crnn/sequential/bidirectional/forward_lstm/PartitionedCall/TensorArrayUnstack/TensorListFromTensor/element_shape", "op": "Const", "attr": {"value": {"tensor": {"dtype": "DT_INT32", "tensorShape": {"dim": [{"size": "2"}]}}}, "dtype": {"type": "DT_INT32"}}}, {"name": "StatefulPartitionedCall/crnn/sequential/bidirectional/forward_lstm/Read/ReadVariableOp", "op": "Const", "attr": {"dtype": {"type": "DT_FLOAT"}, "value": {"tensor": {"dtype": "DT_FLOAT", "tensorShape": {"dim": [{"size": "512"}, {"size": "512"}]}}}}}, {"name": "StatefulPartitionedCall/crnn/sequential/bidirectional/forward_lstm/strided_slice/stack", "op": "Const", "attr": {"value": {"tensor": {"dtype": "DT_INT32", "tensorShape": {"dim": [{"size": "1"}]}}}, "dtype": {"type": "DT_INT32"}}}, {"name": "StatefulPartitionedCall/crnn/sequential/bidirectional/forward_lstm/strided_slice/stack_1", "op": "Const", "attr": {"dtype": {"type": "DT_INT32"}, "value": {"tensor": {"dtype": "DT_INT32", "tensorShape": {"dim": [{"size": "1"}]}}}}}, {"name": "StatefulPartitionedCall/crnn/sequential/bidirectional/forward_lstm/strided_slice/stack_2", "op": "Const", "attr": {"dtype": {"type": "DT_INT32"}, "value": {"tensor": {"dtype": "DT_INT32", "tensorShape": {"dim": [{"size": "1"}]}}}}}, {"name": "StatefulPartitionedCall/crnn/sequential/bidirectional/forward_lstm/zeros/packed/1", "op": "Const", "attr": {"dtype": {"type": "DT_INT32"}, "value": {"tensor": {"dtype": "DT_INT32", "tensorShape": {}}}}}, {"name": "StatefulPartitionedCall/crnn/sequential/bidirectional/forward_lstm/zeros/Const", "op": "Const", "attr": {"dtype": {"type": "DT_FLOAT"}, "value": {"tensor": {"dtype": "DT_FLOAT", "tensorShape": {}}}}}, {"name": "StatefulPartitionedCall/crnn/sequential/bidirectional/forward_lstm/Read_1/ReadVariableOp", "op": "Const", "attr": {"value": {"tensor": {"dtype": "DT_FLOAT", "tensorShape": {"dim": [{"size": "128"}, {"size": "512"}]}}}, "dtype": {"type": "DT_FLOAT"}}}, {"name": "StatefulPartitionedCall/crnn/sequential/bidirectional/forward_lstm/Read_2/ReadVariableOp", "op": "Const", "attr": {"value": {"tensor": {"dtype": "DT_FLOAT", "tensorShape": {"dim": [{"size": "512"}]}}}, "dtype": {"type": "DT_FLOAT"}}}, {"name": "StatefulPartitionedCall/crnn/sequential/bidirectional/forward_lstm/PartitionedCall/time", "op": "Const", "attr": {"dtype": {"type": "DT_INT32"}, "value": {"tensor": {"dtype": "DT_INT32", "tensorShape": {}}}}}, {"name": "StatefulPartitionedCall/crnn/sequential/bidirectional/forward_lstm/PartitionedCall/transpose/perm", "op": "Const", "attr": {"dtype": {"type": "DT_INT32"}, "value": {"tensor": {"dtype": "DT_INT32", "tensorShape": {"dim": [{"size": "3"}]}}}}}, {"name": "StatefulPartitionedCall/crnn/sequential/bidirectional/forward_lstm/PartitionedCall/strided_slice/stack", "op": "Const", "attr": {"value": {"tensor": {"dtype": "DT_INT32", "tensorShape": {"dim": [{"size": "1"}]}}}, "dtype": {"type": "DT_INT32"}}}, {"name": "StatefulPartitionedCall/crnn/sequential/bidirectional/forward_lstm/PartitionedCall/strided_slice/stack_1", "op": "Const", "attr": {"value": {"tensor": {"dtype": "DT_INT32", "tensorShape": {"dim": [{"size": "1"}]}}}, "dtype": {"type": "DT_INT32"}}}, {"name": "StatefulPartitionedCall/crnn/sequential/bidirectional/forward_lstm/PartitionedCall/strided_slice/stack_2", "op": "Const", "attr": {"dtype": {"type": "DT_INT32"}, "value": {"tensor": {"dtype": "DT_INT32", "tensorShape": {"dim": [{"size": "1"}]}}}}}, {"name": "StatefulPartitionedCall/crnn/sequential/bidirectional/forward_lstm/PartitionedCall/while/loop_counter", "op": "Const", "attr": {"dtype": {"type": "DT_INT32"}, "value": {"tensor": {"dtype": "DT_INT32", "tensorShape": {}}}}}, {"name": "StatefulPartitionedCall/crnn/sequential/bidirectional/forward_lstm/PartitionedCall/TensorArrayV2Stack/TensorListStack/element_shape", "op": "Const", "attr": {"dtype": {"type": "DT_INT32"}, "value": {"tensor": {"dtype": "DT_INT32", "tensorShape": {"dim": [{"size": "2"}]}}}}}, {"name": "StatefulPartitionedCall/crnn/sequential/bidirectional/forward_lstm/PartitionedCall/transpose_1/perm", "op": "Const", "attr": {"dtype": {"type": "DT_INT32"}, "value": {"tensor": {"dtype": "DT_INT32", "tensorShape": {"dim": [{"size": "3"}]}}}}}, {"name": "StatefulPartitionedCall/crnn/sequential/bidirectional/backward_lstm/PartitionedCall/TensorArrayV2_1/element_shape", "op": "Const", "attr": {"dtype": {"type": "DT_INT32"}, "value": {"tensor": {"dtype": "DT_INT32", "tensorShape": {"dim": [{"size": "2"}]}}}}}, {"name": "StatefulPartitionedCall/crnn/sequential/bidirectional/backward_lstm/zeros_1/packed/1", "op": "Const", "attr": {"dtype": {"type": "DT_INT32"}, "value": {"tensor": {"dtype": "DT_INT32", "tensorShape": {}}}}}, {"name": "StatefulPartitionedCall/crnn/sequential/bidirectional/backward_lstm/zeros_1/Const", "op": "Const", "attr": {"dtype": {"type": "DT_FLOAT"}, "value": {"tensor": {"dtype": "DT_FLOAT", "tensorShape": {}}}}}, {"name": "StatefulPartitionedCall/crnn/sequential/bidirectional/backward_lstm/PartitionedCall/ReverseV2/axis", "op": "Const", "attr": {"dtype": {"type": "DT_INT32"}, "value": {"tensor": {"dtype": "DT_INT32", "tensorShape": {"dim": [{"size": "1"}]}}}}}, {"name": "StatefulPartitionedCall/crnn/sequential/bidirectional/backward_lstm/PartitionedCall/TensorArrayUnstack/TensorListFromTensor/element_shape", "op": "Const", "attr": {"value": {"tensor": {"dtype": "DT_INT32", "tensorShape": {"dim": [{"size": "2"}]}}}, "dtype": {"type": "DT_INT32"}}}, {"name": "StatefulPartitionedCall/crnn/sequential/bidirectional/backward_lstm/Read/ReadVariableOp", "op": "Const", "attr": {"dtype": {"type": "DT_FLOAT"}, "value": {"tensor": {"dtype": "DT_FLOAT", "tensorShape": {"dim": [{"size": "512"}, {"size": "512"}]}}}}}, {"name": "StatefulPartitionedCall/crnn/sequential/bidirectional/backward_lstm/strided_slice/stack", "op": "Const", "attr": {"dtype": {"type": "DT_INT32"}, "value": {"tensor": {"dtype": "DT_INT32", "tensorShape": {"dim": [{"size": "1"}]}}}}}, {"name": "StatefulPartitionedCall/crnn/sequential/bidirectional/backward_lstm/strided_slice/stack_1", "op": "Const", "attr": {"dtype": {"type": "DT_INT32"}, "value": {"tensor": {"dtype": "DT_INT32", "tensorShape": {"dim": [{"size": "1"}]}}}}}, {"name": "StatefulPartitionedCall/crnn/sequential/bidirectional/backward_lstm/strided_slice/stack_2", "op": "Const", "attr": {"value": {"tensor": {"dtype": "DT_INT32", "tensorShape": {"dim": [{"size": "1"}]}}}, "dtype": {"type": "DT_INT32"}}}, {"name": "StatefulPartitionedCall/crnn/sequential/bidirectional/backward_lstm/zeros/packed/1", "op": "Const", "attr": {"value": {"tensor": {"dtype": "DT_INT32", "tensorShape": {}}}, "dtype": {"type": "DT_INT32"}}}, {"name": "StatefulPartitionedCall/crnn/sequential/bidirectional/backward_lstm/zeros/Const", "op": "Const", "attr": {"value": {"tensor": {"dtype": "DT_FLOAT", "tensorShape": {}}}, "dtype": {"type": "DT_FLOAT"}}}, {"name": "StatefulPartitionedCall/crnn/sequential/bidirectional/backward_lstm/Read_1/ReadVariableOp", "op": "Const", "attr": {"value": {"tensor": {"dtype": "DT_FLOAT", "tensorShape": {"dim": [{"size": "128"}, {"size": "512"}]}}}, "dtype": {"type": "DT_FLOAT"}}}, {"name": "StatefulPartitionedCall/crnn/sequential/bidirectional/backward_lstm/Read_2/ReadVariableOp", "op": "Const", "attr": {"dtype": {"type": "DT_FLOAT"}, "value": {"tensor": {"dtype": "DT_FLOAT", "tensorShape": {"dim": [{"size": "512"}]}}}}}, {"name": "StatefulPartitionedCall/crnn/sequential/bidirectional/backward_lstm/PartitionedCall/time", "op": "Const", "attr": {"dtype": {"type": "DT_INT32"}, "value": {"tensor": {"dtype": "DT_INT32", "tensorShape": {}}}}}, {"name": "StatefulPartitionedCall/crnn/transpose/perm", "op": "Const", "attr": {"value": {"tensor": {"dtype": "DT_INT32", "tensorShape": {"dim": [{"size": "4"}]}}}, "dtype": {"type": "DT_INT32"}}}, {"name": "StatefulPartitionedCall/crnn/Reshape/shape", "op": "Const", "attr": {"value": {"tensor": {"dtype": "DT_INT32", "tensorShape": {"dim": [{"size": "3"}]}}}, "dtype": {"type": "DT_INT32"}}}, {"name": "StatefulPartitionedCall/crnn/sequential/bidirectional/backward_lstm/PartitionedCall/transpose/perm", "op": "Const", "attr": {"dtype": {"type": "DT_INT32"}, "value": {"tensor": {"dtype": "DT_INT32", "tensorShape": {"dim": [{"size": "3"}]}}}}}, {"name": "StatefulPartitionedCall/crnn/sequential/bidirectional/backward_lstm/PartitionedCall/strided_slice/stack", "op": "Const", "attr": {"value": {"tensor": {"dtype": "DT_INT32", "tensorShape": {"dim": [{"size": "1"}]}}}, "dtype": {"type": "DT_INT32"}}}, {"name": "StatefulPartitionedCall/crnn/sequential/bidirectional/backward_lstm/PartitionedCall/strided_slice/stack_1", "op": "Const", "attr": {"dtype": {"type": "DT_INT32"}, "value": {"tensor": {"dtype": "DT_INT32", "tensorShape": {"dim": [{"size": "1"}]}}}}}, {"name": "StatefulPartitionedCall/crnn/sequential/bidirectional/backward_lstm/PartitionedCall/strided_slice/stack_2", "op": "Const", "attr": {"dtype": {"type": "DT_INT32"}, "value": {"tensor": {"dtype": "DT_INT32", "tensorShape": {"dim": [{"size": "1"}]}}}}}, {"name": "StatefulPartitionedCall/crnn/sequential/bidirectional/backward_lstm/PartitionedCall/while/loop_counter", "op": "Const", "attr": {"value": {"tensor": {"dtype": "DT_INT32", "tensorShape": {}}}, "dtype": {"type": "DT_INT32"}}}, {"name": "StatefulPartitionedCall/crnn/sequential/bidirectional/backward_lstm/PartitionedCall/TensorArrayV2Stack/TensorListStack/element_shape", "op": "Const", "attr": {"dtype": {"type": "DT_INT32"}, "value": {"tensor": {"dtype": "DT_INT32", "tensorShape": {"dim": [{"size": "2"}]}}}}}, {"name": "StatefulPartitionedCall/crnn/sequential/bidirectional/backward_lstm/PartitionedCall/transpose_1/perm", "op": "Const", "attr": {"value": {"tensor": {"dtype": "DT_INT32", "tensorShape": {"dim": [{"size": "3"}]}}}, "dtype": {"type": "DT_INT32"}}}, {"name": "StatefulPartitionedCall/crnn/sequential/bidirectional/ReverseV2/axis", "op": "Const", "attr": {"value": {"tensor": {"dtype": "DT_INT32", "tensorShape": {"dim": [{"size": "1"}]}}}, "dtype": {"type": "DT_INT32"}}}, {"name": "StatefulPartitionedCall/crnn/sequential/bidirectional/concat/axis", "op": "Const", "attr": {"dtype": {"type": "DT_INT32"}, "value": {"tensor": {"dtype": "DT_INT32", "tensorShape": {}}}}}, {"name": "StatefulPartitionedCall/crnn/sequential/bidirectional_1/backward_lstm_1/PartitionedCall/transpose/perm", "op": "Const", "attr": {"dtype": {"type": "DT_INT32"}, "value": {"tensor": {"dtype": "DT_INT32", "tensorShape": {"dim": [{"size": "3"}]}}}}}, {"name": "StatefulPartitionedCall/crnn/sequential/bidirectional_1/backward_lstm_1/PartitionedCall/strided_slice/stack", "op": "Const", "attr": {"dtype": {"type": "DT_INT32"}, "value": {"tensor": {"dtype": "DT_INT32", "tensorShape": {"dim": [{"size": "1"}]}}}}}, {"name": "StatefulPartitionedCall/crnn/sequential/bidirectional_1/backward_lstm_1/PartitionedCall/strided_slice/stack_1", "op": "Const", "attr": {"value": {"tensor": {"dtype": "DT_INT32", "tensorShape": {"dim": [{"size": "1"}]}}}, "dtype": {"type": "DT_INT32"}}}, {"name": "StatefulPartitionedCall/crnn/sequential/bidirectional_1/backward_lstm_1/PartitionedCall/strided_slice/stack_2", "op": "Const", "attr": {"value": {"tensor": {"dtype": "DT_INT32", "tensorShape": {"dim": [{"size": "1"}]}}}, "dtype": {"type": "DT_INT32"}}}, {"name": "StatefulPartitionedCall/crnn/sequential/bidirectional_1/backward_lstm_1/PartitionedCall/while/loop_counter", "op": "Const", "attr": {"dtype": {"type": "DT_INT32"}, "value": {"tensor": {"dtype": "DT_INT32", "tensorShape": {}}}}}, {"name": "StatefulPartitionedCall/crnn/sequential/bidirectional_1/backward_lstm_1/PartitionedCall/TensorArrayV2Stack/TensorListStack/element_shape", "op": "Const", "attr": {"dtype": {"type": "DT_INT32"}, "value": {"tensor": {"dtype": "DT_INT32", "tensorShape": {"dim": [{"size": "2"}]}}}}}, {"name": "StatefulPartitionedCall/crnn/sequential/bidirectional_1/backward_lstm_1/PartitionedCall/transpose_1/perm", "op": "Const", "attr": {"value": {"tensor": {"dtype": "DT_INT32", "tensorShape": {"dim": [{"size": "3"}]}}}, "dtype": {"type": "DT_INT32"}}}, {"name": "StatefulPartitionedCall/crnn/sequential/bidirectional_1/ReverseV2/axis", "op": "Const", "attr": {"value": {"tensor": {"dtype": "DT_INT32", "tensorShape": {"dim": [{"size": "1"}]}}}, "dtype": {"type": "DT_INT32"}}}, {"name": "StatefulPartitionedCall/crnn/sequential/bidirectional_1/concat/axis", "op": "Const", "attr": {"dtype": {"type": "DT_INT32"}, "value": {"tensor": {"dtype": "DT_INT32", "tensorShape": {}}}}}, {"name": "StatefulPartitionedCall/crnn/sequential/dense/Tensordot/free", "op": "Const", "attr": {"value": {"tensor": {"dtype": "DT_INT32", "tensorShape": {"dim": [{"size": "2"}]}}}, "dtype": {"type": "DT_INT32"}}}, {"name": "StatefulPartitionedCall/crnn/sequential/dense/Tensordot/GatherV2/axis", "op": "Const", "attr": {"value": {"tensor": {"dtype": "DT_INT32", "tensorShape": {}}}, "dtype": {"type": "DT_INT32"}}}, {"name": "StatefulPartitionedCall/crnn/sequential/dense/Tensordot/Const_2", "op": "Const", "attr": {"dtype": {"type": "DT_INT32"}, "value": {"tensor": {"dtype": "DT_INT32", "tensorShape": {"dim": [{"size": "1"}]}}}}}, {"name": "StatefulPartitionedCall/crnn/sequential/dense/Tensordot/concat_1/axis", "op": "Const", "attr": {"value": {"tensor": {"dtype": "DT_INT32", "tensorShape": {}}}, "dtype": {"type": "DT_INT32"}}}, {"name": "StatefulPartitionedCall/crnn/sequential/dense/BiasAdd/ReadVariableOp", "op": "Const", "attr": {"dtype": {"type": "DT_FLOAT"}, "value": {"tensor": {"dtype": "DT_FLOAT", "tensorShape": {"dim": [{"size": "124"}]}}}}}, {"name": "input_1", "op": "Placeholder", "attr": {"shape": {"shape": {"dim": [{"size": "-1"}, {"size": "32"}, {"size": "128"}, {"size": "3"}]}}, "dtype": {"type": "DT_FLOAT"}}}, {"name": "StatefulPartitionedCall/crnn/vgg/conv2d/Conv2D_weights", "op": "Const", "attr": {"dtype": {"type": "DT_FLOAT"}, "value": {"tensor": {"dtype": "DT_FLOAT", "tensorShape": {"dim": [{"size": "3"}, {"size": "3"}, {"size": "3"}, {"size": "64"}]}}}}}, {"name": "StatefulPartitionedCall/crnn/vgg/conv2d/Conv2D_bn_offset", "op": "Const", "attr": {"value": {"tensor": {"dtype": "DT_FLOAT", "tensorShape": {"dim": [{"size": "64"}]}}}, "dtype": {"type": "DT_FLOAT"}}}, {"name": "StatefulPartitionedCall/crnn/vgg/conv2d_1/Conv2D_weights", "op": "Const", "attr": {"dtype": {"type": "DT_FLOAT"}, "value": {"tensor": {"dtype": "DT_FLOAT", "tensorShape": {"dim": [{"size": "3"}, {"size": "3"}, {"size": "64"}, {"size": "64"}]}}}}}, {"name": "StatefulPartitionedCall/crnn/vgg/conv2d_1/Conv2D_bn_offset", "op": "Const", "attr": {"value": {"tensor": {"dtype": "DT_FLOAT", "tensorShape": {"dim": [{"size": "64"}]}}}, "dtype": {"type": "DT_FLOAT"}}}, {"name": "StatefulPartitionedCall/crnn/vgg/conv2d_2/Conv2D_weights", "op": "Const", "attr": {"value": {"tensor": {"dtype": "DT_FLOAT", "tensorShape": {"dim": [{"size": "3"}, {"size": "3"}, {"size": "64"}, {"size": "128"}]}}}, "dtype": {"type": "DT_FLOAT"}}}, {"name": "StatefulPartitionedCall/crnn/vgg/conv2d_2/Conv2D_bn_offset", "op": "Const", "attr": {"dtype": {"type": "DT_FLOAT"}, "value": {"tensor": {"dtype": "DT_FLOAT", "tensorShape": {"dim": [{"size": "128"}]}}}}}, {"name": "StatefulPartitionedCall/crnn/vgg/conv2d_3/Conv2D_weights", "op": "Const", "attr": {"dtype": {"type": "DT_FLOAT"}, "value": {"tensor": {"dtype": "DT_FLOAT", "tensorShape": {"dim": [{"size": "3"}, {"size": "3"}, {"size": "128"}, {"size": "128"}]}}}}}, {"name": "StatefulPartitionedCall/crnn/vgg/conv2d_3/Conv2D_bn_offset", "op": "Const", "attr": {"value": {"tensor": {"dtype": "DT_FLOAT", "tensorShape": {"dim": [{"size": "128"}]}}}, "dtype": {"type": "DT_FLOAT"}}}, {"name": "StatefulPartitionedCall/crnn/vgg/conv2d_4/Conv2D_weights", "op": "Const", "attr": {"dtype": {"type": "DT_FLOAT"}, "value": {"tensor": {"dtype": "DT_FLOAT", "tensorShape": {"dim": [{"size": "3"}, {"size": "3"}, {"size": "128"}, {"size": "256"}]}}}}}, {"name": "StatefulPartitionedCall/crnn/vgg/conv2d_4/Conv2D_bn_offset", "op": "Const", "attr": {"dtype": {"type": "DT_FLOAT"}, "value": {"tensor": {"dtype": "DT_FLOAT", "tensorShape": {"dim": [{"size": "256"}]}}}}}, {"name": "StatefulPartitionedCall/crnn/vgg/conv2d_5/Conv2D_weights", "op": "Const", "attr": {"dtype": {"type": "DT_FLOAT"}, "value": {"tensor": {"dtype": "DT_FLOAT", "tensorShape": {"dim": [{"size": "3"}, {"size": "3"}, {"size": "256"}, {"size": "256"}]}}}}}, {"name": "StatefulPartitionedCall/crnn/vgg/conv2d_5/Conv2D_bn_offset", "op": "Const", "attr": {"dtype": {"type": "DT_FLOAT"}, "value": {"tensor": {"dtype": "DT_FLOAT", "tensorShape": {"dim": [{"size": "256"}]}}}}}, {"name": "StatefulPartitionedCall/crnn/vgg/conv2d_6/Conv2D_weights", "op": "Const", "attr": {"dtype": {"type": "DT_FLOAT"}, "value": {"tensor": {"dtype": "DT_FLOAT", "tensorShape": {"dim": [{"size": "3"}, {"size": "3"}, {"size": "256"}, {"size": "256"}]}}}}}, {"name": "StatefulPartitionedCall/crnn/vgg/conv2d_6/Conv2D_bn_offset", "op": "Const", "attr": {"value": {"tensor": {"dtype": "DT_FLOAT", "tensorShape": {"dim": [{"size": "256"}]}}}, "dtype": {"type": "DT_FLOAT"}}}, {"name": "StatefulPartitionedCall/crnn/vgg/conv2d_7/Conv2D_weights", "op": "Const", "attr": {"dtype": {"type": "DT_FLOAT"}, "value": {"tensor": {"dtype": "DT_FLOAT", "tensorShape": {"dim": [{"size": "3"}, {"size": "3"}, {"size": "256"}, {"size": "512"}]}}}}}, {"name": "StatefulPartitionedCall/crnn/vgg/conv2d_7/Conv2D_bn_offset", "op": "Const", "attr": {"value": {"tensor": {"dtype": "DT_FLOAT", "tensorShape": {"dim": [{"size": "512"}]}}}, "dtype": {"type": "DT_FLOAT"}}}, {"name": "StatefulPartitionedCall/crnn/vgg/conv2d_8/Conv2D_weights", "op": "Const", "attr": {"value": {"tensor": {"dtype": "DT_FLOAT", "tensorShape": {"dim": [{"size": "3"}, {"size": "3"}, {"size": "512"}, {"size": "512"}]}}}, "dtype": {"type": "DT_FLOAT"}}}, {"name": "StatefulPartitionedCall/crnn/vgg/conv2d_8/Conv2D_bn_offset", "op": "Const", "attr": {"dtype": {"type": "DT_FLOAT"}, "value": {"tensor": {"dtype": "DT_FLOAT", "tensorShape": {"dim": [{"size": "512"}]}}}}}, {"name": "StatefulPartitionedCall/crnn/vgg/conv2d_9/Conv2D_weights", "op": "Const", "attr": {"value": {"tensor": {"dtype": "DT_FLOAT", "tensorShape": {"dim": [{"size": "3"}, {"size": "3"}, {"size": "512"}, {"size": "512"}]}}}, "dtype": {"type": "DT_FLOAT"}}}, {"name": "StatefulPartitionedCall/crnn/vgg/conv2d_9/Conv2D_bn_offset", "op": "Const", "attr": {"value": {"tensor": {"dtype": "DT_FLOAT", "tensorShape": {"dim": [{"size": "512"}]}}}, "dtype": {"type": "DT_FLOAT"}}}, {"name": "StatefulPartitionedCall/crnn/vgg/conv2d_10/Conv2D_weights", "op": "Const", "attr": {"dtype": {"type": "DT_FLOAT"}, "value": {"tensor": {"dtype": "DT_FLOAT", "tensorShape": {"dim": [{"size": "3"}, {"size": "3"}, {"size": "512"}, {"size": "512"}]}}}}}, {"name": "StatefulPartitionedCall/crnn/vgg/conv2d_10/Conv2D_bn_offset", "op": "Const", "attr": {"dtype": {"type": "DT_FLOAT"}, "value": {"tensor": {"dtype": "DT_FLOAT", "tensorShape": {"dim": [{"size": "512"}]}}}}}, {"name": "StatefulPartitionedCall/crnn/vgg/conv2d_11/Conv2D_weights", "op": "Const", "attr": {"value": {"tensor": {"dtype": "DT_FLOAT", "tensorShape": {"dim": [{"size": "3"}, {"size": "3"}, {"size": "512"}, {"size": "512"}]}}}, "dtype": {"type": "DT_FLOAT"}}}, {"name": "StatefulPartitionedCall/crnn/vgg/conv2d_11/Conv2D_bn_offset", "op": "Const", "attr": {"dtype": {"type": "DT_FLOAT"}, "value": {"tensor": {"dtype": "DT_FLOAT", "tensorShape": {"dim": [{"size": "512"}]}}}}}, {"name": "StatefulPartitionedCall/crnn/vgg/conv2d_12/Conv2D_weights", "op": "Const", "attr": {"dtype": {"type": "DT_FLOAT"}, "value": {"tensor": {"dtype": "DT_FLOAT", "tensorShape": {"dim": [{"size": "3"}, {"size": "3"}, {"size": "512"}, {"size": "512"}]}}}}}, {"name": "StatefulPartitionedCall/crnn/vgg/conv2d_12/Conv2D_bn_offset", "op": "Const", "attr": {"dtype": {"type": "DT_FLOAT"}, "value": {"tensor": {"dtype": "DT_FLOAT", "tensorShape": {"dim": [{"size": "512"}]}}}}}, {"name": "StatefulPartitionedCall/crnn/sequential/bidirectional_1/forward_lstm_1/PartitionedCall/while/enter/_256", "op": "Enter", "input": ["StatefulPartitionedCall/crnn/sequential/bidirectional_1/forward_lstm_1/Read/ReadVariableOp"], "attr": {"parallel_iterations": {"i": "32"}, "T": {"type": "DT_FLOAT"}, "frame_name": {"s": "U3RhdGVmdWxQYXJ0aXRpb25lZENhbGwvY3Jubi9zZXF1ZW50aWFsL2JpZGlyZWN0aW9uYWxfMS9mb3J3YXJkX2xzdG1fMS9QYXJ0aXRpb25lZENhbGwvd2hpbGU="}, "is_constant": {"b": false}}}, {"name": "StatefulPartitionedCall/crnn/sequential/bidirectional_1/forward_lstm_1/PartitionedCall/while/enter/_257", "op": "Enter", "input": ["StatefulPartitionedCall/crnn/sequential/bidirectional_1/forward_lstm_1/Read_1/ReadVariableOp"], "attr": {"is_constant": {"b": false}, "T": {"type": "DT_FLOAT"}, "frame_name": {"s": "U3RhdGVmdWxQYXJ0aXRpb25lZENhbGwvY3Jubi9zZXF1ZW50aWFsL2JpZGlyZWN0aW9uYWxfMS9mb3J3YXJkX2xzdG1fMS9QYXJ0aXRpb25lZENhbGwvd2hpbGU="}, "parallel_iterations": {"i": "32"}}}, {"name": "StatefulPartitionedCall/crnn/sequential/bidirectional_1/forward_lstm_1/PartitionedCall/while/enter/_258", "op": "Enter", "input": ["StatefulPartitionedCall/crnn/sequential/bidirectional_1/forward_lstm_1/Read_2/ReadVariableOp"], "attr": {"parallel_iterations": {"i": "32"}, "is_constant": {"b": false}, "frame_name": {"s": "U3RhdGVmdWxQYXJ0aXRpb25lZENhbGwvY3Jubi9zZXF1ZW50aWFsL2JpZGlyZWN0aW9uYWxfMS9mb3J3YXJkX2xzdG1fMS9QYXJ0aXRpb25lZENhbGwvd2hpbGU="}, "T": {"type": "DT_FLOAT"}}}, {"name": "StatefulPartitionedCall/crnn/sequential/bidirectional_1/forward_lstm_1/PartitionedCall/while/enter/_250", "op": "Enter", "input": ["StatefulPartitionedCall/crnn/sequential/bidirectional_1/forward_lstm_1/PartitionedCall/time"], "attr": {"T": {"type": "DT_INT32"}, "is_constant": {"b": false}, "parallel_iterations": {"i": "32"}, "frame_name": {"s": "U3RhdGVmdWxQYXJ0aXRpb25lZENhbGwvY3Jubi9zZXF1ZW50aWFsL2JpZGlyZWN0aW9uYWxfMS9mb3J3YXJkX2xzdG1fMS9QYXJ0aXRpb25lZENhbGwvd2hpbGU="}}}, {"name": "StatefulPartitionedCall/crnn/sequential/bidirectional_1/forward_lstm_1/PartitionedCall/while/enter/_248", "op": "Enter", "input": ["StatefulPartitionedCall/crnn/sequential/bidirectional_1/forward_lstm_1/PartitionedCall/while/loop_counter"], "attr": {"is_constant": {"b": false}, "T": {"type": "DT_INT32"}, "frame_name": {"s": "U3RhdGVmdWxQYXJ0aXRpb25lZENhbGwvY3Jubi9zZXF1ZW50aWFsL2JpZGlyZWN0aW9uYWxfMS9mb3J3YXJkX2xzdG1fMS9QYXJ0aXRpb25lZENhbGwvd2hpbGU="}, "parallel_iterations": {"i": "32"}}}, {"name": "StatefulPartitionedCall/crnn/sequential/bidirectional_1/backward_lstm_1/PartitionedCall/while/enter/_316", "op": "Enter", "input": ["StatefulPartitionedCall/crnn/sequential/bidirectional_1/backward_lstm_1/Read/ReadVariableOp"], "attr": {"is_constant": {"b": false}, "T": {"type": "DT_FLOAT"}, "frame_name": {"s": "U3RhdGVmdWxQYXJ0aXRpb25lZENhbGwvY3Jubi9zZXF1ZW50aWFsL2JpZGlyZWN0aW9uYWxfMS9iYWNrd2FyZF9sc3RtXzEvUGFydGl0aW9uZWRDYWxsL3doaWxl"}, "parallel_iterations": {"i": "32"}}}, {"name": "StatefulPartitionedCall/crnn/sequential/bidirectional_1/backward_lstm_1/PartitionedCall/while/enter/_317", "op": "Enter", "input": ["StatefulPartitionedCall/crnn/sequential/bidirectional_1/backward_lstm_1/Read_1/ReadVariableOp"], "attr": {"frame_name": {"s": "U3RhdGVmdWxQYXJ0aXRpb25lZENhbGwvY3Jubi9zZXF1ZW50aWFsL2JpZGlyZWN0aW9uYWxfMS9iYWNrd2FyZF9sc3RtXzEvUGFydGl0aW9uZWRDYWxsL3doaWxl"}, "T": {"type": "DT_FLOAT"}, "parallel_iterations": {"i": "32"}, "is_constant": {"b": false}}}, {"name": "StatefulPartitionedCall/crnn/sequential/bidirectional_1/backward_lstm_1/PartitionedCall/while/enter/_318", "op": "Enter", "input": ["StatefulPartitionedCall/crnn/sequential/bidirectional_1/backward_lstm_1/Read_2/ReadVariableOp"], "attr": {"frame_name": {"s": "U3RhdGVmdWxQYXJ0aXRpb25lZENhbGwvY3Jubi9zZXF1ZW50aWFsL2JpZGlyZWN0aW9uYWxfMS9iYWNrd2FyZF9sc3RtXzEvUGFydGl0aW9uZWRDYWxsL3doaWxl"}, "T": {"type": "DT_FLOAT"}, "is_constant": {"b": false}, "parallel_iterations": {"i": "32"}}}, {"name": "StatefulPartitionedCall/crnn/sequential/bidirectional_1/backward_lstm_1/PartitionedCall/while/enter/_310", "op": "Enter", "input": ["StatefulPartitionedCall/crnn/sequential/bidirectional_1/backward_lstm_1/PartitionedCall/time"], "attr": {"parallel_iterations": {"i": "32"}, "T": {"type": "DT_INT32"}, "frame_name": {"s": "U3RhdGVmdWxQYXJ0aXRpb25lZENhbGwvY3Jubi9zZXF1ZW50aWFsL2JpZGlyZWN0aW9uYWxfMS9iYWNrd2FyZF9sc3RtXzEvUGFydGl0aW9uZWRDYWxsL3doaWxl"}, "is_constant": {"b": false}}}, {"name": "StatefulPartitionedCall/crnn/sequential/bidirectional/forward_lstm/PartitionedCall/while/enter/_136", "op": "Enter", "input": ["StatefulPartitionedCall/crnn/sequential/bidirectional/forward_lstm/Read/ReadVariableOp"], "attr": {"parallel_iterations": {"i": "32"}, "is_constant": {"b": false}, "frame_name": {"s": "U3RhdGVmdWxQYXJ0aXRpb25lZENhbGwvY3Jubi9zZXF1ZW50aWFsL2JpZGlyZWN0aW9uYWwvZm9yd2FyZF9sc3RtL1BhcnRpdGlvbmVkQ2FsbC93aGlsZQ=="}, "T": {"type": "DT_FLOAT"}}}, {"name": "StatefulPartitionedCall/crnn/sequential/bidirectional/forward_lstm/PartitionedCall/while/enter/_137", "op": "Enter", "input": ["StatefulPartitionedCall/crnn/sequential/bidirectional/forward_lstm/Read_1/ReadVariableOp"], "attr": {"is_constant": {"b": false}, "frame_name": {"s": "U3RhdGVmdWxQYXJ0aXRpb25lZENhbGwvY3Jubi9zZXF1ZW50aWFsL2JpZGlyZWN0aW9uYWwvZm9yd2FyZF9sc3RtL1BhcnRpdGlvbmVkQ2FsbC93aGlsZQ=="}, "T": {"type": "DT_FLOAT"}, "parallel_iterations": {"i": "32"}}}, {"name": "StatefulPartitionedCall/crnn/sequential/bidirectional/forward_lstm/PartitionedCall/while/enter/_138", "op": "Enter", "input": ["StatefulPartitionedCall/crnn/sequential/bidirectional/forward_lstm/Read_2/ReadVariableOp"], "attr": {"parallel_iterations": {"i": "32"}, "frame_name": {"s": "U3RhdGVmdWxQYXJ0aXRpb25lZENhbGwvY3Jubi9zZXF1ZW50aWFsL2JpZGlyZWN0aW9uYWwvZm9yd2FyZF9sc3RtL1BhcnRpdGlvbmVkQ2FsbC93aGlsZQ=="}, "is_constant": {"b": false}, "T": {"type": "DT_FLOAT"}}}, {"name": "StatefulPartitionedCall/crnn/sequential/bidirectional/forward_lstm/PartitionedCall/while/enter/_130", "op": "Enter", "input": ["StatefulPartitionedCall/crnn/sequential/bidirectional/forward_lstm/PartitionedCall/time"], "attr": {"is_constant": {"b": false}, "T": {"type": "DT_INT32"}, "parallel_iterations": {"i": "32"}, "frame_name": {"s": "U3RhdGVmdWxQYXJ0aXRpb25lZENhbGwvY3Jubi9zZXF1ZW50aWFsL2JpZGlyZWN0aW9uYWwvZm9yd2FyZF9sc3RtL1BhcnRpdGlvbmVkQ2FsbC93aGlsZQ=="}}}, {"name": "StatefulPartitionedCall/crnn/sequential/bidirectional/forward_lstm/PartitionedCall/while/enter/_128", "op": "Enter", "input": ["StatefulPartitionedCall/crnn/sequential/bidirectional/forward_lstm/PartitionedCall/while/loop_counter"], "attr": {"T": {"type": "DT_INT32"}, "frame_name": {"s": "U3RhdGVmdWxQYXJ0aXRpb25lZENhbGwvY3Jubi9zZXF1ZW50aWFsL2JpZGlyZWN0aW9uYWwvZm9yd2FyZF9sc3RtL1BhcnRpdGlvbmVkQ2FsbC93aGlsZQ=="}, "is_constant": {"b": false}, "parallel_iterations": {"i": "32"}}}, {"name": "StatefulPartitionedCall/crnn/sequential/bidirectional/backward_lstm/PartitionedCall/while/enter/_196", "op": "Enter", "input": ["StatefulPartitionedCall/crnn/sequential/bidirectional/backward_lstm/Read/ReadVariableOp"], "attr": {"T": {"type": "DT_FLOAT"}, "frame_name": {"s": "U3RhdGVmdWxQYXJ0aXRpb25lZENhbGwvY3Jubi9zZXF1ZW50aWFsL2JpZGlyZWN0aW9uYWwvYmFja3dhcmRfbHN0bS9QYXJ0aXRpb25lZENhbGwvd2hpbGU="}, "parallel_iterations": {"i": "32"}, "is_constant": {"b": false}}}, {"name": "StatefulPartitionedCall/crnn/sequential/bidirectional/backward_lstm/PartitionedCall/while/enter/_197", "op": "Enter", "input": ["StatefulPartitionedCall/crnn/sequential/bidirectional/backward_lstm/Read_1/ReadVariableOp"], "attr": {"T": {"type": "DT_FLOAT"}, "is_constant": {"b": false}, "frame_name": {"s": "U3RhdGVmdWxQYXJ0aXRpb25lZENhbGwvY3Jubi9zZXF1ZW50aWFsL2JpZGlyZWN0aW9uYWwvYmFja3dhcmRfbHN0bS9QYXJ0aXRpb25lZENhbGwvd2hpbGU="}, "parallel_iterations": {"i": "32"}}}, {"name": "StatefulPartitionedCall/crnn/sequential/bidirectional/backward_lstm/PartitionedCall/while/enter/_198", "op": "Enter", "input": ["StatefulPartitionedCall/crnn/sequential/bidirectional/backward_lstm/Read_2/ReadVariableOp"], "attr": {"is_constant": {"b": false}, "parallel_iterations": {"i": "32"}, "T": {"type": "DT_FLOAT"}, "frame_name": {"s": "U3RhdGVmdWxQYXJ0aXRpb25lZENhbGwvY3Jubi9zZXF1ZW50aWFsL2JpZGlyZWN0aW9uYWwvYmFja3dhcmRfbHN0bS9QYXJ0aXRpb25lZENhbGwvd2hpbGU="}}}, {"name": "StatefulPartitionedCall/crnn/sequential/bidirectional/backward_lstm/PartitionedCall/while/enter/_190", "op": "Enter", "input": ["StatefulPartitionedCall/crnn/sequential/bidirectional/backward_lstm/PartitionedCall/time"], "attr": {"is_constant": {"b": false}, "parallel_iterations": {"i": "32"}, "T": {"type": "DT_INT32"}, "frame_name": {"s": "U3RhdGVmdWxQYXJ0aXRpb25lZENhbGwvY3Jubi9zZXF1ZW50aWFsL2JpZGlyZWN0aW9uYWwvYmFja3dhcmRfbHN0bS9QYXJ0aXRpb25lZENhbGwvd2hpbGU="}}}, {"name": "StatefulPartitionedCall/crnn/sequential/bidirectional/backward_lstm/PartitionedCall/while/enter/_188", "op": "Enter", "input": ["StatefulPartitionedCall/crnn/sequential/bidirectional/backward_lstm/PartitionedCall/while/loop_counter"], "attr": {"parallel_iterations": {"i": "32"}, "is_constant": {"b": false}, "T": {"type": "DT_INT32"}, "frame_name": {"s": "U3RhdGVmdWxQYXJ0aXRpb25lZENhbGwvY3Jubi9zZXF1ZW50aWFsL2JpZGlyZWN0aW9uYWwvYmFja3dhcmRfbHN0bS9QYXJ0aXRpb25lZENhbGwvd2hpbGU="}}}, {"name": "StatefulPartitionedCall/crnn/sequential/bidirectional_1/backward_lstm_1/PartitionedCall/while/enter/_308", "op": "Enter", "input": ["StatefulPartitionedCall/crnn/sequential/bidirectional_1/backward_lstm_1/PartitionedCall/while/loop_counter"], "attr": {"frame_name": {"s": "U3RhdGVmdWxQYXJ0aXRpb25lZENhbGwvY3Jubi9zZXF1ZW50aWFsL2JpZGlyZWN0aW9uYWxfMS9iYWNrd2FyZF9sc3RtXzEvUGFydGl0aW9uZWRDYWxsL3doaWxl"}, "is_constant": {"b": false}, "T": {"type": "DT_INT32"}, "parallel_iterations": {"i": "32"}}}, {"name": "StatefulPartitionedCall/crnn/vgg/activation/Relu", "op": "_FusedConv2D", "input": ["input_1", "StatefulPartitionedCall/crnn/vgg/conv2d/Conv2D_weights", "StatefulPartitionedCall/crnn/vgg/conv2d/Conv2D_bn_offset"], "device": "/device:CPU:0", "attr": {"explicit_paddings": {"list": {}}, "dilations": {"list": {"i": ["1", "1", "1", "1"]}}, "num_args": {"i": "1"}, "padding": {"s": "U0FNRQ=="}, "T": {"type": "DT_FLOAT"}, "use_cudnn_on_gpu": {"b": true}, "fused_ops": {"list": {"s": ["Qmlhc0FkZA==", "UmVsdQ=="]}}, "data_format": {"s": "TkhXQw=="}, "epsilon": {"f": 0.0}, "strides": {"list": {"i": ["1", "1", "1", "1"]}}}}, {"name": "StatefulPartitionedCall/crnn/sequential/bidirectional_1/forward_lstm_1/PartitionedCall/while/merge/_267", "op": "Merge", "input": ["StatefulPartitionedCall/crnn/sequential/bidirectional_1/forward_lstm_1/PartitionedCall/while/enter/_256", "StatefulPartitionedCall/crnn/sequential/bidirectional_1/forward_lstm_1/PartitionedCall/while/next_iteration/_303"], "attr": {"N": {"i": "2"}, "T": {"type": "DT_FLOAT"}}}, {"name": "StatefulPartitionedCall/crnn/sequential/bidirectional_1/forward_lstm_1/PartitionedCall/while/merge/_268", "op": "Merge", "input": ["StatefulPartitionedCall/crnn/sequential/bidirectional_1/forward_lstm_1/PartitionedCall/while/enter/_257", "StatefulPartitionedCall/crnn/sequential/bidirectional_1/forward_lstm_1/PartitionedCall/while/next_iteration/_304"], "attr": {"N": {"i": "2"}, "T": {"type": "DT_FLOAT"}}}, {"name": "StatefulPartitionedCall/crnn/sequential/bidirectional_1/forward_lstm_1/PartitionedCall/while/merge/_269", "op": "Merge", "input": ["StatefulPartitionedCall/crnn/sequential/bidirectional_1/forward_lstm_1/PartitionedCall/while/enter/_258", "StatefulPartitionedCall/crnn/sequential/bidirectional_1/forward_lstm_1/PartitionedCall/while/next_iteration/_305"], "attr": {"T": {"type": "DT_FLOAT"}, "N": {"i": "2"}}}, {"name": "StatefulPartitionedCall/crnn/sequential/bidirectional_1/forward_lstm_1/PartitionedCall/while/merge/_261", "op": "Merge", "input": ["StatefulPartitionedCall/crnn/sequential/bidirectional_1/forward_lstm_1/PartitionedCall/while/enter/_250", "StatefulPartitionedCall/crnn/sequential/bidirectional_1/forward_lstm_1/PartitionedCall/while/next_iteration/_297"], "attr": {"N": {"i": "2"}, "T": {"type": "DT_INT32"}}}, {"name": "StatefulPartitionedCall/crnn/sequential/bidirectional_1/forward_lstm_1/PartitionedCall/while/merge/_259", "op": "Merge", "input": ["StatefulPartitionedCall/crnn/sequential/bidirectional_1/forward_lstm_1/PartitionedCall/while/enter/_248", "StatefulPartitionedCall/crnn/sequential/bidirectional_1/forward_lstm_1/PartitionedCall/while/next_iteration/_295"], "attr": {"N": {"i": "2"}, "T": {"type": "DT_INT32"}}}, {"name": "StatefulPartitionedCall/crnn/sequential/bidirectional_1/backward_lstm_1/PartitionedCall/while/merge/_327", "op": "Merge", "input": ["StatefulPartitionedCall/crnn/sequential/bidirectional_1/backward_lstm_1/PartitionedCall/while/enter/_316", "StatefulPartitionedCall/crnn/sequential/bidirectional_1/backward_lstm_1/PartitionedCall/while/next_iteration/_363"], "attr": {"T": {"type": "DT_FLOAT"}, "N": {"i": "2"}}}, {"name": "StatefulPartitionedCall/crnn/sequential/bidirectional_1/backward_lstm_1/PartitionedCall/while/merge/_328", "op": "Merge", "input": ["StatefulPartitionedCall/crnn/sequential/bidirectional_1/backward_lstm_1/PartitionedCall/while/enter/_317", "StatefulPartitionedCall/crnn/sequential/bidirectional_1/backward_lstm_1/PartitionedCall/while/next_iteration/_364"], "attr": {"T": {"type": "DT_FLOAT"}, "N": {"i": "2"}}}, {"name": "StatefulPartitionedCall/crnn/sequential/bidirectional_1/backward_lstm_1/PartitionedCall/while/merge/_329", "op": "Merge", "input": ["StatefulPartitionedCall/crnn/sequential/bidirectional_1/backward_lstm_1/PartitionedCall/while/enter/_318", "StatefulPartitionedCall/crnn/sequential/bidirectional_1/backward_lstm_1/PartitionedCall/while/next_iteration/_365"], "attr": {"N": {"i": "2"}, "T": {"type": "DT_FLOAT"}}}, {"name": "StatefulPartitionedCall/crnn/sequential/bidirectional_1/backward_lstm_1/PartitionedCall/while/merge/_321", "op": "Merge", "input": ["StatefulPartitionedCall/crnn/sequential/bidirectional_1/backward_lstm_1/PartitionedCall/while/enter/_310", "StatefulPartitionedCall/crnn/sequential/bidirectional_1/backward_lstm_1/PartitionedCall/while/next_iteration/_357"], "attr": {"T": {"type": "DT_INT32"}, "N": {"i": "2"}}}, {"name": "StatefulPartitionedCall/crnn/sequential/bidirectional/forward_lstm/PartitionedCall/while/merge/_147", "op": "Merge", "input": ["StatefulPartitionedCall/crnn/sequential/bidirectional/forward_lstm/PartitionedCall/while/enter/_136", "StatefulPartitionedCall/crnn/sequential/bidirectional/forward_lstm/PartitionedCall/while/next_iteration/_183"], "attr": {"N": {"i": "2"}, "T": {"type": "DT_FLOAT"}}}, {"name": "StatefulPartitionedCall/crnn/sequential/bidirectional/forward_lstm/PartitionedCall/while/merge/_148", "op": "Merge", "input": ["StatefulPartitionedCall/crnn/sequential/bidirectional/forward_lstm/PartitionedCall/while/enter/_137", "StatefulPartitionedCall/crnn/sequential/bidirectional/forward_lstm/PartitionedCall/while/next_iteration/_184"], "attr": {"N": {"i": "2"}, "T": {"type": "DT_FLOAT"}}}, {"name": "StatefulPartitionedCall/crnn/sequential/bidirectional/forward_lstm/PartitionedCall/while/merge/_149", "op": "Merge", "input": ["StatefulPartitionedCall/crnn/sequential/bidirectional/forward_lstm/PartitionedCall/while/enter/_138", "StatefulPartitionedCall/crnn/sequential/bidirectional/forward_lstm/PartitionedCall/while/next_iteration/_185"], "attr": {"N": {"i": "2"}, "T": {"type": "DT_FLOAT"}}}, {"name": "StatefulPartitionedCall/crnn/sequential/bidirectional/forward_lstm/PartitionedCall/while/merge/_141", "op": "Merge", "input": ["StatefulPartitionedCall/crnn/sequential/bidirectional/forward_lstm/PartitionedCall/while/enter/_130", "StatefulPartitionedCall/crnn/sequential/bidirectional/forward_lstm/PartitionedCall/while/next_iteration/_177"], "attr": {"T": {"type": "DT_INT32"}, "N": {"i": "2"}}}, {"name": "StatefulPartitionedCall/crnn/sequential/bidirectional/forward_lstm/PartitionedCall/while/merge/_139", "op": "Merge", "input": ["StatefulPartitionedCall/crnn/sequential/bidirectional/forward_lstm/PartitionedCall/while/enter/_128", "StatefulPartitionedCall/crnn/sequential/bidirectional/forward_lstm/PartitionedCall/while/next_iteration/_175"], "attr": {"T": {"type": "DT_INT32"}, "N": {"i": "2"}}}, {"name": "StatefulPartitionedCall/crnn/sequential/bidirectional/backward_lstm/PartitionedCall/while/merge/_207", "op": "Merge", "input": ["StatefulPartitionedCall/crnn/sequential/bidirectional/backward_lstm/PartitionedCall/while/enter/_196", "StatefulPartitionedCall/crnn/sequential/bidirectional/backward_lstm/PartitionedCall/while/next_iteration/_243"], "attr": {"N": {"i": "2"}, "T": {"type": "DT_FLOAT"}}}, {"name": "StatefulPartitionedCall/crnn/sequential/bidirectional/backward_lstm/PartitionedCall/while/merge/_208", "op": "Merge", "input": ["StatefulPartitionedCall/crnn/sequential/bidirectional/backward_lstm/PartitionedCall/while/enter/_197", "StatefulPartitionedCall/crnn/sequential/bidirectional/backward_lstm/PartitionedCall/while/next_iteration/_244"], "attr": {"T": {"type": "DT_FLOAT"}, "N": {"i": "2"}}}, {"name": "StatefulPartitionedCall/crnn/sequential/bidirectional/backward_lstm/PartitionedCall/while/merge/_209", "op": "Merge", "input": ["StatefulPartitionedCall/crnn/sequential/bidirectional/backward_lstm/PartitionedCall/while/enter/_198", "StatefulPartitionedCall/crnn/sequential/bidirectional/backward_lstm/PartitionedCall/while/next_iteration/_245"], "attr": {"N": {"i": "2"}, "T": {"type": "DT_FLOAT"}}}, {"name": "StatefulPartitionedCall/crnn/sequential/bidirectional/backward_lstm/PartitionedCall/while/merge/_201", "op": "Merge", "input": ["StatefulPartitionedCall/crnn/sequential/bidirectional/backward_lstm/PartitionedCall/while/enter/_190", "StatefulPartitionedCall/crnn/sequential/bidirectional/backward_lstm/PartitionedCall/while/next_iteration/_237"], "attr": {"N": {"i": "2"}, "T": {"type": "DT_INT32"}}}, {"name": "StatefulPartitionedCall/crnn/sequential/bidirectional/backward_lstm/PartitionedCall/while/merge/_199", "op": "Merge", "input": ["StatefulPartitionedCall/crnn/sequential/bidirectional/backward_lstm/PartitionedCall/while/enter/_188", "StatefulPartitionedCall/crnn/sequential/bidirectional/backward_lstm/PartitionedCall/while/next_iteration/_235"], "attr": {"N": {"i": "2"}, "T": {"type": "DT_INT32"}}}, {"name": "StatefulPartitionedCall/crnn/sequential/bidirectional_1/backward_lstm_1/PartitionedCall/while/merge/_319", "op": "Merge", "input": ["StatefulPartitionedCall/crnn/sequential/bidirectional_1/backward_lstm_1/PartitionedCall/while/enter/_308", "StatefulPartitionedCall/crnn/sequential/bidirectional_1/backward_lstm_1/PartitionedCall/while/next_iteration/_355"], "attr": {"T": {"type": "DT_INT32"}, "N": {"i": "2"}}}, {"name": "StatefulPartitionedCall/crnn/vgg/activation_1/Relu", "op": "_FusedConv2D", "input": ["StatefulPartitionedCall/crnn/vgg/activation/Relu", "StatefulPartitionedCall/crnn/vgg/conv2d_1/Conv2D_weights", "StatefulPartitionedCall/crnn/vgg/conv2d_1/Conv2D_bn_offset"], "device": "/device:CPU:0", "attr": {"dilations": {"list": {"i": ["1", "1", "1", "1"]}}, "data_format": {"s": "TkhXQw=="}, "use_cudnn_on_gpu": {"b": true}, "num_args": {"i": "1"}, "epsilon": {"f": 0.0}, "explicit_paddings": {"list": {}}, "padding": {"s": "U0FNRQ=="}, "T": {"type": "DT_FLOAT"}, "fused_ops": {"list": {"s": ["Qmlhc0FkZA==", "UmVsdQ=="]}}, "strides": {"list": {"i": ["1", "1", "1", "1"]}}}}, {"name": "StatefulPartitionedCall/crnn/vgg/max_pooling2d/MaxPool", "op": "MaxPool", "input": ["StatefulPartitionedCall/crnn/vgg/activation_1/Relu"], "attr": {"strides": {"list": {"i": ["1", "2", "2", "1"]}}, "ksize": {"list": {"i": ["1", "2", "2", "1"]}}, "padding": {"s": "VkFMSUQ="}, "explicit_paddings": {"list": {}}, "T": {"type": "DT_FLOAT"}, "data_format": {"s": "TkhXQw=="}}}, {"name": "StatefulPartitionedCall/crnn/vgg/activation_2/Relu", "op": "_FusedConv2D", "input": ["StatefulPartitionedCall/crnn/vgg/max_pooling2d/MaxPool", "StatefulPartitionedCall/crnn/vgg/conv2d_2/Conv2D_weights", "StatefulPartitionedCall/crnn/vgg/conv2d_2/Conv2D_bn_offset"], "device": "/device:CPU:0", "attr": {"epsilon": {"f": 0.0}, "padding": {"s": "U0FNRQ=="}, "explicit_paddings": {"list": {}}, "data_format": {"s": "TkhXQw=="}, "use_cudnn_on_gpu": {"b": true}, "T": {"type": "DT_FLOAT"}, "dilations": {"list": {"i": ["1", "1", "1", "1"]}}, "num_args": {"i": "1"}, "strides": {"list": {"i": ["1", "1", "1", "1"]}}, "fused_ops": {"list": {"s": ["Qmlhc0FkZA==", "UmVsdQ=="]}}}}, {"name": "StatefulPartitionedCall/crnn/vgg/activation_3/Relu", "op": "_FusedConv2D", "input": ["StatefulPartitionedCall/crnn/vgg/activation_2/Relu", "StatefulPartitionedCall/crnn/vgg/conv2d_3/Conv2D_weights", "StatefulPartitionedCall/crnn/vgg/conv2d_3/Conv2D_bn_offset"], "device": "/device:CPU:0", "attr": {"T": {"type": "DT_FLOAT"}, "epsilon": {"f": 0.0}, "dilations": {"list": {"i": ["1", "1", "1", "1"]}}, "strides": {"list": {"i": ["1", "1", "1", "1"]}}, "num_args": {"i": "1"}, "padding": {"s": "U0FNRQ=="}, "explicit_paddings": {"list": {}}, "data_format": {"s": "TkhXQw=="}, "fused_ops": {"list": {"s": ["Qmlhc0FkZA==", "UmVsdQ=="]}}, "use_cudnn_on_gpu": {"b": true}}}, {"name": "StatefulPartitionedCall/crnn/vgg/max_pooling2d_1/MaxPool", "op": "MaxPool", "input": ["StatefulPartitionedCall/crnn/vgg/activation_3/Relu"], "attr": {"ksize": {"list": {"i": ["1", "2", "2", "1"]}}, "explicit_paddings": {"list": {}}, "strides": {"list": {"i": ["1", "2", "2", "1"]}}, "T": {"type": "DT_FLOAT"}, "data_format": {"s": "TkhXQw=="}, "padding": {"s": "VkFMSUQ="}}}, {"name": "StatefulPartitionedCall/crnn/vgg/activation_4/Relu", "op": "_FusedConv2D", "input": ["StatefulPartitionedCall/crnn/vgg/max_pooling2d_1/MaxPool", "StatefulPartitionedCall/crnn/vgg/conv2d_4/Conv2D_weights", "StatefulPartitionedCall/crnn/vgg/conv2d_4/Conv2D_bn_offset"], "device": "/device:CPU:0", "attr": {"padding": {"s": "U0FNRQ=="}, "use_cudnn_on_gpu": {"b": true}, "dilations": {"list": {"i": ["1", "1", "1", "1"]}}, "strides": {"list": {"i": ["1", "1", "1", "1"]}}, "epsilon": {"f": 0.0}, "T": {"type": "DT_FLOAT"}, "explicit_paddings": {"list": {}}, "data_format": {"s": "TkhXQw=="}, "num_args": {"i": "1"}, "fused_ops": {"list": {"s": ["Qmlhc0FkZA==", "UmVsdQ=="]}}}}, {"name": "StatefulPartitionedCall/crnn/vgg/activation_5/Relu", "op": "_FusedConv2D", "input": ["StatefulPartitionedCall/crnn/vgg/activation_4/Relu", "StatefulPartitionedCall/crnn/vgg/conv2d_5/Conv2D_weights", "StatefulPartitionedCall/crnn/vgg/conv2d_5/Conv2D_bn_offset"], "device": "/device:CPU:0", "attr": {"num_args": {"i": "1"}, "strides": {"list": {"i": ["1", "1", "1", "1"]}}, "dilations": {"list": {"i": ["1", "1", "1", "1"]}}, "use_cudnn_on_gpu": {"b": true}, "padding": {"s": "U0FNRQ=="}, "T": {"type": "DT_FLOAT"}, "data_format": {"s": "TkhXQw=="}, "epsilon": {"f": 0.0}, "explicit_paddings": {"list": {}}, "fused_ops": {"list": {"s": ["Qmlhc0FkZA==", "UmVsdQ=="]}}}}, {"name": "StatefulPartitionedCall/crnn/vgg/activation_6/Relu", "op": "_FusedConv2D", "input": ["StatefulPartitionedCall/crnn/vgg/activation_5/Relu", "StatefulPartitionedCall/crnn/vgg/conv2d_6/Conv2D_weights", "StatefulPartitionedCall/crnn/vgg/conv2d_6/Conv2D_bn_offset"], "device": "/device:CPU:0", "attr": {"num_args": {"i": "1"}, "data_format": {"s": "TkhXQw=="}, "explicit_paddings": {"list": {}}, "dilations": {"list": {"i": ["1", "1", "1", "1"]}}, "padding": {"s": "U0FNRQ=="}, "strides": {"list": {"i": ["1", "1", "1", "1"]}}, "fused_ops": {"list": {"s": ["Qmlhc0FkZA==", "UmVsdQ=="]}}, "use_cudnn_on_gpu": {"b": true}, "epsilon": {"f": 0.0}, "T": {"type": "DT_FLOAT"}}}, {"name": "StatefulPartitionedCall/crnn/vgg/max_pooling2d_2/MaxPool", "op": "MaxPool", "input": ["StatefulPartitionedCall/crnn/vgg/activation_6/Relu"], "attr": {"padding": {"s": "VkFMSUQ="}, "strides": {"list": {"i": ["1", "2", "1", "1"]}}, "T": {"type": "DT_FLOAT"}, "data_format": {"s": "TkhXQw=="}, "explicit_paddings": {"list": {}}, "ksize": {"list": {"i": ["1", "2", "1", "1"]}}}}, {"name": "StatefulPartitionedCall/crnn/vgg/activation_7/Relu", "op": "_FusedConv2D", "input": ["StatefulPartitionedCall/crnn/vgg/max_pooling2d_2/MaxPool", "StatefulPartitionedCall/crnn/vgg/conv2d_7/Conv2D_weights", "StatefulPartitionedCall/crnn/vgg/conv2d_7/Conv2D_bn_offset"], "device": "/device:CPU:0", "attr": {"use_cudnn_on_gpu": {"b": true}, "dilations": {"list": {"i": ["1", "1", "1", "1"]}}, "explicit_paddings": {"list": {}}, "strides": {"list": {"i": ["1", "1", "1", "1"]}}, "T": {"type": "DT_FLOAT"}, "fused_ops": {"list": {"s": ["Qmlhc0FkZA==", "UmVsdQ=="]}}, "padding": {"s": "U0FNRQ=="}, "data_format": {"s": "TkhXQw=="}, "epsilon": {"f": 0.0}, "num_args": {"i": "1"}}}, {"name": "StatefulPartitionedCall/crnn/vgg/activation_8/Relu", "op": "_FusedConv2D", "input": ["StatefulPartitionedCall/crnn/vgg/activation_7/Relu", "StatefulPartitionedCall/crnn/vgg/conv2d_8/Conv2D_weights", "StatefulPartitionedCall/crnn/vgg/conv2d_8/Conv2D_bn_offset"], "device": "/device:CPU:0", "attr": {"epsilon": {"f": 0.0}, "dilations": {"list": {"i": ["1", "1", "1", "1"]}}, "use_cudnn_on_gpu": {"b": true}, "T": {"type": "DT_FLOAT"}, "num_args": {"i": "1"}, "explicit_paddings": {"list": {}}, "strides": {"list": {"i": ["1", "1", "1", "1"]}}, "data_format": {"s": "TkhXQw=="}, "fused_ops": {"list": {"s": ["Qmlhc0FkZA==", "UmVsdQ=="]}}, "padding": {"s": "U0FNRQ=="}}}, {"name": "StatefulPartitionedCall/crnn/vgg/activation_9/Relu", "op": "_FusedConv2D", "input": ["StatefulPartitionedCall/crnn/vgg/activation_8/Relu", "StatefulPartitionedCall/crnn/vgg/conv2d_9/Conv2D_weights", "StatefulPartitionedCall/crnn/vgg/conv2d_9/Conv2D_bn_offset"], "device": "/device:CPU:0", "attr": {"use_cudnn_on_gpu": {"b": true}, "explicit_paddings": {"list": {}}, "data_format": {"s": "TkhXQw=="}, "strides": {"list": {"i": ["1", "1", "1", "1"]}}, "num_args": {"i": "1"}, "epsilon": {"f": 0.0}, "padding": {"s": "U0FNRQ=="}, "dilations": {"list": {"i": ["1", "1", "1", "1"]}}, "T": {"type": "DT_FLOAT"}, "fused_ops": {"list": {"s": ["Qmlhc0FkZA==", "UmVsdQ=="]}}}}, {"name": "StatefulPartitionedCall/crnn/vgg/max_pooling2d_3/MaxPool", "op": "MaxPool", "input": ["StatefulPartitionedCall/crnn/vgg/activation_9/Relu"], "attr": {"explicit_paddings": {"list": {}}, "T": {"type": "DT_FLOAT"}, "data_format": {"s": "TkhXQw=="}, "ksize": {"list": {"i": ["1", "2", "1", "1"]}}, "padding": {"s": "VkFMSUQ="}, "strides": {"list": {"i": ["1", "2", "1", "1"]}}}}, {"name": "StatefulPartitionedCall/crnn/vgg/activation_10/Relu", "op": "_FusedConv2D", "input": ["StatefulPartitionedCall/crnn/vgg/max_pooling2d_3/MaxPool", "StatefulPartitionedCall/crnn/vgg/conv2d_10/Conv2D_weights", "StatefulPartitionedCall/crnn/vgg/conv2d_10/Conv2D_bn_offset"], "device": "/device:CPU:0", "attr": {"padding": {"s": "U0FNRQ=="}, "use_cudnn_on_gpu": {"b": true}, "data_format": {"s": "TkhXQw=="}, "num_args": {"i": "1"}, "dilations": {"list": {"i": ["1", "1", "1", "1"]}}, "strides": {"list": {"i": ["1", "1", "1", "1"]}}, "explicit_paddings": {"list": {}}, "epsilon": {"f": 0.0}, "T": {"type": "DT_FLOAT"}, "fused_ops": {"list": {"s": ["Qmlhc0FkZA==", "UmVsdQ=="]}}}}, {"name": "StatefulPartitionedCall/crnn/vgg/activation_11/Relu", "op": "_FusedConv2D", "input": ["StatefulPartitionedCall/crnn/vgg/activation_10/Relu", "StatefulPartitionedCall/crnn/vgg/conv2d_11/Conv2D_weights", "StatefulPartitionedCall/crnn/vgg/conv2d_11/Conv2D_bn_offset"], "device": "/device:CPU:0", "attr": {"epsilon": {"f": 0.0}, "dilations": {"list": {"i": ["1", "1", "1", "1"]}}, "padding": {"s": "U0FNRQ=="}, "data_format": {"s": "TkhXQw=="}, "use_cudnn_on_gpu": {"b": true}, "num_args": {"i": "1"}, "fused_ops": {"list": {"s": ["Qmlhc0FkZA==", "UmVsdQ=="]}}, "explicit_paddings": {"list": {}}, "strides": {"list": {"i": ["1", "1", "1", "1"]}}, "T": {"type": "DT_FLOAT"}}}, {"name": "StatefulPartitionedCall/crnn/vgg/activation_12/Relu", "op": "_FusedConv2D", "input": ["StatefulPartitionedCall/crnn/vgg/activation_11/Relu", "StatefulPartitionedCall/crnn/vgg/conv2d_12/Conv2D_weights", "StatefulPartitionedCall/crnn/vgg/conv2d_12/Conv2D_bn_offset"], "device": "/device:CPU:0", "attr": {"use_cudnn_on_gpu": {"b": true}, "padding": {"s": "U0FNRQ=="}, "dilations": {"list": {"i": ["1", "1", "1", "1"]}}, "T": {"type": "DT_FLOAT"}, "num_args": {"i": "1"}, "explicit_paddings": {"list": {}}, "epsilon": {"f": 0.0}, "strides": {"list": {"i": ["1", "1", "1", "1"]}}, "fused_ops": {"list": {"s": ["Qmlhc0FkZA==", "UmVsdQ=="]}}, "data_format": {"s": "TkhXQw=="}}}, {"name": "StatefulPartitionedCall/crnn/vgg/max_pooling2d_4/MaxPool", "op": "MaxPool", "input": ["StatefulPartitionedCall/crnn/vgg/activation_12/Relu"], "attr": {"data_format": {"s": "TkhXQw=="}, "padding": {"s": "VkFMSUQ="}, "ksize": {"list": {"i": ["1", "2", "1", "1"]}}, "T": {"type": "DT_FLOAT"}, "strides": {"list": {"i": ["1", "2", "1", "1"]}}, "explicit_paddings": {"list": {}}}}, {"name": "StatefulPartitionedCall/crnn/transpose", "op": "Transpose", "input": ["StatefulPartitionedCall/crnn/vgg/max_pooling2d_4/MaxPool", "StatefulPartitionedCall/crnn/transpose/perm"], "attr": {"Tperm": {"type": "DT_INT32"}, "T": {"type": "DT_FLOAT"}}}, {"name": "StatefulPartitionedCall/crnn/Reshape", "op": "Reshape", "input": ["StatefulPartitionedCall/crnn/transpose", "StatefulPartitionedCall/crnn/Reshape/shape"], "attr": {"T": {"type": "DT_FLOAT"}, "Tshape": {"type": "DT_INT32"}}}, {"name": "StatefulPartitionedCall/crnn/sequential/bidirectional/forward_lstm/Shape", "op": "Shape", "input": ["StatefulPartitionedCall/crnn/Reshape"], "attr": {"T": {"type": "DT_FLOAT"}, "out_type": {"type": "DT_INT32"}}}, {"name": "StatefulPartitionedCall/crnn/sequential/bidirectional/forward_lstm/PartitionedCall/transpose", "op": "Transpose", "input": ["StatefulPartitionedCall/crnn/Reshape", "StatefulPartitionedCall/crnn/sequential/bidirectional/forward_lstm/PartitionedCall/transpose/perm"], "attr": {"T": {"type": "DT_FLOAT"}, "Tperm": {"type": "DT_INT32"}}}, {"name": "StatefulPartitionedCall/crnn/sequential/bidirectional/backward_lstm/Shape", "op": "Shape", "input": ["StatefulPartitionedCall/crnn/Reshape"], "attr": {"out_type": {"type": "DT_INT32"}, "T": {"type": "DT_FLOAT"}}}, {"name": "StatefulPartitionedCall/crnn/sequential/bidirectional/backward_lstm/PartitionedCall/transpose", "op": "Transpose", "input": ["StatefulPartitionedCall/crnn/Reshape", "StatefulPartitionedCall/crnn/sequential/bidirectional/backward_lstm/PartitionedCall/transpose/perm"], "attr": {"Tperm": {"type": "DT_INT32"}, "T": {"type": "DT_FLOAT"}}}, {"name": "StatefulPartitionedCall/crnn/sequential/bidirectional/forward_lstm/strided_slice", "op": "StridedSlice", "input": ["StatefulPartitionedCall/crnn/sequential/bidirectional/forward_lstm/Shape", "StatefulPartitionedCall/crnn/sequential/bidirectional/forward_lstm/strided_slice/stack", "StatefulPartitionedCall/crnn/sequential/bidirectional/forward_lstm/strided_slice/stack_1", "StatefulPartitionedCall/crnn/sequential/bidirectional/forward_lstm/strided_slice/stack_2"], "attr": {"ellipsis_mask": {"i": "0"}, "end_mask": {"i": "0"}, "new_axis_mask": {"i": "0"}, "Index": {"type": "DT_INT32"}, "begin_mask": {"i": "0"}, "T": {"type": "DT_INT32"}, "shrink_axis_mask": {"i": "1"}}}, {"name": "StatefulPartitionedCall/crnn/sequential/bidirectional/forward_lstm/PartitionedCall/TensorArrayUnstack/TensorListFromTensor", "op": "TensorListFromTensor", "input": ["StatefulPartitionedCall/crnn/sequential/bidirectional/forward_lstm/PartitionedCall/transpose", "StatefulPartitionedCall/crnn/sequential/bidirectional/forward_lstm/PartitionedCall/TensorArrayUnstack/TensorListFromTensor/element_shape"], "attr": {"shape_type": {"type": "DT_INT32"}, "element_dtype": {"type": "DT_FLOAT"}}}, {"name": "StatefulPartitionedCall/crnn/sequential/bidirectional/forward_lstm/PartitionedCall/Shape", "op": "Shape", "input": ["StatefulPartitionedCall/crnn/sequential/bidirectional/forward_lstm/PartitionedCall/transpose"], "attr": {"out_type": {"type": "DT_INT32"}, "T": {"type": "DT_FLOAT"}}}, {"name": "StatefulPartitionedCall/crnn/sequential/bidirectional/backward_lstm/strided_slice", "op": "StridedSlice", "input": ["StatefulPartitionedCall/crnn/sequential/bidirectional/backward_lstm/Shape", "StatefulPartitionedCall/crnn/sequential/bidirectional/backward_lstm/strided_slice/stack", "StatefulPartitionedCall/crnn/sequential/bidirectional/backward_lstm/strided_slice/stack_1", "StatefulPartitionedCall/crnn/sequential/bidirectional/backward_lstm/strided_slice/stack_2"], "attr": {"T": {"type": "DT_INT32"}, "new_axis_mask": {"i": "0"}, "ellipsis_mask": {"i": "0"}, "Index": {"type": "DT_INT32"}, "end_mask": {"i": "0"}, "begin_mask": {"i": "0"}, "shrink_axis_mask": {"i": "1"}}}, {"name": "StatefulPartitionedCall/crnn/sequential/bidirectional/backward_lstm/PartitionedCall/ReverseV2", "op": "ReverseV2", "input": ["StatefulPartitionedCall/crnn/sequential/bidirectional/backward_lstm/PartitionedCall/transpose", "StatefulPartitionedCall/crnn/sequential/bidirectional/backward_lstm/PartitionedCall/ReverseV2/axis"], "attr": {"Tidx": {"type": "DT_INT32"}, "T": {"type": "DT_FLOAT"}}}, {"name": "StatefulPartitionedCall/crnn/sequential/bidirectional/backward_lstm/PartitionedCall/Shape", "op": "Shape", "input": ["StatefulPartitionedCall/crnn/sequential/bidirectional/backward_lstm/PartitionedCall/transpose"], "attr": {"T": {"type": "DT_FLOAT"}, "out_type": {"type": "DT_INT32"}}}, {"name": "StatefulPartitionedCall/crnn/sequential/bidirectional/forward_lstm/zeros_1/packed", "op": "Pack", "input": ["StatefulPartitionedCall/crnn/sequential/bidirectional/forward_lstm/strided_slice", "StatefulPartitionedCall/crnn/sequential/bidirectional/forward_lstm/zeros_1/packed/1"], "attr": {"axis": {"i": "0"}, "N": {"i": "2"}, "T": {"type": "DT_INT32"}}}, {"name": "StatefulPartitionedCall/crnn/sequential/bidirectional/forward_lstm/zeros/packed", "op": "Pack", "input": ["StatefulPartitionedCall/crnn/sequential/bidirectional/forward_lstm/strided_slice", "StatefulPartitionedCall/crnn/sequential/bidirectional/forward_lstm/zeros/packed/1"], "attr": {"N": {"i": "2"}, "axis": {"i": "0"}, "T": {"type": "DT_INT32"}}}, {"name": "StatefulPartitionedCall/crnn/sequential/bidirectional/forward_lstm/PartitionedCall/while/enter/_135", "op": "Enter", "input": ["StatefulPartitionedCall/crnn/sequential/bidirectional/forward_lstm/PartitionedCall/TensorArrayUnstack/TensorListFromTensor"], "attr": {"parallel_iterations": {"i": "32"}, "T": {"type": "DT_VARIANT"}, "frame_name": {"s": "U3RhdGVmdWxQYXJ0aXRpb25lZENhbGwvY3Jubi9zZXF1ZW50aWFsL2JpZGlyZWN0aW9uYWwvZm9yd2FyZF9sc3RtL1BhcnRpdGlvbmVkQ2FsbC93aGlsZQ=="}, "is_constant": {"b": false}}}, {"name": "StatefulPartitionedCall/crnn/sequential/bidirectional/forward_lstm/PartitionedCall/strided_slice", "op": "StridedSlice", "input": ["StatefulPartitionedCall/crnn/sequential/bidirectional/forward_lstm/PartitionedCall/Shape", "StatefulPartitionedCall/crnn/sequential/bidirectional/forward_lstm/PartitionedCall/strided_slice/stack", "StatefulPartitionedCall/crnn/sequential/bidirectional/forward_lstm/PartitionedCall/strided_slice/stack_1", "StatefulPartitionedCall/crnn/sequential/bidirectional/forward_lstm/PartitionedCall/strided_slice/stack_2"], "attr": {"Index": {"type": "DT_INT32"}, "T": {"type": "DT_INT32"}, "new_axis_mask": {"i": "0"}, "begin_mask": {"i": "0"}, "end_mask": {"i": "0"}, "shrink_axis_mask": {"i": "1"}, "ellipsis_mask": {"i": "0"}}}, {"name": "StatefulPartitionedCall/crnn/sequential/bidirectional/backward_lstm/zeros_1/packed", "op": "Pack", "input": ["StatefulPartitionedCall/crnn/sequential/bidirectional/backward_lstm/strided_slice", "StatefulPartitionedCall/crnn/sequential/bidirectional/backward_lstm/zeros_1/packed/1"], "attr": {"axis": {"i": "0"}, "T": {"type": "DT_INT32"}, "N": {"i": "2"}}}, {"name": "StatefulPartitionedCall/crnn/sequential/bidirectional/backward_lstm/zeros/packed", "op": "Pack", "input": ["StatefulPartitionedCall/crnn/sequential/bidirectional/backward_lstm/strided_slice", "StatefulPartitionedCall/crnn/sequential/bidirectional/backward_lstm/zeros/packed/1"], "attr": {"N": {"i": "2"}, "T": {"type": "DT_INT32"}, "axis": {"i": "0"}}}, {"name": "StatefulPartitionedCall/crnn/sequential/bidirectional/backward_lstm/PartitionedCall/TensorArrayUnstack/TensorListFromTensor", "op": "TensorListFromTensor", "input": ["StatefulPartitionedCall/crnn/sequential/bidirectional/backward_lstm/PartitionedCall/ReverseV2", "StatefulPartitionedCall/crnn/sequential/bidirectional/backward_lstm/PartitionedCall/TensorArrayUnstack/TensorListFromTensor/element_shape"], "attr": {"shape_type": {"type": "DT_INT32"}, "element_dtype": {"type": "DT_FLOAT"}}}, {"name": "StatefulPartitionedCall/crnn/sequential/bidirectional/backward_lstm/PartitionedCall/strided_slice", "op": "StridedSlice", "input": ["StatefulPartitionedCall/crnn/sequential/bidirectional/backward_lstm/PartitionedCall/Shape", "StatefulPartitionedCall/crnn/sequential/bidirectional/backward_lstm/PartitionedCall/strided_slice/stack", "StatefulPartitionedCall/crnn/sequential/bidirectional/backward_lstm/PartitionedCall/strided_slice/stack_1", "StatefulPartitionedCall/crnn/sequential/bidirectional/backward_lstm/PartitionedCall/strided_slice/stack_2"], "attr": {"ellipsis_mask": {"i": "0"}, "end_mask": {"i": "0"}, "Index": {"type": "DT_INT32"}, "begin_mask": {"i": "0"}, "new_axis_mask": {"i": "0"}, "T": {"type": "DT_INT32"}, "shrink_axis_mask": {"i": "1"}}}, {"name": "StatefulPartitionedCall/crnn/sequential/bidirectional/forward_lstm/zeros_1", "op": "Fill", "input": ["StatefulPartitionedCall/crnn/sequential/bidirectional/forward_lstm/zeros_1/packed", "StatefulPartitionedCall/crnn/sequential/bidirectional/forward_lstm/zeros_1/Const"], "attr": {"index_type": {"type": "DT_INT32"}, "T": {"type": "DT_FLOAT"}}}, {"name": "StatefulPartitionedCall/crnn/sequential/bidirectional/forward_lstm/zeros", "op": "Fill", "input": ["StatefulPartitionedCall/crnn/sequential/bidirectional/forward_lstm/zeros/packed", "StatefulPartitionedCall/crnn/sequential/bidirectional/forward_lstm/zeros/Const"], "attr": {"index_type": {"type": "DT_INT32"}, "T": {"type": "DT_FLOAT"}}}, {"name": "StatefulPartitionedCall/crnn/sequential/bidirectional/forward_lstm/PartitionedCall/while/merge/_146", "op": "Merge", "input": ["StatefulPartitionedCall/crnn/sequential/bidirectional/forward_lstm/PartitionedCall/while/enter/_135", "StatefulPartitionedCall/crnn/sequential/bidirectional/forward_lstm/PartitionedCall/while/next_iteration/_182"], "attr": {"T": {"type": "DT_VARIANT"}, "N": {"i": "2"}}}, {"name": "StatefulPartitionedCall/crnn/sequential/bidirectional/forward_lstm/PartitionedCall/TensorArrayV2_1", "op": "TensorListReserve", "input": ["StatefulPartitionedCall/crnn/sequential/bidirectional/forward_lstm/PartitionedCall/TensorArrayV2_1/element_shape", "StatefulPartitionedCall/crnn/sequential/bidirectional/forward_lstm/PartitionedCall/strided_slice"], "attr": {"shape_type": {"type": "DT_INT32"}, "element_dtype": {"type": "DT_FLOAT"}}}, {"name": "StatefulPartitionedCall/crnn/sequential/bidirectional/forward_lstm/PartitionedCall/while/enter/_134", "op": "Enter", "input": ["StatefulPartitionedCall/crnn/sequential/bidirectional/forward_lstm/PartitionedCall/strided_slice"], "attr": {"T": {"type": "DT_INT32"}, "is_constant": {"b": false}, "parallel_iterations": {"i": "32"}, "frame_name": {"s": "U3RhdGVmdWxQYXJ0aXRpb25lZENhbGwvY3Jubi9zZXF1ZW50aWFsL2JpZGlyZWN0aW9uYWwvZm9yd2FyZF9sc3RtL1BhcnRpdGlvbmVkQ2FsbC93aGlsZQ=="}}}, {"name": "StatefulPartitionedCall/crnn/sequential/bidirectional/backward_lstm/zeros_1", "op": "Fill", "input": ["StatefulPartitionedCall/crnn/sequential/bidirectional/backward_lstm/zeros_1/packed", "StatefulPartitionedCall/crnn/sequential/bidirectional/backward_lstm/zeros_1/Const"], "attr": {"index_type": {"type": "DT_INT32"}, "T": {"type": "DT_FLOAT"}}}, {"name": "StatefulPartitionedCall/crnn/sequential/bidirectional/backward_lstm/zeros", "op": "Fill", "input": ["StatefulPartitionedCall/crnn/sequential/bidirectional/backward_lstm/zeros/packed", "StatefulPartitionedCall/crnn/sequential/bidirectional/backward_lstm/zeros/Const"], "attr": {"index_type": {"type": "DT_INT32"}, "T": {"type": "DT_FLOAT"}}}, {"name": "StatefulPartitionedCall/crnn/sequential/bidirectional/backward_lstm/PartitionedCall/while/enter/_195", "op": "Enter", "input": ["StatefulPartitionedCall/crnn/sequential/bidirectional/backward_lstm/PartitionedCall/TensorArrayUnstack/TensorListFromTensor"], "attr": {"is_constant": {"b": false}, "T": {"type": "DT_VARIANT"}, "frame_name": {"s": "U3RhdGVmdWxQYXJ0aXRpb25lZENhbGwvY3Jubi9zZXF1ZW50aWFsL2JpZGlyZWN0aW9uYWwvYmFja3dhcmRfbHN0bS9QYXJ0aXRpb25lZENhbGwvd2hpbGU="}, "parallel_iterations": {"i": "32"}}}, {"name": "StatefulPartitionedCall/crnn/sequential/bidirectional/backward_lstm/PartitionedCall/TensorArrayV2_1", "op": "TensorListReserve", "input": ["StatefulPartitionedCall/crnn/sequential/bidirectional/backward_lstm/PartitionedCall/TensorArrayV2_1/element_shape", "StatefulPartitionedCall/crnn/sequential/bidirectional/backward_lstm/PartitionedCall/strided_slice"], "attr": {"shape_type": {"type": "DT_INT32"}, "element_dtype": {"type": "DT_FLOAT"}}}, {"name": "StatefulPartitionedCall/crnn/sequential/bidirectional/backward_lstm/PartitionedCall/while/enter/_194", "op": "Enter", "input": ["StatefulPartitionedCall/crnn/sequential/bidirectional/backward_lstm/PartitionedCall/strided_slice"], "attr": {"frame_name": {"s": "U3RhdGVmdWxQYXJ0aXRpb25lZENhbGwvY3Jubi9zZXF1ZW50aWFsL2JpZGlyZWN0aW9uYWwvYmFja3dhcmRfbHN0bS9QYXJ0aXRpb25lZENhbGwvd2hpbGU="}, "T": {"type": "DT_INT32"}, "is_constant": {"b": false}, "parallel_iterations": {"i": "32"}}}, {"name": "StatefulPartitionedCall/crnn/sequential/bidirectional/forward_lstm/PartitionedCall/while/enter/_133", "op": "Enter", "input": ["StatefulPartitionedCall/crnn/sequential/bidirectional/forward_lstm/zeros_1"], "attr": {"frame_name": {"s": "U3RhdGVmdWxQYXJ0aXRpb25lZENhbGwvY3Jubi9zZXF1ZW50aWFsL2JpZGlyZWN0aW9uYWwvZm9yd2FyZF9sc3RtL1BhcnRpdGlvbmVkQ2FsbC93aGlsZQ=="}, "parallel_iterations": {"i": "32"}, "T": {"type": "DT_FLOAT"}, "is_constant": {"b": false}}}, {"name": "StatefulPartitionedCall/crnn/sequential/bidirectional/forward_lstm/PartitionedCall/while/enter/_132", "op": "Enter", "input": ["StatefulPartitionedCall/crnn/sequential/bidirectional/forward_lstm/zeros"], "attr": {"parallel_iterations": {"i": "32"}, "T": {"type": "DT_FLOAT"}, "frame_name": {"s": "U3RhdGVmdWxQYXJ0aXRpb25lZENhbGwvY3Jubi9zZXF1ZW50aWFsL2JpZGlyZWN0aW9uYWwvZm9yd2FyZF9sc3RtL1BhcnRpdGlvbmVkQ2FsbC93aGlsZQ=="}, "is_constant": {"b": false}}}, {"name": "StatefulPartitionedCall/crnn/sequential/bidirectional/forward_lstm/PartitionedCall/while/enter/_131", "op": "Enter", "input": ["StatefulPartitionedCall/crnn/sequential/bidirectional/forward_lstm/PartitionedCall/TensorArrayV2_1"], "attr": {"frame_name": {"s": "U3RhdGVmdWxQYXJ0aXRpb25lZENhbGwvY3Jubi9zZXF1ZW50aWFsL2JpZGlyZWN0aW9uYWwvZm9yd2FyZF9sc3RtL1BhcnRpdGlvbmVkQ2FsbC93aGlsZQ=="}, "T": {"type": "DT_VARIANT"}, "is_constant": {"b": false}, "parallel_iterations": {"i": "32"}}}, {"name": "StatefulPartitionedCall/crnn/sequential/bidirectional/forward_lstm/PartitionedCall/while/merge/_145", "op": "Merge", "input": ["StatefulPartitionedCall/crnn/sequential/bidirectional/forward_lstm/PartitionedCall/while/enter/_134", "StatefulPartitionedCall/crnn/sequential/bidirectional/forward_lstm/PartitionedCall/while/next_iteration/_181"], "attr": {"N": {"i": "2"}, "T": {"type": "DT_INT32"}}}, {"name": "StatefulPartitionedCall/crnn/sequential/bidirectional/backward_lstm/PartitionedCall/while/enter/_193", "op": "Enter", "input": ["StatefulPartitionedCall/crnn/sequential/bidirectional/backward_lstm/zeros_1"], "attr": {"is_constant": {"b": false}, "parallel_iterations": {"i": "32"}, "frame_name": {"s": "U3RhdGVmdWxQYXJ0aXRpb25lZENhbGwvY3Jubi9zZXF1ZW50aWFsL2JpZGlyZWN0aW9uYWwvYmFja3dhcmRfbHN0bS9QYXJ0aXRpb25lZENhbGwvd2hpbGU="}, "T": {"type": "DT_FLOAT"}}}, {"name": "StatefulPartitionedCall/crnn/sequential/bidirectional/backward_lstm/PartitionedCall/while/enter/_192", "op": "Enter", "input": ["StatefulPartitionedCall/crnn/sequential/bidirectional/backward_lstm/zeros"], "attr": {"frame_name": {"s": "U3RhdGVmdWxQYXJ0aXRpb25lZENhbGwvY3Jubi9zZXF1ZW50aWFsL2JpZGlyZWN0aW9uYWwvYmFja3dhcmRfbHN0bS9QYXJ0aXRpb25lZENhbGwvd2hpbGU="}, "is_constant": {"b": false}, "T": {"type": "DT_FLOAT"}, "parallel_iterations": {"i": "32"}}}, {"name": "StatefulPartitionedCall/crnn/sequential/bidirectional/backward_lstm/PartitionedCall/while/merge/_206", "op": "Merge", "input": ["StatefulPartitionedCall/crnn/sequential/bidirectional/backward_lstm/PartitionedCall/while/enter/_195", "StatefulPartitionedCall/crnn/sequential/bidirectional/backward_lstm/PartitionedCall/while/next_iteration/_242"], "attr": {"T": {"type": "DT_VARIANT"}, "N": {"i": "2"}}}, {"name": "StatefulPartitionedCall/crnn/sequential/bidirectional/backward_lstm/PartitionedCall/while/enter/_191", "op": "Enter", "input": ["StatefulPartitionedCall/crnn/sequential/bidirectional/backward_lstm/PartitionedCall/TensorArrayV2_1"], "attr": {"parallel_iterations": {"i": "32"}, "frame_name": {"s": "U3RhdGVmdWxQYXJ0aXRpb25lZENhbGwvY3Jubi9zZXF1ZW50aWFsL2JpZGlyZWN0aW9uYWwvYmFja3dhcmRfbHN0bS9QYXJ0aXRpb25lZENhbGwvd2hpbGU="}, "T": {"type": "DT_VARIANT"}, "is_constant": {"b": false}}}, {"name": "StatefulPartitionedCall/crnn/sequential/bidirectional/backward_lstm/PartitionedCall/while/merge/_205", "op": "Merge", "input": ["StatefulPartitionedCall/crnn/sequential/bidirectional/backward_lstm/PartitionedCall/while/enter/_194", "StatefulPartitionedCall/crnn/sequential/bidirectional/backward_lstm/PartitionedCall/while/next_iteration/_241"], "attr": {"N": {"i": "2"}, "T": {"type": "DT_INT32"}}}, {"name": "StatefulPartitionedCall/crnn/sequential/bidirectional/forward_lstm/PartitionedCall/while/merge/_144", "op": "Merge", "input": ["StatefulPartitionedCall/crnn/sequential/bidirectional/forward_lstm/PartitionedCall/while/enter/_133", "StatefulPartitionedCall/crnn/sequential/bidirectional/forward_lstm/PartitionedCall/while/next_iteration/_180"], "attr": {"N": {"i": "2"}, "T": {"type": "DT_FLOAT"}}}, {"name": "StatefulPartitionedCall/crnn/sequential/bidirectional/forward_lstm/PartitionedCall/while/merge/_143", "op": "Merge", "input": ["StatefulPartitionedCall/crnn/sequential/bidirectional/forward_lstm/PartitionedCall/while/enter/_132", "StatefulPartitionedCall/crnn/sequential/bidirectional/forward_lstm/PartitionedCall/while/next_iteration/_179"], "attr": {"N": {"i": "2"}, "T": {"type": "DT_FLOAT"}}}, {"name": "StatefulPartitionedCall/crnn/sequential/bidirectional/forward_lstm/PartitionedCall/while/merge/_142", "op": "Merge", "input": ["StatefulPartitionedCall/crnn/sequential/bidirectional/forward_lstm/PartitionedCall/while/enter/_131", "StatefulPartitionedCall/crnn/sequential/bidirectional/forward_lstm/PartitionedCall/while/next_iteration/_178"], "attr": {"N": {"i": "2"}, "T": {"type": "DT_VARIANT"}}}, {"name": "StatefulPartitionedCall/crnn/sequential/bidirectional/forward_lstm/PartitionedCall/while/cond/_126/while/Less", "op": "Less", "input": ["StatefulPartitionedCall/crnn/sequential/bidirectional/forward_lstm/PartitionedCall/while/merge/_141", "StatefulPartitionedCall/crnn/sequential/bidirectional/forward_lstm/PartitionedCall/while/merge/_145", "^StatefulPartitionedCall/crnn/sequential/bidirectional/forward_lstm/PartitionedCall/while/merge/_139"], "attr": {"T": {"type": "DT_INT32"}}}, {"name": "StatefulPartitionedCall/crnn/sequential/bidirectional/backward_lstm/PartitionedCall/while/merge/_204", "op": "Merge", "input": ["StatefulPartitionedCall/crnn/sequential/bidirectional/backward_lstm/PartitionedCall/while/enter/_193", "StatefulPartitionedCall/crnn/sequential/bidirectional/backward_lstm/PartitionedCall/while/next_iteration/_240"], "attr": {"T": {"type": "DT_FLOAT"}, "N": {"i": "2"}}}, {"name": "StatefulPartitionedCall/crnn/sequential/bidirectional/backward_lstm/PartitionedCall/while/merge/_203", "op": "Merge", "input": ["StatefulPartitionedCall/crnn/sequential/bidirectional/backward_lstm/PartitionedCall/while/enter/_192", "StatefulPartitionedCall/crnn/sequential/bidirectional/backward_lstm/PartitionedCall/while/next_iteration/_239"], "attr": {"T": {"type": "DT_FLOAT"}, "N": {"i": "2"}}}, {"name": "StatefulPartitionedCall/crnn/sequential/bidirectional/backward_lstm/PartitionedCall/while/merge/_202", "op": "Merge", "input": ["StatefulPartitionedCall/crnn/sequential/bidirectional/backward_lstm/PartitionedCall/while/enter/_191", "StatefulPartitionedCall/crnn/sequential/bidirectional/backward_lstm/PartitionedCall/while/next_iteration/_238"], "attr": {"T": {"type": "DT_VARIANT"}, "N": {"i": "2"}}}, {"name": "StatefulPartitionedCall/crnn/sequential/bidirectional/backward_lstm/PartitionedCall/while/cond/_186/while/Less", "op": "Less", "input": ["StatefulPartitionedCall/crnn/sequential/bidirectional/backward_lstm/PartitionedCall/while/merge/_201", "StatefulPartitionedCall/crnn/sequential/bidirectional/backward_lstm/PartitionedCall/while/merge/_205", "^StatefulPartitionedCall/crnn/sequential/bidirectional/backward_lstm/PartitionedCall/while/merge/_199"], "attr": {"T": {"type": "DT_INT32"}}}, {"name": "StatefulPartitionedCall/crnn/sequential/bidirectional/forward_lstm/PartitionedCall/while/LoopCond/_150", "op": "LoopCond", "input": ["StatefulPartitionedCall/crnn/sequential/bidirectional/forward_lstm/PartitionedCall/while/cond/_126/while/Less"]}, {"name": "StatefulPartitionedCall/crnn/sequential/bidirectional/backward_lstm/PartitionedCall/while/LoopCond/_210", "op": "LoopCond", "input": ["StatefulPartitionedCall/crnn/sequential/bidirectional/backward_lstm/PartitionedCall/while/cond/_186/while/Less"]}, {"name": "StatefulPartitionedCall/crnn/sequential/bidirectional/forward_lstm/PartitionedCall/while/Func/StatefulPartitionedCall/crnn/sequential/bidirectional/forward_lstm/PartitionedCall/input/_84_switch/_156", "op": "Switch", "input": ["StatefulPartitionedCall/crnn/sequential/bidirectional/forward_lstm/PartitionedCall/while/merge/_144", "StatefulPartitionedCall/crnn/sequential/bidirectional/forward_lstm/PartitionedCall/while/LoopCond/_150"], "attr": {"T": {"type": "DT_FLOAT"}}}, {"name": "StatefulPartitionedCall/crnn/sequential/bidirectional/forward_lstm/PartitionedCall/while/StatefulPartitionedCall/crnn/sequential/bidirectional/forward_lstm/PartitionedCall/TensorArrayUnstack/TensorListFromTensor_switch/_158", "op": "Switch", "input": ["StatefulPartitionedCall/crnn/sequential/bidirectional/forward_lstm/PartitionedCall/while/merge/_146", "StatefulPartitionedCall/crnn/sequential/bidirectional/forward_lstm/PartitionedCall/while/LoopCond/_150"], "attr": {"T": {"type": "DT_VARIANT"}}}, {"name": "StatefulPartitionedCall/crnn/sequential/bidirectional/forward_lstm/PartitionedCall/while/Func/StatefulPartitionedCall/crnn/sequential/bidirectional/forward_lstm/PartitionedCall/input/_85_switch/_159", "op": "Switch", "input": ["StatefulPartitionedCall/crnn/sequential/bidirectional/forward_lstm/PartitionedCall/while/merge/_147", "StatefulPartitionedCall/crnn/sequential/bidirectional/forward_lstm/PartitionedCall/while/LoopCond/_150"], "attr": {"T": {"type": "DT_FLOAT"}}}, {"name": "StatefulPartitionedCall/crnn/sequential/bidirectional/forward_lstm/PartitionedCall/while/Func/StatefulPartitionedCall/crnn/sequential/bidirectional/forward_lstm/PartitionedCall/input/_83_switch/_155", "op": "Switch", "input": ["StatefulPartitionedCall/crnn/sequential/bidirectional/forward_lstm/PartitionedCall/while/merge/_143", "StatefulPartitionedCall/crnn/sequential/bidirectional/forward_lstm/PartitionedCall/while/LoopCond/_150"], "attr": {"T": {"type": "DT_FLOAT"}}}, {"name": "StatefulPartitionedCall/crnn/sequential/bidirectional/forward_lstm/PartitionedCall/while/Func/StatefulPartitionedCall/crnn/sequential/bidirectional/forward_lstm/PartitionedCall/input/_86_switch/_160", "op": "Switch", "input": ["StatefulPartitionedCall/crnn/sequential/bidirectional/forward_lstm/PartitionedCall/while/merge/_148", "StatefulPartitionedCall/crnn/sequential/bidirectional/forward_lstm/PartitionedCall/while/LoopCond/_150"], "attr": {"T": {"type": "DT_FLOAT"}}}, {"name": "StatefulPartitionedCall/crnn/sequential/bidirectional/forward_lstm/PartitionedCall/while/Func/StatefulPartitionedCall/crnn/sequential/bidirectional/forward_lstm/PartitionedCall/input/_87_switch/_161", "op": "Switch", "input": ["StatefulPartitionedCall/crnn/sequential/bidirectional/forward_lstm/PartitionedCall/while/merge/_149", "StatefulPartitionedCall/crnn/sequential/bidirectional/forward_lstm/PartitionedCall/while/LoopCond/_150"], "attr": {"T": {"type": "DT_FLOAT"}}}, {"name": "StatefulPartitionedCall/crnn/sequential/bidirectional/forward_lstm/PartitionedCall/while/StatefulPartitionedCall/crnn/sequential/bidirectional/forward_lstm/PartitionedCall/time_switch/_153", "op": "Switch", "input": ["StatefulPartitionedCall/crnn/sequential/bidirectional/forward_lstm/PartitionedCall/while/merge/_141", "StatefulPartitionedCall/crnn/sequential/bidirectional/forward_lstm/PartitionedCall/while/LoopCond/_150"], "attr": {"T": {"type": "DT_INT32"}}}, {"name": "StatefulPartitionedCall/crnn/sequential/bidirectional/forward_lstm/PartitionedCall/while/StatefulPartitionedCall/crnn/sequential/bidirectional/forward_lstm/PartitionedCall/while/loop_counter_switch/_151", "op": "Switch", "input": ["StatefulPartitionedCall/crnn/sequential/bidirectional/forward_lstm/PartitionedCall/while/merge/_139", "StatefulPartitionedCall/crnn/sequential/bidirectional/forward_lstm/PartitionedCall/while/LoopCond/_150"], "attr": {"T": {"type": "DT_INT32"}}}, {"name": "StatefulPartitionedCall/crnn/sequential/bidirectional/forward_lstm/PartitionedCall/while/StatefulPartitionedCall/crnn/sequential/bidirectional/forward_lstm/PartitionedCall/TensorArrayV2_1_switch/_154", "op": "Switch", "input": ["StatefulPartitionedCall/crnn/sequential/bidirectional/forward_lstm/PartitionedCall/while/merge/_142", "StatefulPartitionedCall/crnn/sequential/bidirectional/forward_lstm/PartitionedCall/while/LoopCond/_150"], "attr": {"T": {"type": "DT_VARIANT"}}}, {"name": "StatefulPartitionedCall/crnn/sequential/bidirectional/forward_lstm/PartitionedCall/while/StatefulPartitionedCall/crnn/sequential/bidirectional/forward_lstm/PartitionedCall/strided_slice_switch/_157", "op": "Switch", "input": ["StatefulPartitionedCall/crnn/sequential/bidirectional/forward_lstm/PartitionedCall/while/merge/_145", "StatefulPartitionedCall/crnn/sequential/bidirectional/forward_lstm/PartitionedCall/while/LoopCond/_150"], "attr": {"T": {"type": "DT_INT32"}}}, {"name": "StatefulPartitionedCall/crnn/sequential/bidirectional/backward_lstm/PartitionedCall/while/Func/StatefulPartitionedCall/crnn/sequential/bidirectional/backward_lstm/PartitionedCall/input/_95_switch/_216", "op": "Switch", "input": ["StatefulPartitionedCall/crnn/sequential/bidirectional/backward_lstm/PartitionedCall/while/merge/_204", "StatefulPartitionedCall/crnn/sequential/bidirectional/backward_lstm/PartitionedCall/while/LoopCond/_210"], "attr": {"T": {"type": "DT_FLOAT"}}}, {"name": "StatefulPartitionedCall/crnn/sequential/bidirectional/backward_lstm/PartitionedCall/while/StatefulPartitionedCall/crnn/sequential/bidirectional/backward_lstm/PartitionedCall/TensorArrayUnstack/TensorListFromTensor_switch/_218", "op": "Switch", "input": ["StatefulPartitionedCall/crnn/sequential/bidirectional/backward_lstm/PartitionedCall/while/merge/_206", "StatefulPartitionedCall/crnn/sequential/bidirectional/backward_lstm/PartitionedCall/while/LoopCond/_210"], "attr": {"T": {"type": "DT_VARIANT"}}}, {"name": "StatefulPartitionedCall/crnn/sequential/bidirectional/backward_lstm/PartitionedCall/while/Func/StatefulPartitionedCall/crnn/sequential/bidirectional/backward_lstm/PartitionedCall/input/_96_switch/_219", "op": "Switch", "input": ["StatefulPartitionedCall/crnn/sequential/bidirectional/backward_lstm/PartitionedCall/while/merge/_207", "StatefulPartitionedCall/crnn/sequential/bidirectional/backward_lstm/PartitionedCall/while/LoopCond/_210"], "attr": {"T": {"type": "DT_FLOAT"}}}, {"name": "StatefulPartitionedCall/crnn/sequential/bidirectional/backward_lstm/PartitionedCall/while/Func/StatefulPartitionedCall/crnn/sequential/bidirectional/backward_lstm/PartitionedCall/input/_94_switch/_215", "op": "Switch", "input": ["StatefulPartitionedCall/crnn/sequential/bidirectional/backward_lstm/PartitionedCall/while/merge/_203", "StatefulPartitionedCall/crnn/sequential/bidirectional/backward_lstm/PartitionedCall/while/LoopCond/_210"], "attr": {"T": {"type": "DT_FLOAT"}}}, {"name": "StatefulPartitionedCall/crnn/sequential/bidirectional/backward_lstm/PartitionedCall/while/Func/StatefulPartitionedCall/crnn/sequential/bidirectional/backward_lstm/PartitionedCall/input/_97_switch/_220", "op": "Switch", "input": ["StatefulPartitionedCall/crnn/sequential/bidirectional/backward_lstm/PartitionedCall/while/merge/_208", "StatefulPartitionedCall/crnn/sequential/bidirectional/backward_lstm/PartitionedCall/while/LoopCond/_210"], "attr": {"T": {"type": "DT_FLOAT"}}}, {"name": "StatefulPartitionedCall/crnn/sequential/bidirectional/backward_lstm/PartitionedCall/while/Func/StatefulPartitionedCall/crnn/sequential/bidirectional/backward_lstm/PartitionedCall/input/_98_switch/_221", "op": "Switch", "input": ["StatefulPartitionedCall/crnn/sequential/bidirectional/backward_lstm/PartitionedCall/while/merge/_209", "StatefulPartitionedCall/crnn/sequential/bidirectional/backward_lstm/PartitionedCall/while/LoopCond/_210"], "attr": {"T": {"type": "DT_FLOAT"}}}, {"name": "StatefulPartitionedCall/crnn/sequential/bidirectional/backward_lstm/PartitionedCall/while/StatefulPartitionedCall/crnn/sequential/bidirectional/backward_lstm/PartitionedCall/time_switch/_213", "op": "Switch", "input": ["StatefulPartitionedCall/crnn/sequential/bidirectional/backward_lstm/PartitionedCall/while/merge/_201", "StatefulPartitionedCall/crnn/sequential/bidirectional/backward_lstm/PartitionedCall/while/LoopCond/_210"], "attr": {"T": {"type": "DT_INT32"}}}, {"name": "StatefulPartitionedCall/crnn/sequential/bidirectional/backward_lstm/PartitionedCall/while/StatefulPartitionedCall/crnn/sequential/bidirectional/backward_lstm/PartitionedCall/while/loop_counter_switch/_211", "op": "Switch", "input": ["StatefulPartitionedCall/crnn/sequential/bidirectional/backward_lstm/PartitionedCall/while/merge/_199", "StatefulPartitionedCall/crnn/sequential/bidirectional/backward_lstm/PartitionedCall/while/LoopCond/_210"], "attr": {"T": {"type": "DT_INT32"}}}, {"name": "StatefulPartitionedCall/crnn/sequential/bidirectional/backward_lstm/PartitionedCall/while/StatefulPartitionedCall/crnn/sequential/bidirectional/backward_lstm/PartitionedCall/TensorArrayV2_1_switch/_214", "op": "Switch", "input": ["StatefulPartitionedCall/crnn/sequential/bidirectional/backward_lstm/PartitionedCall/while/merge/_202", "StatefulPartitionedCall/crnn/sequential/bidirectional/backward_lstm/PartitionedCall/while/LoopCond/_210"], "attr": {"T": {"type": "DT_VARIANT"}}}, {"name": "StatefulPartitionedCall/crnn/sequential/bidirectional/backward_lstm/PartitionedCall/while/StatefulPartitionedCall/crnn/sequential/bidirectional/backward_lstm/PartitionedCall/strided_slice_switch/_217", "op": "Switch", "input": ["StatefulPartitionedCall/crnn/sequential/bidirectional/backward_lstm/PartitionedCall/while/merge/_205", "StatefulPartitionedCall/crnn/sequential/bidirectional/backward_lstm/PartitionedCall/while/LoopCond/_210"], "attr": {"T": {"type": "DT_INT32"}}}, {"name": "StatefulPartitionedCall/crnn/sequential/bidirectional/forward_lstm/PartitionedCall/while/loop_body_control/_162", "op": "Identity", "input": ["StatefulPartitionedCall/crnn/sequential/bidirectional/forward_lstm/PartitionedCall/while/StatefulPartitionedCall/crnn/sequential/bidirectional/forward_lstm/PartitionedCall/while/loop_counter_switch/_151:1"], "attr": {"T": {"type": "DT_INT32"}}}, {"name": "StatefulPartitionedCall/crnn/sequential/bidirectional/forward_lstm/PartitionedCall/while/exit/_166", "op": "Exit", "input": ["StatefulPartitionedCall/crnn/sequential/bidirectional/forward_lstm/PartitionedCall/while/StatefulPartitionedCall/crnn/sequential/bidirectional/forward_lstm/PartitionedCall/TensorArrayV2_1_switch/_154"], "attr": {"T": {"type": "DT_VARIANT"}}}, {"name": "StatefulPartitionedCall/crnn/sequential/bidirectional/backward_lstm/PartitionedCall/while/loop_body_control/_222", "op": "Identity", "input": ["StatefulPartitionedCall/crnn/sequential/bidirectional/backward_lstm/PartitionedCall/while/StatefulPartitionedCall/crnn/sequential/bidirectional/backward_lstm/PartitionedCall/while/loop_counter_switch/_211:1"], "attr": {"T": {"type": "DT_INT32"}}}, {"name": "StatefulPartitionedCall/crnn/sequential/bidirectional/backward_lstm/PartitionedCall/while/exit/_226", "op": "Exit", "input": ["StatefulPartitionedCall/crnn/sequential/bidirectional/backward_lstm/PartitionedCall/while/StatefulPartitionedCall/crnn/sequential/bidirectional/backward_lstm/PartitionedCall/TensorArrayV2_1_switch/_214"], "attr": {"T": {"type": "DT_VARIANT"}}}, {"name": "StatefulPartitionedCall/crnn/sequential/bidirectional/forward_lstm/PartitionedCall/while/body/_127/while/split/split_dim", "op": "Const", "input": ["^StatefulPartitionedCall/crnn/sequential/bidirectional/forward_lstm/PartitionedCall/while/loop_body_control/_162"], "attr": {"value": {"tensor": {"dtype": "DT_INT32", "tensorShape": {}}}, "dtype": {"type": "DT_INT32"}}}, {"name": "StatefulPartitionedCall/crnn/sequential/bidirectional/forward_lstm/PartitionedCall/while/next_iteration/_182", "op": "NextIteration", "input": ["StatefulPartitionedCall/crnn/sequential/bidirectional/forward_lstm/PartitionedCall/while/StatefulPartitionedCall/crnn/sequential/bidirectional/forward_lstm/PartitionedCall/TensorArrayUnstack/TensorListFromTensor_switch/_158:1", "^StatefulPartitionedCall/crnn/sequential/bidirectional/forward_lstm/PartitionedCall/while/loop_body_control/_162"], "attr": {"T": {"type": "DT_VARIANT"}}}, {"name": "StatefulPartitionedCall/crnn/sequential/bidirectional/forward_lstm/PartitionedCall/while/body/_127/while/TensorArrayV2Read/TensorListGetItem/element_shape", "op": "Const", "input": ["^StatefulPartitionedCall/crnn/sequential/bidirectional/forward_lstm/PartitionedCall/while/loop_body_control/_162"], "attr": {"value": {"tensor": {"dtype": "DT_INT32", "tensorShape": {"dim": [{"size": "2"}]}}}, "dtype": {"type": "DT_INT32"}}}, {"name": "StatefulPartitionedCall/crnn/sequential/bidirectional/forward_lstm/PartitionedCall/while/next_iteration/_183", "op": "NextIteration", "input": ["StatefulPartitionedCall/crnn/sequential/bidirectional/forward_lstm/PartitionedCall/while/Func/StatefulPartitionedCall/crnn/sequential/bidirectional/forward_lstm/PartitionedCall/input/_85_switch/_159:1", "^StatefulPartitionedCall/crnn/sequential/bidirectional/forward_lstm/PartitionedCall/while/loop_body_control/_162"], "attr": {"T": {"type": "DT_FLOAT"}}}, {"name": "StatefulPartitionedCall/crnn/sequential/bidirectional/forward_lstm/PartitionedCall/while/next_iteration/_184", "op": "NextIteration", "input": ["StatefulPartitionedCall/crnn/sequential/bidirectional/forward_lstm/PartitionedCall/while/Func/StatefulPartitionedCall/crnn/sequential/bidirectional/forward_lstm/PartitionedCall/input/_86_switch/_160:1", "^StatefulPartitionedCall/crnn/sequential/bidirectional/forward_lstm/PartitionedCall/while/loop_body_control/_162"], "attr": {"T": {"type": "DT_FLOAT"}}}, {"name": "StatefulPartitionedCall/crnn/sequential/bidirectional/forward_lstm/PartitionedCall/while/body/_127/while/MatMul_1", "op": "MatMul", "input": ["StatefulPartitionedCall/crnn/sequential/bidirectional/forward_lstm/PartitionedCall/while/Func/StatefulPartitionedCall/crnn/sequential/bidirectional/forward_lstm/PartitionedCall/input/_83_switch/_155:1", "StatefulPartitionedCall/crnn/sequential/bidirectional/forward_lstm/PartitionedCall/while/Func/StatefulPartitionedCall/crnn/sequential/bidirectional/forward_lstm/PartitionedCall/input/_86_switch/_160:1", "^StatefulPartitionedCall/crnn/sequential/bidirectional/forward_lstm/PartitionedCall/while/loop_body_control/_162"], "device": "/device:CPU:0", "attr": {"T": {"type": "DT_FLOAT"}, "transpose_a": {"b": false}, "transpose_b": {"b": false}}}, {"name": "StatefulPartitionedCall/crnn/sequential/bidirectional/forward_lstm/PartitionedCall/while/next_iteration/_185", "op": "NextIteration", "input": ["StatefulPartitionedCall/crnn/sequential/bidirectional/forward_lstm/PartitionedCall/while/Func/StatefulPartitionedCall/crnn/sequential/bidirectional/forward_lstm/PartitionedCall/input/_87_switch/_161:1", "^StatefulPartitionedCall/crnn/sequential/bidirectional/forward_lstm/PartitionedCall/while/loop_body_control/_162"], "attr": {"T": {"type": "DT_FLOAT"}}}, {"name": "Func/StatefulPartitionedCall/crnn/sequential/bidirectional/forward_lstm/PartitionedCall/while/body/_127/input/_382", "op": "Identity", "input": ["StatefulPartitionedCall/crnn/sequential/bidirectional/forward_lstm/PartitionedCall/while/StatefulPartitionedCall/crnn/sequential/bidirectional/forward_lstm/PartitionedCall/time_switch/_153:1", "^StatefulPartitionedCall/crnn/sequential/bidirectional/forward_lstm/PartitionedCall/while/loop_body_control/_162"], "attr": {"T": {"type": "DT_INT32"}}}, {"name": "StatefulPartitionedCall/crnn/sequential/bidirectional/forward_lstm/PartitionedCall/while/body/_127/while/add_2/y", "op": "Const", "input": ["^StatefulPartitionedCall/crnn/sequential/bidirectional/forward_lstm/PartitionedCall/while/loop_body_control/_162"], "attr": {"dtype": {"type": "DT_INT32"}, "value": {"tensor": {"dtype": "DT_INT32", "tensorShape": {}}}}}, {"name": "StatefulPartitionedCall/crnn/sequential/bidirectional/forward_lstm/PartitionedCall/while/body/_127/while/add_3/y", "op": "Const", "input": ["^StatefulPartitionedCall/crnn/sequential/bidirectional/forward_lstm/PartitionedCall/while/loop_body_control/_162"], "attr": {"dtype": {"type": "DT_INT32"}, "value": {"tensor": {"dtype": "DT_INT32", "tensorShape": {}}}}}, {"name": "StatefulPartitionedCall/crnn/sequential/bidirectional/forward_lstm/PartitionedCall/while/next_iteration/_181", "op": "NextIteration", "input": ["StatefulPartitionedCall/crnn/sequential/bidirectional/forward_lstm/PartitionedCall/while/StatefulPartitionedCall/crnn/sequential/bidirectional/forward_lstm/PartitionedCall/strided_slice_switch/_157:1", "^StatefulPartitionedCall/crnn/sequential/bidirectional/forward_lstm/PartitionedCall/while/loop_body_control/_162"], "attr": {"T": {"type": "DT_INT32"}}}, {"name": "StatefulPartitionedCall/crnn/sequential/bidirectional/forward_lstm/PartitionedCall/TensorArrayV2Stack/TensorListStack", "op": "TensorListStack", "input": ["StatefulPartitionedCall/crnn/sequential/bidirectional/forward_lstm/PartitionedCall/while/exit/_166", "StatefulPartitionedCall/crnn/sequential/bidirectional/forward_lstm/PartitionedCall/TensorArrayV2Stack/TensorListStack/element_shape"], "attr": {"element_dtype": {"type": "DT_FLOAT"}, "num_elements": {"i": "-1"}}}, {"name": "StatefulPartitionedCall/crnn/sequential/bidirectional/backward_lstm/PartitionedCall/while/body/_187/while/split/split_dim", "op": "Const", "input": ["^StatefulPartitionedCall/crnn/sequential/bidirectional/backward_lstm/PartitionedCall/while/loop_body_control/_222"], "attr": {"dtype": {"type": "DT_INT32"}, "value": {"tensor": {"dtype": "DT_INT32", "tensorShape": {}}}}}, {"name": "StatefulPartitionedCall/crnn/sequential/bidirectional/backward_lstm/PartitionedCall/while/next_iteration/_242", "op": "NextIteration", "input": ["StatefulPartitionedCall/crnn/sequential/bidirectional/backward_lstm/PartitionedCall/while/StatefulPartitionedCall/crnn/sequential/bidirectional/backward_lstm/PartitionedCall/TensorArrayUnstack/TensorListFromTensor_switch/_218:1", "^StatefulPartitionedCall/crnn/sequential/bidirectional/backward_lstm/PartitionedCall/while/loop_body_control/_222"], "attr": {"T": {"type": "DT_VARIANT"}}}, {"name": "StatefulPartitionedCall/crnn/sequential/bidirectional/backward_lstm/PartitionedCall/while/body/_187/while/TensorArrayV2Read/TensorListGetItem/element_shape", "op": "Const", "input": ["^StatefulPartitionedCall/crnn/sequential/bidirectional/backward_lstm/PartitionedCall/while/loop_body_control/_222"], "attr": {"dtype": {"type": "DT_INT32"}, "value": {"tensor": {"dtype": "DT_INT32", "tensorShape": {"dim": [{"size": "2"}]}}}}}, {"name": "StatefulPartitionedCall/crnn/sequential/bidirectional/backward_lstm/PartitionedCall/while/next_iteration/_243", "op": "NextIteration", "input": ["StatefulPartitionedCall/crnn/sequential/bidirectional/backward_lstm/PartitionedCall/while/Func/StatefulPartitionedCall/crnn/sequential/bidirectional/backward_lstm/PartitionedCall/input/_96_switch/_219:1", "^StatefulPartitionedCall/crnn/sequential/bidirectional/backward_lstm/PartitionedCall/while/loop_body_control/_222"], "attr": {"T": {"type": "DT_FLOAT"}}}, {"name": "StatefulPartitionedCall/crnn/sequential/bidirectional/backward_lstm/PartitionedCall/while/next_iteration/_244", "op": "NextIteration", "input": ["StatefulPartitionedCall/crnn/sequential/bidirectional/backward_lstm/PartitionedCall/while/Func/StatefulPartitionedCall/crnn/sequential/bidirectional/backward_lstm/PartitionedCall/input/_97_switch/_220:1", "^StatefulPartitionedCall/crnn/sequential/bidirectional/backward_lstm/PartitionedCall/while/loop_body_control/_222"], "attr": {"T": {"type": "DT_FLOAT"}}}, {"name": "StatefulPartitionedCall/crnn/sequential/bidirectional/backward_lstm/PartitionedCall/while/body/_187/while/MatMul_1", "op": "MatMul", "input": ["StatefulPartitionedCall/crnn/sequential/bidirectional/backward_lstm/PartitionedCall/while/Func/StatefulPartitionedCall/crnn/sequential/bidirectional/backward_lstm/PartitionedCall/input/_94_switch/_215:1", "StatefulPartitionedCall/crnn/sequential/bidirectional/backward_lstm/PartitionedCall/while/Func/StatefulPartitionedCall/crnn/sequential/bidirectional/backward_lstm/PartitionedCall/input/_97_switch/_220:1", "^StatefulPartitionedCall/crnn/sequential/bidirectional/backward_lstm/PartitionedCall/while/loop_body_control/_222"], "device": "/device:CPU:0", "attr": {"transpose_b": {"b": false}, "T": {"type": "DT_FLOAT"}, "transpose_a": {"b": false}}}, {"name": "StatefulPartitionedCall/crnn/sequential/bidirectional/backward_lstm/PartitionedCall/while/next_iteration/_245", "op": "NextIteration", "input": ["StatefulPartitionedCall/crnn/sequential/bidirectional/backward_lstm/PartitionedCall/while/Func/StatefulPartitionedCall/crnn/sequential/bidirectional/backward_lstm/PartitionedCall/input/_98_switch/_221:1", "^StatefulPartitionedCall/crnn/sequential/bidirectional/backward_lstm/PartitionedCall/while/loop_body_control/_222"], "attr": {"T": {"type": "DT_FLOAT"}}}, {"name": "Func/StatefulPartitionedCall/crnn/sequential/bidirectional/backward_lstm/PartitionedCall/while/body/_187/input/_419", "op": "Identity", "input": ["StatefulPartitionedCall/crnn/sequential/bidirectional/backward_lstm/PartitionedCall/while/StatefulPartitionedCall/crnn/sequential/bidirectional/backward_lstm/PartitionedCall/time_switch/_213:1", "^StatefulPartitionedCall/crnn/sequential/bidirectional/backward_lstm/PartitionedCall/while/loop_body_control/_222"], "attr": {"T": {"type": "DT_INT32"}}}, {"name": "StatefulPartitionedCall/crnn/sequential/bidirectional/backward_lstm/PartitionedCall/while/body/_187/while/add_2/y", "op": "Const", "input": ["^StatefulPartitionedCall/crnn/sequential/bidirectional/backward_lstm/PartitionedCall/while/loop_body_control/_222"], "attr": {"dtype": {"type": "DT_INT32"}, "value": {"tensor": {"dtype": "DT_INT32", "tensorShape": {}}}}}, {"name": "StatefulPartitionedCall/crnn/sequential/bidirectional/backward_lstm/PartitionedCall/while/body/_187/while/add_3/y", "op": "Const", "input": ["^StatefulPartitionedCall/crnn/sequential/bidirectional/backward_lstm/PartitionedCall/while/loop_body_control/_222"], "attr": {"dtype": {"type": "DT_INT32"}, "value": {"tensor": {"dtype": "DT_INT32", "tensorShape": {}}}}}, {"name": "StatefulPartitionedCall/crnn/sequential/bidirectional/backward_lstm/PartitionedCall/while/next_iteration/_241", "op": "NextIteration", "input": ["StatefulPartitionedCall/crnn/sequential/bidirectional/backward_lstm/PartitionedCall/while/StatefulPartitionedCall/crnn/sequential/bidirectional/backward_lstm/PartitionedCall/strided_slice_switch/_217:1", "^StatefulPartitionedCall/crnn/sequential/bidirectional/backward_lstm/PartitionedCall/while/loop_body_control/_222"], "attr": {"T": {"type": "DT_INT32"}}}, {"name": "StatefulPartitionedCall/crnn/sequential/bidirectional/backward_lstm/PartitionedCall/TensorArrayV2Stack/TensorListStack", "op": "TensorListStack", "input": ["StatefulPartitionedCall/crnn/sequential/bidirectional/backward_lstm/PartitionedCall/while/exit/_226", "StatefulPartitionedCall/crnn/sequential/bidirectional/backward_lstm/PartitionedCall/TensorArrayV2Stack/TensorListStack/element_shape"], "attr": {"num_elements": {"i": "-1"}, "element_dtype": {"type": "DT_FLOAT"}}}, {"name": "StatefulPartitionedCall/crnn/sequential/bidirectional/forward_lstm/PartitionedCall/while/body/_127/while/TensorArrayV2Read/TensorListGetItem", "op": "TensorListGetItem", "input": ["StatefulPartitionedCall/crnn/sequential/bidirectional/forward_lstm/PartitionedCall/while/StatefulPartitionedCall/crnn/sequential/bidirectional/forward_lstm/PartitionedCall/TensorArrayUnstack/TensorListFromTensor_switch/_158:1", "Func/StatefulPartitionedCall/crnn/sequential/bidirectional/forward_lstm/PartitionedCall/while/body/_127/input/_382", "StatefulPartitionedCall/crnn/sequential/bidirectional/forward_lstm/PartitionedCall/while/body/_127/while/TensorArrayV2Read/TensorListGetItem/element_shape"], "attr": {"element_dtype": {"type": "DT_FLOAT"}}}, {"name": "StatefulPartitionedCall/crnn/sequential/bidirectional/forward_lstm/PartitionedCall/while/body/_127/while/add_2", "op": "AddV2", "input": ["Func/StatefulPartitionedCall/crnn/sequential/bidirectional/forward_lstm/PartitionedCall/while/body/_127/input/_382", "StatefulPartitionedCall/crnn/sequential/bidirectional/forward_lstm/PartitionedCall/while/body/_127/while/add_2/y"], "attr": {"T": {"type": "DT_INT32"}}}, {"name": "StatefulPartitionedCall/crnn/sequential/bidirectional/forward_lstm/PartitionedCall/while/body/_127/while/add_3", "op": "AddV2", "input": ["StatefulPartitionedCall/crnn/sequential/bidirectional/forward_lstm/PartitionedCall/while/StatefulPartitionedCall/crnn/sequential/bidirectional/forward_lstm/PartitionedCall/while/loop_counter_switch/_151:1", "StatefulPartitionedCall/crnn/sequential/bidirectional/forward_lstm/PartitionedCall/while/body/_127/while/add_3/y"], "attr": {"T": {"type": "DT_INT32"}}}, {"name": "StatefulPartitionedCall/crnn/sequential/bidirectional/forward_lstm/PartitionedCall/transpose_1", "op": "Transpose", "input": ["StatefulPartitionedCall/crnn/sequential/bidirectional/forward_lstm/PartitionedCall/TensorArrayV2Stack/TensorListStack", "StatefulPartitionedCall/crnn/sequential/bidirectional/forward_lstm/PartitionedCall/transpose_1/perm"], "attr": {"T": {"type": "DT_FLOAT"}, "Tperm": {"type": "DT_INT32"}}}, {"name": "StatefulPartitionedCall/crnn/sequential/bidirectional/backward_lstm/PartitionedCall/while/body/_187/while/TensorArrayV2Read/TensorListGetItem", "op": "TensorListGetItem", "input": ["StatefulPartitionedCall/crnn/sequential/bidirectional/backward_lstm/PartitionedCall/while/StatefulPartitionedCall/crnn/sequential/bidirectional/backward_lstm/PartitionedCall/TensorArrayUnstack/TensorListFromTensor_switch/_218:1", "Func/StatefulPartitionedCall/crnn/sequential/bidirectional/backward_lstm/PartitionedCall/while/body/_187/input/_419", "StatefulPartitionedCall/crnn/sequential/bidirectional/backward_lstm/PartitionedCall/while/body/_187/while/TensorArrayV2Read/TensorListGetItem/element_shape"], "attr": {"element_dtype": {"type": "DT_FLOAT"}}}, {"name": "StatefulPartitionedCall/crnn/sequential/bidirectional/backward_lstm/PartitionedCall/while/body/_187/while/add_2", "op": "AddV2", "input": ["Func/StatefulPartitionedCall/crnn/sequential/bidirectional/backward_lstm/PartitionedCall/while/body/_187/input/_419", "StatefulPartitionedCall/crnn/sequential/bidirectional/backward_lstm/PartitionedCall/while/body/_187/while/add_2/y"], "attr": {"T": {"type": "DT_INT32"}}}, {"name": "StatefulPartitionedCall/crnn/sequential/bidirectional/backward_lstm/PartitionedCall/while/body/_187/while/add_3", "op": "AddV2", "input": ["StatefulPartitionedCall/crnn/sequential/bidirectional/backward_lstm/PartitionedCall/while/StatefulPartitionedCall/crnn/sequential/bidirectional/backward_lstm/PartitionedCall/while/loop_counter_switch/_211:1", "StatefulPartitionedCall/crnn/sequential/bidirectional/backward_lstm/PartitionedCall/while/body/_187/while/add_3/y"], "attr": {"T": {"type": "DT_INT32"}}}, {"name": "StatefulPartitionedCall/crnn/sequential/bidirectional/backward_lstm/PartitionedCall/transpose_1", "op": "Transpose", "input": ["StatefulPartitionedCall/crnn/sequential/bidirectional/backward_lstm/PartitionedCall/TensorArrayV2Stack/TensorListStack", "StatefulPartitionedCall/crnn/sequential/bidirectional/backward_lstm/PartitionedCall/transpose_1/perm"], "attr": {"Tperm": {"type": "DT_INT32"}, "T": {"type": "DT_FLOAT"}}}, {"name": "StatefulPartitionedCall/crnn/sequential/bidirectional/forward_lstm/PartitionedCall/while/body/_127/while/MatMul", "op": "MatMul", "input": ["StatefulPartitionedCall/crnn/sequential/bidirectional/forward_lstm/PartitionedCall/while/body/_127/while/TensorArrayV2Read/TensorListGetItem", "StatefulPartitionedCall/crnn/sequential/bidirectional/forward_lstm/PartitionedCall/while/Func/StatefulPartitionedCall/crnn/sequential/bidirectional/forward_lstm/PartitionedCall/input/_85_switch/_159:1"], "device": "/device:CPU:0", "attr": {"T": {"type": "DT_FLOAT"}, "transpose_b": {"b": false}, "transpose_a": {"b": false}}}, {"name": "StatefulPartitionedCall/crnn/sequential/bidirectional/forward_lstm/PartitionedCall/while/next_iteration/_177", "op": "NextIteration", "input": ["StatefulPartitionedCall/crnn/sequential/bidirectional/forward_lstm/PartitionedCall/while/body/_127/while/add_2", "^StatefulPartitionedCall/crnn/sequential/bidirectional/forward_lstm/PartitionedCall/while/loop_body_control/_162"], "attr": {"T": {"type": "DT_INT32"}}}, {"name": "StatefulPartitionedCall/crnn/sequential/bidirectional/forward_lstm/PartitionedCall/while/next_iteration/_175", "op": "NextIteration", "input": ["StatefulPartitionedCall/crnn/sequential/bidirectional/forward_lstm/PartitionedCall/while/body/_127/while/add_3", "^StatefulPartitionedCall/crnn/sequential/bidirectional/forward_lstm/PartitionedCall/while/loop_body_control/_162"], "attr": {"T": {"type": "DT_INT32"}}}, {"name": "StatefulPartitionedCall/crnn/sequential/bidirectional/backward_lstm/PartitionedCall/while/body/_187/while/MatMul", "op": "MatMul", "input": ["StatefulPartitionedCall/crnn/sequential/bidirectional/backward_lstm/PartitionedCall/while/body/_187/while/TensorArrayV2Read/TensorListGetItem", "StatefulPartitionedCall/crnn/sequential/bidirectional/backward_lstm/PartitionedCall/while/Func/StatefulPartitionedCall/crnn/sequential/bidirectional/backward_lstm/PartitionedCall/input/_96_switch/_219:1"], "device": "/device:CPU:0", "attr": {"transpose_b": {"b": false}, "transpose_a": {"b": false}, "T": {"type": "DT_FLOAT"}}}, {"name": "StatefulPartitionedCall/crnn/sequential/bidirectional/backward_lstm/PartitionedCall/while/next_iteration/_237", "op": "NextIteration", "input": ["StatefulPartitionedCall/crnn/sequential/bidirectional/backward_lstm/PartitionedCall/while/body/_187/while/add_2", "^StatefulPartitionedCall/crnn/sequential/bidirectional/backward_lstm/PartitionedCall/while/loop_body_control/_222"], "attr": {"T": {"type": "DT_INT32"}}}, {"name": "StatefulPartitionedCall/crnn/sequential/bidirectional/backward_lstm/PartitionedCall/while/next_iteration/_235", "op": "NextIteration", "input": ["StatefulPartitionedCall/crnn/sequential/bidirectional/backward_lstm/PartitionedCall/while/body/_187/while/add_3", "^StatefulPartitionedCall/crnn/sequential/bidirectional/backward_lstm/PartitionedCall/while/loop_body_control/_222"], "attr": {"T": {"type": "DT_INT32"}}}, {"name": "StatefulPartitionedCall/crnn/sequential/bidirectional/ReverseV2", "op": "ReverseV2", "input": ["StatefulPartitionedCall/crnn/sequential/bidirectional/backward_lstm/PartitionedCall/transpose_1", "StatefulPartitionedCall/crnn/sequential/bidirectional/ReverseV2/axis"], "attr": {"Tidx": {"type": "DT_INT32"}, "T": {"type": "DT_FLOAT"}}}, {"name": "StatefulPartitionedCall/crnn/sequential/bidirectional/forward_lstm/PartitionedCall/while/body/_127/while/add", "op": "AddV2", "input": ["StatefulPartitionedCall/crnn/sequential/bidirectional/forward_lstm/PartitionedCall/while/body/_127/while/MatMul", "StatefulPartitionedCall/crnn/sequential/bidirectional/forward_lstm/PartitionedCall/while/body/_127/while/MatMul_1"], "attr": {"T": {"type": "DT_FLOAT"}}}, {"name": "StatefulPartitionedCall/crnn/sequential/bidirectional/backward_lstm/PartitionedCall/while/body/_187/while/add", "op": "AddV2", "input": ["StatefulPartitionedCall/crnn/sequential/bidirectional/backward_lstm/PartitionedCall/while/body/_187/while/MatMul", "StatefulPartitionedCall/crnn/sequential/bidirectional/backward_lstm/PartitionedCall/while/body/_187/while/MatMul_1"], "attr": {"T": {"type": "DT_FLOAT"}}}, {"name": "StatefulPartitionedCall/crnn/sequential/bidirectional/concat", "op": "ConcatV2", "input": ["StatefulPartitionedCall/crnn/sequential/bidirectional/forward_lstm/PartitionedCall/transpose_1", "StatefulPartitionedCall/crnn/sequential/bidirectional/ReverseV2", "StatefulPartitionedCall/crnn/sequential/bidirectional/concat/axis"], "attr": {"Tidx": {"type": "DT_INT32"}, "T": {"type": "DT_FLOAT"}, "N": {"i": "2"}}}, {"name": "StatefulPartitionedCall/crnn/sequential/bidirectional/forward_lstm/PartitionedCall/while/body/_127/while/BiasAdd", "op": "BiasAdd", "input": ["StatefulPartitionedCall/crnn/sequential/bidirectional/forward_lstm/PartitionedCall/while/body/_127/while/add", "StatefulPartitionedCall/crnn/sequential/bidirectional/forward_lstm/PartitionedCall/while/Func/StatefulPartitionedCall/crnn/sequential/bidirectional/forward_lstm/PartitionedCall/input/_87_switch/_161:1"], "attr": {"T": {"type": "DT_FLOAT"}, "data_format": {"s": "TkhXQw=="}}}, {"name": "StatefulPartitionedCall/crnn/sequential/bidirectional/backward_lstm/PartitionedCall/while/body/_187/while/BiasAdd", "op": "BiasAdd", "input": ["StatefulPartitionedCall/crnn/sequential/bidirectional/backward_lstm/PartitionedCall/while/body/_187/while/add", "StatefulPartitionedCall/crnn/sequential/bidirectional/backward_lstm/PartitionedCall/while/Func/StatefulPartitionedCall/crnn/sequential/bidirectional/backward_lstm/PartitionedCall/input/_98_switch/_221:1"], "attr": {"data_format": {"s": "TkhXQw=="}, "T": {"type": "DT_FLOAT"}}}, {"name": "StatefulPartitionedCall/crnn/sequential/bidirectional_1/forward_lstm_1/Shape", "op": "Shape", "input": ["StatefulPartitionedCall/crnn/sequential/bidirectional/concat"], "attr": {"out_type": {"type": "DT_INT32"}, "T": {"type": "DT_FLOAT"}}}, {"name": "StatefulPartitionedCall/crnn/sequential/bidirectional_1/forward_lstm_1/PartitionedCall/transpose", "op": "Transpose", "input": ["StatefulPartitionedCall/crnn/sequential/bidirectional/concat", "StatefulPartitionedCall/crnn/sequential/bidirectional_1/forward_lstm_1/PartitionedCall/transpose/perm"], "attr": {"T": {"type": "DT_FLOAT"}, "Tperm": {"type": "DT_INT32"}}}, {"name": "StatefulPartitionedCall/crnn/sequential/bidirectional_1/backward_lstm_1/Shape", "op": "Shape", "input": ["StatefulPartitionedCall/crnn/sequential/bidirectional/concat"], "attr": {"T": {"type": "DT_FLOAT"}, "out_type": {"type": "DT_INT32"}}}, {"name": "StatefulPartitionedCall/crnn/sequential/bidirectional_1/backward_lstm_1/PartitionedCall/transpose", "op": "Transpose", "input": ["StatefulPartitionedCall/crnn/sequential/bidirectional/concat", "StatefulPartitionedCall/crnn/sequential/bidirectional_1/backward_lstm_1/PartitionedCall/transpose/perm"], "attr": {"T": {"type": "DT_FLOAT"}, "Tperm": {"type": "DT_INT32"}}}, {"name": "StatefulPartitionedCall/crnn/sequential/bidirectional/forward_lstm/PartitionedCall/while/body/_127/while/split", "op": "Split", "input": ["StatefulPartitionedCall/crnn/sequential/bidirectional/forward_lstm/PartitionedCall/while/body/_127/while/split/split_dim", "StatefulPartitionedCall/crnn/sequential/bidirectional/forward_lstm/PartitionedCall/while/body/_127/while/BiasAdd"], "attr": {"T": {"type": "DT_FLOAT"}, "num_split": {"i": "4"}}}, {"name": "StatefulPartitionedCall/crnn/sequential/bidirectional/backward_lstm/PartitionedCall/while/body/_187/while/split", "op": "Split", "input": ["StatefulPartitionedCall/crnn/sequential/bidirectional/backward_lstm/PartitionedCall/while/body/_187/while/split/split_dim", "StatefulPartitionedCall/crnn/sequential/bidirectional/backward_lstm/PartitionedCall/while/body/_187/while/BiasAdd"], "attr": {"num_split": {"i": "4"}, "T": {"type": "DT_FLOAT"}}}, {"name": "StatefulPartitionedCall/crnn/sequential/bidirectional_1/forward_lstm_1/strided_slice", "op": "StridedSlice", "input": ["StatefulPartitionedCall/crnn/sequential/bidirectional_1/forward_lstm_1/Shape", "StatefulPartitionedCall/crnn/sequential/bidirectional_1/forward_lstm_1/strided_slice/stack", "StatefulPartitionedCall/crnn/sequential/bidirectional_1/forward_lstm_1/strided_slice/stack_1", "StatefulPartitionedCall/crnn/sequential/bidirectional_1/forward_lstm_1/strided_slice/stack_2"], "attr": {"begin_mask": {"i": "0"}, "new_axis_mask": {"i": "0"}, "end_mask": {"i": "0"}, "ellipsis_mask": {"i": "0"}, "shrink_axis_mask": {"i": "1"}, "Index": {"type": "DT_INT32"}, "T": {"type": "DT_INT32"}}}, {"name": "StatefulPartitionedCall/crnn/sequential/bidirectional_1/forward_lstm_1/PartitionedCall/TensorArrayUnstack/TensorListFromTensor", "op": "TensorListFromTensor", "input": ["StatefulPartitionedCall/crnn/sequential/bidirectional_1/forward_lstm_1/PartitionedCall/transpose", "StatefulPartitionedCall/crnn/sequential/bidirectional_1/forward_lstm_1/PartitionedCall/TensorArrayUnstack/TensorListFromTensor/element_shape"], "attr": {"element_dtype": {"type": "DT_FLOAT"}, "shape_type": {"type": "DT_INT32"}}}, {"name": "StatefulPartitionedCall/crnn/sequential/bidirectional_1/forward_lstm_1/PartitionedCall/Shape", "op": "Shape", "input": ["StatefulPartitionedCall/crnn/sequential/bidirectional_1/forward_lstm_1/PartitionedCall/transpose"], "attr": {"out_type": {"type": "DT_INT32"}, "T": {"type": "DT_FLOAT"}}}, {"name": "StatefulPartitionedCall/crnn/sequential/bidirectional_1/backward_lstm_1/strided_slice", "op": "StridedSlice", "input": ["StatefulPartitionedCall/crnn/sequential/bidirectional_1/backward_lstm_1/Shape", "StatefulPartitionedCall/crnn/sequential/bidirectional_1/backward_lstm_1/strided_slice/stack", "StatefulPartitionedCall/crnn/sequential/bidirectional_1/backward_lstm_1/strided_slice/stack_1", "StatefulPartitionedCall/crnn/sequential/bidirectional_1/backward_lstm_1/strided_slice/stack_2"], "attr": {"shrink_axis_mask": {"i": "1"}, "Index": {"type": "DT_INT32"}, "ellipsis_mask": {"i": "0"}, "new_axis_mask": {"i": "0"}, "begin_mask": {"i": "0"}, "end_mask": {"i": "0"}, "T": {"type": "DT_INT32"}}}, {"name": "StatefulPartitionedCall/crnn/sequential/bidirectional_1/backward_lstm_1/PartitionedCall/ReverseV2", "op": "ReverseV2", "input": ["StatefulPartitionedCall/crnn/sequential/bidirectional_1/backward_lstm_1/PartitionedCall/transpose", "StatefulPartitionedCall/crnn/sequential/bidirectional_1/backward_lstm_1/PartitionedCall/ReverseV2/axis"], "attr": {"T": {"type": "DT_FLOAT"}, "Tidx": {"type": "DT_INT32"}}}, {"name": "StatefulPartitionedCall/crnn/sequential/bidirectional_1/backward_lstm_1/PartitionedCall/Shape", "op": "Shape", "input": ["StatefulPartitionedCall/crnn/sequential/bidirectional_1/backward_lstm_1/PartitionedCall/transpose"], "attr": {"T": {"type": "DT_FLOAT"}, "out_type": {"type": "DT_INT32"}}}, {"name": "StatefulPartitionedCall/crnn/sequential/bidirectional/forward_lstm/PartitionedCall/while/body/_127/while/Sigmoid", "op": "Sigmoid", "input": ["StatefulPartitionedCall/crnn/sequential/bidirectional/forward_lstm/PartitionedCall/while/body/_127/while/split"], "attr": {"T": {"type": "DT_FLOAT"}}}, {"name": "StatefulPartitionedCall/crnn/sequential/bidirectional/forward_lstm/PartitionedCall/while/body/_127/while/Sigmoid_1", "op": "Sigmoid", "input": ["StatefulPartitionedCall/crnn/sequential/bidirectional/forward_lstm/PartitionedCall/while/body/_127/while/split:1"], "attr": {"T": {"type": "DT_FLOAT"}}}, {"name": "StatefulPartitionedCall/crnn/sequential/bidirectional/forward_lstm/PartitionedCall/while/body/_127/while/Tanh", "op": "Tanh", "input": ["StatefulPartitionedCall/crnn/sequential/bidirectional/forward_lstm/PartitionedCall/while/body/_127/while/split:2"], "attr": {"T": {"type": "DT_FLOAT"}}}, {"name": "StatefulPartitionedCall/crnn/sequential/bidirectional/forward_lstm/PartitionedCall/while/body/_127/while/Sigmoid_2", "op": "Sigmoid", "input": ["StatefulPartitionedCall/crnn/sequential/bidirectional/forward_lstm/PartitionedCall/while/body/_127/while/split:3"], "attr": {"T": {"type": "DT_FLOAT"}}}, {"name": "StatefulPartitionedCall/crnn/sequential/bidirectional/backward_lstm/PartitionedCall/while/body/_187/while/Sigmoid", "op": "Sigmoid", "input": ["StatefulPartitionedCall/crnn/sequential/bidirectional/backward_lstm/PartitionedCall/while/body/_187/while/split"], "attr": {"T": {"type": "DT_FLOAT"}}}, {"name": "StatefulPartitionedCall/crnn/sequential/bidirectional/backward_lstm/PartitionedCall/while/body/_187/while/Sigmoid_1", "op": "Sigmoid", "input": ["StatefulPartitionedCall/crnn/sequential/bidirectional/backward_lstm/PartitionedCall/while/body/_187/while/split:1"], "attr": {"T": {"type": "DT_FLOAT"}}}, {"name": "StatefulPartitionedCall/crnn/sequential/bidirectional/backward_lstm/PartitionedCall/while/body/_187/while/Tanh", "op": "Tanh", "input": ["StatefulPartitionedCall/crnn/sequential/bidirectional/backward_lstm/PartitionedCall/while/body/_187/while/split:2"], "attr": {"T": {"type": "DT_FLOAT"}}}, {"name": "StatefulPartitionedCall/crnn/sequential/bidirectional/backward_lstm/PartitionedCall/while/body/_187/while/Sigmoid_2", "op": "Sigmoid", "input": ["StatefulPartitionedCall/crnn/sequential/bidirectional/backward_lstm/PartitionedCall/while/body/_187/while/split:3"], "attr": {"T": {"type": "DT_FLOAT"}}}, {"name": "StatefulPartitionedCall/crnn/sequential/bidirectional_1/forward_lstm_1/zeros_1/packed", "op": "Pack", "input": ["StatefulPartitionedCall/crnn/sequential/bidirectional_1/forward_lstm_1/strided_slice", "StatefulPartitionedCall/crnn/sequential/bidirectional_1/forward_lstm_1/zeros_1/packed/1"], "attr": {"axis": {"i": "0"}, "N": {"i": "2"}, "T": {"type": "DT_INT32"}}}, {"name": "StatefulPartitionedCall/crnn/sequential/bidirectional_1/forward_lstm_1/zeros/packed", "op": "Pack", "input": ["StatefulPartitionedCall/crnn/sequential/bidirectional_1/forward_lstm_1/strided_slice", "StatefulPartitionedCall/crnn/sequential/bidirectional_1/forward_lstm_1/zeros/packed/1"], "attr": {"axis": {"i": "0"}, "T": {"type": "DT_INT32"}, "N": {"i": "2"}}}, {"name": "StatefulPartitionedCall/crnn/sequential/bidirectional_1/forward_lstm_1/PartitionedCall/while/enter/_255", "op": "Enter", "input": ["StatefulPartitionedCall/crnn/sequential/bidirectional_1/forward_lstm_1/PartitionedCall/TensorArrayUnstack/TensorListFromTensor"], "attr": {"is_constant": {"b": false}, "frame_name": {"s": "U3RhdGVmdWxQYXJ0aXRpb25lZENhbGwvY3Jubi9zZXF1ZW50aWFsL2JpZGlyZWN0aW9uYWxfMS9mb3J3YXJkX2xzdG1fMS9QYXJ0aXRpb25lZENhbGwvd2hpbGU="}, "T": {"type": "DT_VARIANT"}, "parallel_iterations": {"i": "32"}}}, {"name": "StatefulPartitionedCall/crnn/sequential/bidirectional_1/forward_lstm_1/PartitionedCall/strided_slice", "op": "StridedSlice", "input": ["StatefulPartitionedCall/crnn/sequential/bidirectional_1/forward_lstm_1/PartitionedCall/Shape", "StatefulPartitionedCall/crnn/sequential/bidirectional_1/forward_lstm_1/PartitionedCall/strided_slice/stack", "StatefulPartitionedCall/crnn/sequential/bidirectional_1/forward_lstm_1/PartitionedCall/strided_slice/stack_1", "StatefulPartitionedCall/crnn/sequential/bidirectional_1/forward_lstm_1/PartitionedCall/strided_slice/stack_2"], "attr": {"Index": {"type": "DT_INT32"}, "end_mask": {"i": "0"}, "shrink_axis_mask": {"i": "1"}, "new_axis_mask": {"i": "0"}, "begin_mask": {"i": "0"}, "ellipsis_mask": {"i": "0"}, "T": {"type": "DT_INT32"}}}, {"name": "StatefulPartitionedCall/crnn/sequential/bidirectional_1/backward_lstm_1/zeros_1/packed", "op": "Pack", "input": ["StatefulPartitionedCall/crnn/sequential/bidirectional_1/backward_lstm_1/strided_slice", "StatefulPartitionedCall/crnn/sequential/bidirectional_1/backward_lstm_1/zeros_1/packed/1"], "attr": {"T": {"type": "DT_INT32"}, "axis": {"i": "0"}, "N": {"i": "2"}}}, {"name": "StatefulPartitionedCall/crnn/sequential/bidirectional_1/backward_lstm_1/zeros/packed", "op": "Pack", "input": ["StatefulPartitionedCall/crnn/sequential/bidirectional_1/backward_lstm_1/strided_slice", "StatefulPartitionedCall/crnn/sequential/bidirectional_1/backward_lstm_1/zeros/packed/1"], "attr": {"T": {"type": "DT_INT32"}, "N": {"i": "2"}, "axis": {"i": "0"}}}, {"name": "StatefulPartitionedCall/crnn/sequential/bidirectional_1/backward_lstm_1/PartitionedCall/TensorArrayUnstack/TensorListFromTensor", "op": "TensorListFromTensor", "input": ["StatefulPartitionedCall/crnn/sequential/bidirectional_1/backward_lstm_1/PartitionedCall/ReverseV2", "StatefulPartitionedCall/crnn/sequential/bidirectional_1/backward_lstm_1/PartitionedCall/TensorArrayUnstack/TensorListFromTensor/element_shape"], "attr": {"shape_type": {"type": "DT_INT32"}, "element_dtype": {"type": "DT_FLOAT"}}}, {"name": "StatefulPartitionedCall/crnn/sequential/bidirectional_1/backward_lstm_1/PartitionedCall/strided_slice", "op": "StridedSlice", "input": ["StatefulPartitionedCall/crnn/sequential/bidirectional_1/backward_lstm_1/PartitionedCall/Shape", "StatefulPartitionedCall/crnn/sequential/bidirectional_1/backward_lstm_1/PartitionedCall/strided_slice/stack", "StatefulPartitionedCall/crnn/sequential/bidirectional_1/backward_lstm_1/PartitionedCall/strided_slice/stack_1", "StatefulPartitionedCall/crnn/sequential/bidirectional_1/backward_lstm_1/PartitionedCall/strided_slice/stack_2"], "attr": {"Index": {"type": "DT_INT32"}, "begin_mask": {"i": "0"}, "T": {"type": "DT_INT32"}, "new_axis_mask": {"i": "0"}, "ellipsis_mask": {"i": "0"}, "shrink_axis_mask": {"i": "1"}, "end_mask": {"i": "0"}}}, {"name": "StatefulPartitionedCall/crnn/sequential/bidirectional/forward_lstm/PartitionedCall/while/body/_127/while/mul", "op": "Mul", "input": ["StatefulPartitionedCall/crnn/sequential/bidirectional/forward_lstm/PartitionedCall/while/body/_127/while/Sigmoid_1", "StatefulPartitionedCall/crnn/sequential/bidirectional/forward_lstm/PartitionedCall/while/Func/StatefulPartitionedCall/crnn/sequential/bidirectional/forward_lstm/PartitionedCall/input/_84_switch/_156:1"], "attr": {"T": {"type": "DT_FLOAT"}}}, {"name": "StatefulPartitionedCall/crnn/sequential/bidirectional/forward_lstm/PartitionedCall/while/body/_127/while/mul_1", "op": "Mul", "input": ["StatefulPartitionedCall/crnn/sequential/bidirectional/forward_lstm/PartitionedCall/while/body/_127/while/Sigmoid", "StatefulPartitionedCall/crnn/sequential/bidirectional/forward_lstm/PartitionedCall/while/body/_127/while/Tanh"], "attr": {"T": {"type": "DT_FLOAT"}}}, {"name": "StatefulPartitionedCall/crnn/sequential/bidirectional/backward_lstm/PartitionedCall/while/body/_187/while/mul", "op": "Mul", "input": ["StatefulPartitionedCall/crnn/sequential/bidirectional/backward_lstm/PartitionedCall/while/body/_187/while/Sigmoid_1", "StatefulPartitionedCall/crnn/sequential/bidirectional/backward_lstm/PartitionedCall/while/Func/StatefulPartitionedCall/crnn/sequential/bidirectional/backward_lstm/PartitionedCall/input/_95_switch/_216:1"], "attr": {"T": {"type": "DT_FLOAT"}}}, {"name": "StatefulPartitionedCall/crnn/sequential/bidirectional/backward_lstm/PartitionedCall/while/body/_187/while/mul_1", "op": "Mul", "input": ["StatefulPartitionedCall/crnn/sequential/bidirectional/backward_lstm/PartitionedCall/while/body/_187/while/Sigmoid", "StatefulPartitionedCall/crnn/sequential/bidirectional/backward_lstm/PartitionedCall/while/body/_187/while/Tanh"], "attr": {"T": {"type": "DT_FLOAT"}}}, {"name": "StatefulPartitionedCall/crnn/sequential/bidirectional_1/forward_lstm_1/zeros_1", "op": "Fill", "input": ["StatefulPartitionedCall/crnn/sequential/bidirectional_1/forward_lstm_1/zeros_1/packed", "StatefulPartitionedCall/crnn/sequential/bidirectional_1/forward_lstm_1/zeros_1/Const"], "attr": {"index_type": {"type": "DT_INT32"}, "T": {"type": "DT_FLOAT"}}}, {"name": "StatefulPartitionedCall/crnn/sequential/bidirectional_1/forward_lstm_1/zeros", "op": "Fill", "input": ["StatefulPartitionedCall/crnn/sequential/bidirectional_1/forward_lstm_1/zeros/packed", "StatefulPartitionedCall/crnn/sequential/bidirectional_1/forward_lstm_1/zeros/Const"], "attr": {"T": {"type": "DT_FLOAT"}, "index_type": {"type": "DT_INT32"}}}, {"name": "StatefulPartitionedCall/crnn/sequential/bidirectional_1/forward_lstm_1/PartitionedCall/while/merge/_266", "op": "Merge", "input": ["StatefulPartitionedCall/crnn/sequential/bidirectional_1/forward_lstm_1/PartitionedCall/while/enter/_255", "StatefulPartitionedCall/crnn/sequential/bidirectional_1/forward_lstm_1/PartitionedCall/while/next_iteration/_302"], "attr": {"T": {"type": "DT_VARIANT"}, "N": {"i": "2"}}}, {"name": "StatefulPartitionedCall/crnn/sequential/bidirectional_1/forward_lstm_1/PartitionedCall/TensorArrayV2_1", "op": "TensorListReserve", "input": ["StatefulPartitionedCall/crnn/sequential/bidirectional_1/forward_lstm_1/PartitionedCall/TensorArrayV2_1/element_shape", "StatefulPartitionedCall/crnn/sequential/bidirectional_1/forward_lstm_1/PartitionedCall/strided_slice"], "attr": {"shape_type": {"type": "DT_INT32"}, "element_dtype": {"type": "DT_FLOAT"}}}, {"name": "StatefulPartitionedCall/crnn/sequential/bidirectional_1/forward_lstm_1/PartitionedCall/while/enter/_254", "op": "Enter", "input": ["StatefulPartitionedCall/crnn/sequential/bidirectional_1/forward_lstm_1/PartitionedCall/strided_slice"], "attr": {"is_constant": {"b": false}, "T": {"type": "DT_INT32"}, "parallel_iterations": {"i": "32"}, "frame_name": {"s": "U3RhdGVmdWxQYXJ0aXRpb25lZENhbGwvY3Jubi9zZXF1ZW50aWFsL2JpZGlyZWN0aW9uYWxfMS9mb3J3YXJkX2xzdG1fMS9QYXJ0aXRpb25lZENhbGwvd2hpbGU="}}}, {"name": "StatefulPartitionedCall/crnn/sequential/bidirectional_1/backward_lstm_1/zeros_1", "op": "Fill", "input": ["StatefulPartitionedCall/crnn/sequential/bidirectional_1/backward_lstm_1/zeros_1/packed", "StatefulPartitionedCall/crnn/sequential/bidirectional_1/backward_lstm_1/zeros_1/Const"], "attr": {"T": {"type": "DT_FLOAT"}, "index_type": {"type": "DT_INT32"}}}, {"name": "StatefulPartitionedCall/crnn/sequential/bidirectional_1/backward_lstm_1/zeros", "op": "Fill", "input": ["StatefulPartitionedCall/crnn/sequential/bidirectional_1/backward_lstm_1/zeros/packed", "StatefulPartitionedCall/crnn/sequential/bidirectional_1/backward_lstm_1/zeros/Const"], "attr": {"T": {"type": "DT_FLOAT"}, "index_type": {"type": "DT_INT32"}}}, {"name": "StatefulPartitionedCall/crnn/sequential/bidirectional_1/backward_lstm_1/PartitionedCall/while/enter/_315", "op": "Enter", "input": ["StatefulPartitionedCall/crnn/sequential/bidirectional_1/backward_lstm_1/PartitionedCall/TensorArrayUnstack/TensorListFromTensor"], "attr": {"parallel_iterations": {"i": "32"}, "frame_name": {"s": "U3RhdGVmdWxQYXJ0aXRpb25lZENhbGwvY3Jubi9zZXF1ZW50aWFsL2JpZGlyZWN0aW9uYWxfMS9iYWNrd2FyZF9sc3RtXzEvUGFydGl0aW9uZWRDYWxsL3doaWxl"}, "is_constant": {"b": false}, "T": {"type": "DT_VARIANT"}}}, {"name": "StatefulPartitionedCall/crnn/sequential/bidirectional_1/backward_lstm_1/PartitionedCall/TensorArrayV2_1", "op": "TensorListReserve", "input": ["StatefulPartitionedCall/crnn/sequential/bidirectional_1/backward_lstm_1/PartitionedCall/TensorArrayV2_1/element_shape", "StatefulPartitionedCall/crnn/sequential/bidirectional_1/backward_lstm_1/PartitionedCall/strided_slice"], "attr": {"element_dtype": {"type": "DT_FLOAT"}, "shape_type": {"type": "DT_INT32"}}}, {"name": "StatefulPartitionedCall/crnn/sequential/bidirectional_1/backward_lstm_1/PartitionedCall/while/enter/_314", "op": "Enter", "input": ["StatefulPartitionedCall/crnn/sequential/bidirectional_1/backward_lstm_1/PartitionedCall/strided_slice"], "attr": {"is_constant": {"b": false}, "T": {"type": "DT_INT32"}, "frame_name": {"s": "U3RhdGVmdWxQYXJ0aXRpb25lZENhbGwvY3Jubi9zZXF1ZW50aWFsL2JpZGlyZWN0aW9uYWxfMS9iYWNrd2FyZF9sc3RtXzEvUGFydGl0aW9uZWRDYWxsL3doaWxl"}, "parallel_iterations": {"i": "32"}}}, {"name": "StatefulPartitionedCall/crnn/sequential/bidirectional/forward_lstm/PartitionedCall/while/body/_127/while/add_1", "op": "AddV2", "input": ["StatefulPartitionedCall/crnn/sequential/bidirectional/forward_lstm/PartitionedCall/while/body/_127/while/mul", "StatefulPartitionedCall/crnn/sequential/bidirectional/forward_lstm/PartitionedCall/while/body/_127/while/mul_1"], "attr": {"T": {"type": "DT_FLOAT"}}}, {"name": "StatefulPartitionedCall/crnn/sequential/bidirectional/backward_lstm/PartitionedCall/while/body/_187/while/add_1", "op": "AddV2", "input": ["StatefulPartitionedCall/crnn/sequential/bidirectional/backward_lstm/PartitionedCall/while/body/_187/while/mul", "StatefulPartitionedCall/crnn/sequential/bidirectional/backward_lstm/PartitionedCall/while/body/_187/while/mul_1"], "attr": {"T": {"type": "DT_FLOAT"}}}, {"name": "StatefulPartitionedCall/crnn/sequential/bidirectional_1/forward_lstm_1/PartitionedCall/while/enter/_253", "op": "Enter", "input": ["StatefulPartitionedCall/crnn/sequential/bidirectional_1/forward_lstm_1/zeros_1"], "attr": {"is_constant": {"b": false}, "parallel_iterations": {"i": "32"}, "frame_name": {"s": "U3RhdGVmdWxQYXJ0aXRpb25lZENhbGwvY3Jubi9zZXF1ZW50aWFsL2JpZGlyZWN0aW9uYWxfMS9mb3J3YXJkX2xzdG1fMS9QYXJ0aXRpb25lZENhbGwvd2hpbGU="}, "T": {"type": "DT_FLOAT"}}}, {"name": "StatefulPartitionedCall/crnn/sequential/bidirectional_1/forward_lstm_1/PartitionedCall/while/enter/_252", "op": "Enter", "input": ["StatefulPartitionedCall/crnn/sequential/bidirectional_1/forward_lstm_1/zeros"], "attr": {"frame_name": {"s": "U3RhdGVmdWxQYXJ0aXRpb25lZENhbGwvY3Jubi9zZXF1ZW50aWFsL2JpZGlyZWN0aW9uYWxfMS9mb3J3YXJkX2xzdG1fMS9QYXJ0aXRpb25lZENhbGwvd2hpbGU="}, "is_constant": {"b": false}, "T": {"type": "DT_FLOAT"}, "parallel_iterations": {"i": "32"}}}, {"name": "StatefulPartitionedCall/crnn/sequential/bidirectional_1/forward_lstm_1/PartitionedCall/while/enter/_251", "op": "Enter", "input": ["StatefulPartitionedCall/crnn/sequential/bidirectional_1/forward_lstm_1/PartitionedCall/TensorArrayV2_1"], "attr": {"parallel_iterations": {"i": "32"}, "T": {"type": "DT_VARIANT"}, "frame_name": {"s": "U3RhdGVmdWxQYXJ0aXRpb25lZENhbGwvY3Jubi9zZXF1ZW50aWFsL2JpZGlyZWN0aW9uYWxfMS9mb3J3YXJkX2xzdG1fMS9QYXJ0aXRpb25lZENhbGwvd2hpbGU="}, "is_constant": {"b": false}}}, {"name": "StatefulPartitionedCall/crnn/sequential/bidirectional_1/forward_lstm_1/PartitionedCall/while/merge/_265", "op": "Merge", "input": ["StatefulPartitionedCall/crnn/sequential/bidirectional_1/forward_lstm_1/PartitionedCall/while/enter/_254", "StatefulPartitionedCall/crnn/sequential/bidirectional_1/forward_lstm_1/PartitionedCall/while/next_iteration/_301"], "attr": {"N": {"i": "2"}, "T": {"type": "DT_INT32"}}}, {"name": "StatefulPartitionedCall/crnn/sequential/bidirectional_1/backward_lstm_1/PartitionedCall/while/enter/_313", "op": "Enter", "input": ["StatefulPartitionedCall/crnn/sequential/bidirectional_1/backward_lstm_1/zeros_1"], "attr": {"frame_name": {"s": "U3RhdGVmdWxQYXJ0aXRpb25lZENhbGwvY3Jubi9zZXF1ZW50aWFsL2JpZGlyZWN0aW9uYWxfMS9iYWNrd2FyZF9sc3RtXzEvUGFydGl0aW9uZWRDYWxsL3doaWxl"}, "is_constant": {"b": false}, "T": {"type": "DT_FLOAT"}, "parallel_iterations": {"i": "32"}}}, {"name": "StatefulPartitionedCall/crnn/sequential/bidirectional_1/backward_lstm_1/PartitionedCall/while/enter/_312", "op": "Enter", "input": ["StatefulPartitionedCall/crnn/sequential/bidirectional_1/backward_lstm_1/zeros"], "attr": {"T": {"type": "DT_FLOAT"}, "is_constant": {"b": false}, "frame_name": {"s": "U3RhdGVmdWxQYXJ0aXRpb25lZENhbGwvY3Jubi9zZXF1ZW50aWFsL2JpZGlyZWN0aW9uYWxfMS9iYWNrd2FyZF9sc3RtXzEvUGFydGl0aW9uZWRDYWxsL3doaWxl"}, "parallel_iterations": {"i": "32"}}}, {"name": "StatefulPartitionedCall/crnn/sequential/bidirectional_1/backward_lstm_1/PartitionedCall/while/merge/_326", "op": "Merge", "input": ["StatefulPartitionedCall/crnn/sequential/bidirectional_1/backward_lstm_1/PartitionedCall/while/enter/_315", "StatefulPartitionedCall/crnn/sequential/bidirectional_1/backward_lstm_1/PartitionedCall/while/next_iteration/_362"], "attr": {"N": {"i": "2"}, "T": {"type": "DT_VARIANT"}}}, {"name": "StatefulPartitionedCall/crnn/sequential/bidirectional_1/backward_lstm_1/PartitionedCall/while/enter/_311", "op": "Enter", "input": ["StatefulPartitionedCall/crnn/sequential/bidirectional_1/backward_lstm_1/PartitionedCall/TensorArrayV2_1"], "attr": {"frame_name": {"s": "U3RhdGVmdWxQYXJ0aXRpb25lZENhbGwvY3Jubi9zZXF1ZW50aWFsL2JpZGlyZWN0aW9uYWxfMS9iYWNrd2FyZF9sc3RtXzEvUGFydGl0aW9uZWRDYWxsL3doaWxl"}, "parallel_iterations": {"i": "32"}, "T": {"type": "DT_VARIANT"}, "is_constant": {"b": false}}}, {"name": "StatefulPartitionedCall/crnn/sequential/bidirectional_1/backward_lstm_1/PartitionedCall/while/merge/_325", "op": "Merge", "input": ["StatefulPartitionedCall/crnn/sequential/bidirectional_1/backward_lstm_1/PartitionedCall/while/enter/_314", "StatefulPartitionedCall/crnn/sequential/bidirectional_1/backward_lstm_1/PartitionedCall/while/next_iteration/_361"], "attr": {"T": {"type": "DT_INT32"}, "N": {"i": "2"}}}, {"name": "StatefulPartitionedCall/crnn/sequential/bidirectional/forward_lstm/PartitionedCall/while/body/_127/while/Tanh_1", "op": "Tanh", "input": ["StatefulPartitionedCall/crnn/sequential/bidirectional/forward_lstm/PartitionedCall/while/body/_127/while/add_1"], "attr": {"T": {"type": "DT_FLOAT"}}}, {"name": "StatefulPartitionedCall/crnn/sequential/bidirectional/forward_lstm/PartitionedCall/while/next_iteration/_180", "op": "NextIteration", "input": ["StatefulPartitionedCall/crnn/sequential/bidirectional/forward_lstm/PartitionedCall/while/body/_127/while/add_1", "^StatefulPartitionedCall/crnn/sequential/bidirectional/forward_lstm/PartitionedCall/while/loop_body_control/_162"], "attr": {"T": {"type": "DT_FLOAT"}}}, {"name": "StatefulPartitionedCall/crnn/sequential/bidirectional/backward_lstm/PartitionedCall/while/body/_187/while/Tanh_1", "op": "Tanh", "input": ["StatefulPartitionedCall/crnn/sequential/bidirectional/backward_lstm/PartitionedCall/while/body/_187/while/add_1"], "attr": {"T": {"type": "DT_FLOAT"}}}, {"name": "StatefulPartitionedCall/crnn/sequential/bidirectional/backward_lstm/PartitionedCall/while/next_iteration/_240", "op": "NextIteration", "input": ["StatefulPartitionedCall/crnn/sequential/bidirectional/backward_lstm/PartitionedCall/while/body/_187/while/add_1", "^StatefulPartitionedCall/crnn/sequential/bidirectional/backward_lstm/PartitionedCall/while/loop_body_control/_222"], "attr": {"T": {"type": "DT_FLOAT"}}}, {"name": "StatefulPartitionedCall/crnn/sequential/bidirectional_1/forward_lstm_1/PartitionedCall/while/merge/_264", "op": "Merge", "input": ["StatefulPartitionedCall/crnn/sequential/bidirectional_1/forward_lstm_1/PartitionedCall/while/enter/_253", "StatefulPartitionedCall/crnn/sequential/bidirectional_1/forward_lstm_1/PartitionedCall/while/next_iteration/_300"], "attr": {"T": {"type": "DT_FLOAT"}, "N": {"i": "2"}}}, {"name": "StatefulPartitionedCall/crnn/sequential/bidirectional_1/forward_lstm_1/PartitionedCall/while/merge/_263", "op": "Merge", "input": ["StatefulPartitionedCall/crnn/sequential/bidirectional_1/forward_lstm_1/PartitionedCall/while/enter/_252", "StatefulPartitionedCall/crnn/sequential/bidirectional_1/forward_lstm_1/PartitionedCall/while/next_iteration/_299"], "attr": {"T": {"type": "DT_FLOAT"}, "N": {"i": "2"}}}, {"name": "StatefulPartitionedCall/crnn/sequential/bidirectional_1/forward_lstm_1/PartitionedCall/while/merge/_262", "op": "Merge", "input": ["StatefulPartitionedCall/crnn/sequential/bidirectional_1/forward_lstm_1/PartitionedCall/while/enter/_251", "StatefulPartitionedCall/crnn/sequential/bidirectional_1/forward_lstm_1/PartitionedCall/while/next_iteration/_298"], "attr": {"N": {"i": "2"}, "T": {"type": "DT_VARIANT"}}}, {"name": "StatefulPartitionedCall/crnn/sequential/bidirectional_1/forward_lstm_1/PartitionedCall/while/cond/_246/while/Less", "op": "Less", "input": ["StatefulPartitionedCall/crnn/sequential/bidirectional_1/forward_lstm_1/PartitionedCall/while/merge/_261", "StatefulPartitionedCall/crnn/sequential/bidirectional_1/forward_lstm_1/PartitionedCall/while/merge/_265", "^StatefulPartitionedCall/crnn/sequential/bidirectional_1/forward_lstm_1/PartitionedCall/while/merge/_259"], "attr": {"T": {"type": "DT_INT32"}}}, {"name": "StatefulPartitionedCall/crnn/sequential/bidirectional_1/backward_lstm_1/PartitionedCall/while/merge/_324", "op": "Merge", "input": ["StatefulPartitionedCall/crnn/sequential/bidirectional_1/backward_lstm_1/PartitionedCall/while/enter/_313", "StatefulPartitionedCall/crnn/sequential/bidirectional_1/backward_lstm_1/PartitionedCall/while/next_iteration/_360"], "attr": {"T": {"type": "DT_FLOAT"}, "N": {"i": "2"}}}, {"name": "StatefulPartitionedCall/crnn/sequential/bidirectional_1/backward_lstm_1/PartitionedCall/while/merge/_323", "op": "Merge", "input": ["StatefulPartitionedCall/crnn/sequential/bidirectional_1/backward_lstm_1/PartitionedCall/while/enter/_312", "StatefulPartitionedCall/crnn/sequential/bidirectional_1/backward_lstm_1/PartitionedCall/while/next_iteration/_359"], "attr": {"T": {"type": "DT_FLOAT"}, "N": {"i": "2"}}}, {"name": "StatefulPartitionedCall/crnn/sequential/bidirectional_1/backward_lstm_1/PartitionedCall/while/merge/_322", "op": "Merge", "input": ["StatefulPartitionedCall/crnn/sequential/bidirectional_1/backward_lstm_1/PartitionedCall/while/enter/_311", "StatefulPartitionedCall/crnn/sequential/bidirectional_1/backward_lstm_1/PartitionedCall/while/next_iteration/_358"], "attr": {"T": {"type": "DT_VARIANT"}, "N": {"i": "2"}}}, {"name": "StatefulPartitionedCall/crnn/sequential/bidirectional_1/backward_lstm_1/PartitionedCall/while/cond/_306/while/Less", "op": "Less", "input": ["StatefulPartitionedCall/crnn/sequential/bidirectional_1/backward_lstm_1/PartitionedCall/while/merge/_321", "StatefulPartitionedCall/crnn/sequential/bidirectional_1/backward_lstm_1/PartitionedCall/while/merge/_325", "^StatefulPartitionedCall/crnn/sequential/bidirectional_1/backward_lstm_1/PartitionedCall/while/merge/_319"], "attr": {"T": {"type": "DT_INT32"}}}, {"name": "StatefulPartitionedCall/crnn/sequential/bidirectional/forward_lstm/PartitionedCall/while/body/_127/while/mul_2", "op": "Mul", "input": ["StatefulPartitionedCall/crnn/sequential/bidirectional/forward_lstm/PartitionedCall/while/body/_127/while/Sigmoid_2", "StatefulPartitionedCall/crnn/sequential/bidirectional/forward_lstm/PartitionedCall/while/body/_127/while/Tanh_1"], "attr": {"T": {"type": "DT_FLOAT"}}}, {"name": "StatefulPartitionedCall/crnn/sequential/bidirectional/backward_lstm/PartitionedCall/while/body/_187/while/mul_2", "op": "Mul", "input": ["StatefulPartitionedCall/crnn/sequential/bidirectional/backward_lstm/PartitionedCall/while/body/_187/while/Sigmoid_2", "StatefulPartitionedCall/crnn/sequential/bidirectional/backward_lstm/PartitionedCall/while/body/_187/while/Tanh_1"], "attr": {"T": {"type": "DT_FLOAT"}}}, {"name": "StatefulPartitionedCall/crnn/sequential/bidirectional_1/forward_lstm_1/PartitionedCall/while/LoopCond/_270", "op": "LoopCond", "input": ["StatefulPartitionedCall/crnn/sequential/bidirectional_1/forward_lstm_1/PartitionedCall/while/cond/_246/while/Less"]}, {"name": "StatefulPartitionedCall/crnn/sequential/bidirectional_1/backward_lstm_1/PartitionedCall/while/LoopCond/_330", "op": "LoopCond", "input": ["StatefulPartitionedCall/crnn/sequential/bidirectional_1/backward_lstm_1/PartitionedCall/while/cond/_306/while/Less"]}, {"name": "StatefulPartitionedCall/crnn/sequential/bidirectional/forward_lstm/PartitionedCall/while/next_iteration/_179", "op": "NextIteration", "input": ["StatefulPartitionedCall/crnn/sequential/bidirectional/forward_lstm/PartitionedCall/while/body/_127/while/mul_2", "^StatefulPartitionedCall/crnn/sequential/bidirectional/forward_lstm/PartitionedCall/while/loop_body_control/_162"], "attr": {"T": {"type": "DT_FLOAT"}}}, {"name": "StatefulPartitionedCall/crnn/sequential/bidirectional/forward_lstm/PartitionedCall/while/body/_127/while/TensorArrayV2Write/TensorListSetItem", "op": "TensorListSetItem", "input": ["StatefulPartitionedCall/crnn/sequential/bidirectional/forward_lstm/PartitionedCall/while/StatefulPartitionedCall/crnn/sequential/bidirectional/forward_lstm/PartitionedCall/TensorArrayV2_1_switch/_154:1", "Func/StatefulPartitionedCall/crnn/sequential/bidirectional/forward_lstm/PartitionedCall/while/body/_127/input/_382", "StatefulPartitionedCall/crnn/sequential/bidirectional/forward_lstm/PartitionedCall/while/body/_127/while/mul_2"], "attr": {"element_dtype": {"type": "DT_FLOAT"}}}, {"name": "StatefulPartitionedCall/crnn/sequential/bidirectional/backward_lstm/PartitionedCall/while/next_iteration/_239", "op": "NextIteration", "input": ["StatefulPartitionedCall/crnn/sequential/bidirectional/backward_lstm/PartitionedCall/while/body/_187/while/mul_2", "^StatefulPartitionedCall/crnn/sequential/bidirectional/backward_lstm/PartitionedCall/while/loop_body_control/_222"], "attr": {"T": {"type": "DT_FLOAT"}}}, {"name": "StatefulPartitionedCall/crnn/sequential/bidirectional/backward_lstm/PartitionedCall/while/body/_187/while/TensorArrayV2Write/TensorListSetItem", "op": "TensorListSetItem", "input": ["StatefulPartitionedCall/crnn/sequential/bidirectional/backward_lstm/PartitionedCall/while/StatefulPartitionedCall/crnn/sequential/bidirectional/backward_lstm/PartitionedCall/TensorArrayV2_1_switch/_214:1", "Func/StatefulPartitionedCall/crnn/sequential/bidirectional/backward_lstm/PartitionedCall/while/body/_187/input/_419", "StatefulPartitionedCall/crnn/sequential/bidirectional/backward_lstm/PartitionedCall/while/body/_187/while/mul_2"], "attr": {"element_dtype": {"type": "DT_FLOAT"}}}, {"name": "StatefulPartitionedCall/crnn/sequential/bidirectional_1/forward_lstm_1/PartitionedCall/while/Func/StatefulPartitionedCall/crnn/sequential/bidirectional_1/forward_lstm_1/PartitionedCall/input/_106_switch/_276", "op": "Switch", "input": ["StatefulPartitionedCall/crnn/sequential/bidirectional_1/forward_lstm_1/PartitionedCall/while/merge/_264", "StatefulPartitionedCall/crnn/sequential/bidirectional_1/forward_lstm_1/PartitionedCall/while/LoopCond/_270"], "attr": {"T": {"type": "DT_FLOAT"}}}, {"name": "StatefulPartitionedCall/crnn/sequential/bidirectional_1/forward_lstm_1/PartitionedCall/while/StatefulPartitionedCall/crnn/sequential/bidirectional_1/forward_lstm_1/PartitionedCall/TensorArrayUnstack/TensorListFromTensor_switch/_278", "op": "Switch", "input": ["StatefulPartitionedCall/crnn/sequential/bidirectional_1/forward_lstm_1/PartitionedCall/while/merge/_266", "StatefulPartitionedCall/crnn/sequential/bidirectional_1/forward_lstm_1/PartitionedCall/while/LoopCond/_270"], "attr": {"T": {"type": "DT_VARIANT"}}}, {"name": "StatefulPartitionedCall/crnn/sequential/bidirectional_1/forward_lstm_1/PartitionedCall/while/Func/StatefulPartitionedCall/crnn/sequential/bidirectional_1/forward_lstm_1/PartitionedCall/input/_107_switch/_279", "op": "Switch", "input": ["StatefulPartitionedCall/crnn/sequential/bidirectional_1/forward_lstm_1/PartitionedCall/while/merge/_267", "StatefulPartitionedCall/crnn/sequential/bidirectional_1/forward_lstm_1/PartitionedCall/while/LoopCond/_270"], "attr": {"T": {"type": "DT_FLOAT"}}}, {"name": "StatefulPartitionedCall/crnn/sequential/bidirectional_1/forward_lstm_1/PartitionedCall/while/Func/StatefulPartitionedCall/crnn/sequential/bidirectional_1/forward_lstm_1/PartitionedCall/input/_105_switch/_275", "op": "Switch", "input": ["StatefulPartitionedCall/crnn/sequential/bidirectional_1/forward_lstm_1/PartitionedCall/while/merge/_263", "StatefulPartitionedCall/crnn/sequential/bidirectional_1/forward_lstm_1/PartitionedCall/while/LoopCond/_270"], "attr": {"T": {"type": "DT_FLOAT"}}}, {"name": "StatefulPartitionedCall/crnn/sequential/bidirectional_1/forward_lstm_1/PartitionedCall/while/Func/StatefulPartitionedCall/crnn/sequential/bidirectional_1/forward_lstm_1/PartitionedCall/input/_108_switch/_280", "op": "Switch", "input": ["StatefulPartitionedCall/crnn/sequential/bidirectional_1/forward_lstm_1/PartitionedCall/while/merge/_268", "StatefulPartitionedCall/crnn/sequential/bidirectional_1/forward_lstm_1/PartitionedCall/while/LoopCond/_270"], "attr": {"T": {"type": "DT_FLOAT"}}}, {"name": "StatefulPartitionedCall/crnn/sequential/bidirectional_1/forward_lstm_1/PartitionedCall/while/Func/StatefulPartitionedCall/crnn/sequential/bidirectional_1/forward_lstm_1/PartitionedCall/input/_109_switch/_281", "op": "Switch", "input": ["StatefulPartitionedCall/crnn/sequential/bidirectional_1/forward_lstm_1/PartitionedCall/while/merge/_269", "StatefulPartitionedCall/crnn/sequential/bidirectional_1/forward_lstm_1/PartitionedCall/while/LoopCond/_270"], "attr": {"T": {"type": "DT_FLOAT"}}}, {"name": "StatefulPartitionedCall/crnn/sequential/bidirectional_1/forward_lstm_1/PartitionedCall/while/StatefulPartitionedCall/crnn/sequential/bidirectional_1/forward_lstm_1/PartitionedCall/time_switch/_273", "op": "Switch", "input": ["StatefulPartitionedCall/crnn/sequential/bidirectional_1/forward_lstm_1/PartitionedCall/while/merge/_261", "StatefulPartitionedCall/crnn/sequential/bidirectional_1/forward_lstm_1/PartitionedCall/while/LoopCond/_270"], "attr": {"T": {"type": "DT_INT32"}}}, {"name": "StatefulPartitionedCall/crnn/sequential/bidirectional_1/forward_lstm_1/PartitionedCall/while/StatefulPartitionedCall/crnn/sequential/bidirectional_1/forward_lstm_1/PartitionedCall/while/loop_counter_switch/_271", "op": "Switch", "input": ["StatefulPartitionedCall/crnn/sequential/bidirectional_1/forward_lstm_1/PartitionedCall/while/merge/_259", "StatefulPartitionedCall/crnn/sequential/bidirectional_1/forward_lstm_1/PartitionedCall/while/LoopCond/_270"], "attr": {"T": {"type": "DT_INT32"}}}, {"name": "StatefulPartitionedCall/crnn/sequential/bidirectional_1/forward_lstm_1/PartitionedCall/while/StatefulPartitionedCall/crnn/sequential/bidirectional_1/forward_lstm_1/PartitionedCall/TensorArrayV2_1_switch/_274", "op": "Switch", "input": ["StatefulPartitionedCall/crnn/sequential/bidirectional_1/forward_lstm_1/PartitionedCall/while/merge/_262", "StatefulPartitionedCall/crnn/sequential/bidirectional_1/forward_lstm_1/PartitionedCall/while/LoopCond/_270"], "attr": {"T": {"type": "DT_VARIANT"}}}, {"name": "StatefulPartitionedCall/crnn/sequential/bidirectional_1/forward_lstm_1/PartitionedCall/while/StatefulPartitionedCall/crnn/sequential/bidirectional_1/forward_lstm_1/PartitionedCall/strided_slice_switch/_277", "op": "Switch", "input": ["StatefulPartitionedCall/crnn/sequential/bidirectional_1/forward_lstm_1/PartitionedCall/while/merge/_265", "StatefulPartitionedCall/crnn/sequential/bidirectional_1/forward_lstm_1/PartitionedCall/while/LoopCond/_270"], "attr": {"T": {"type": "DT_INT32"}}}, {"name": "StatefulPartitionedCall/crnn/sequential/bidirectional_1/backward_lstm_1/PartitionedCall/while/StatefulPartitionedCall/crnn/sequential/bidirectional_1/backward_lstm_1/PartitionedCall/TensorArray…
e": {"dim": [{"size": "2"}]}}}, "dtype": {"type": "DT_INT32"}}}, {"name": "StatefulPartitionedCall/crnn/sequential/bidirectional_1/backward_lstm_1/PartitionedCall/while/next_iteration/_363", "op": "NextIteration", "input": ["StatefulPartitionedCall/crnn/sequential/bidirectional_1/backward_lstm_1/PartitionedCall/while/Func/StatefulPartitionedCall/crnn/sequential/bidirectional_1/backward_lstm_1/PartitionedCall/input/_118_switch/_339:1", "^StatefulPartitionedCall/crnn/sequential/bidirectional_1/backward_lstm_1/PartitionedCall/while/loop_body_control/_342"], "attr": {"T": {"type": "DT_FLOAT"}}}, {"name": "StatefulPartitionedCall/crnn/sequential/bidirectional_1/backward_lstm_1/PartitionedCall/while/next_iteration/_364", "op": "NextIteration", "input": ["StatefulPartitionedCall/crnn/sequential/bidirectional_1/backward_lstm_1/PartitionedCall/while/Func/StatefulPartitionedCall/crnn/sequential/bidirectional_1/backward_lstm_1/PartitionedCall/input/_119_switch/_340:1", "^StatefulPartitionedCall/crnn/sequential/bidirectional_1/backward_lstm_1/PartitionedCall/while/loop_body_control/_342"], "attr": {"T": {"type": "DT_FLOAT"}}}, {"name": "StatefulPartitionedCall/crnn/sequential/bidirectional_1/backward_lstm_1/PartitionedCall/while/body/_307/while/MatMul_1", "op": "MatMul", "input": ["StatefulPartitionedCall/crnn/sequential/bidirectional_1/backward_lstm_1/PartitionedCall/while/Func/StatefulPartitionedCall/crnn/sequential/bidirectional_1/backward_lstm_1/PartitionedCall/input/_116_switch/_335:1", "StatefulPartitionedCall/crnn/sequential/bidirectional_1/backward_lstm_1/PartitionedCall/while/Func/StatefulPartitionedCall/crnn/sequential/bidirectional_1/backward_lstm_1/PartitionedCall/input/_119_switch/_340:1", "^StatefulPartitionedCall/crnn/sequential/bidirectional_1/backward_lstm_1/PartitionedCall/while/loop_body_control/_342"], "device": "/device:CPU:0", "attr": {"T": {"type": "DT_FLOAT"}, "transpose_a": {"b": false}, "transpose_b": {"b": false}}}, {"name": "StatefulPartitionedCall/crnn/sequential/bidirectional_1/backward_lstm_1/PartitionedCall/while/next_iteration/_365", "op": "NextIteration", "input": ["StatefulPartitionedCall/crnn/sequential/bidirectional_1/backward_lstm_1/PartitionedCall/while/Func/StatefulPartitionedCall/crnn/sequential/bidirectional_1/backward_lstm_1/PartitionedCall/input/_120_switch/_341:1", "^StatefulPartitionedCall/crnn/sequential/bidirectional_1/backward_lstm_1/PartitionedCall/while/loop_body_control/_342"], "attr": {"T": {"type": "DT_FLOAT"}}}, {"name": "Func/StatefulPartitionedCall/crnn/sequential/bidirectional_1/backward_lstm_1/PartitionedCall/while/body/_307/input/_493", "op": "Identity", "input": ["StatefulPartitionedCall/crnn/sequential/bidirectional_1/backward_lstm_1/PartitionedCall/while/StatefulPartitionedCall/crnn/sequential/bidirectional_1/backward_lstm_1/PartitionedCall/time_switch/_333:1", "^StatefulPartitionedCall/crnn/sequential/bidirectional_1/backward_lstm_1/PartitionedCall/while/loop_body_control/_342"], "attr": {"T": {"type": "DT_INT32"}}}, {"name": "StatefulPartitionedCall/crnn/sequential/bidirectional_1/backward_lstm_1/PartitionedCall/while/body/_307/while/add_2/y", "op": "Const", "input": ["^StatefulPartitionedCall/crnn/sequential/bidirectional_1/backward_lstm_1/PartitionedCall/while/loop_body_control/_342"], "attr": {"dtype": {"type": "DT_INT32"}, "value": {"tensor": {"dtype": "DT_INT32", "tensorShape": {}}}}}, {"name": "StatefulPartitionedCall/crnn/sequential/bidirectional_1/backward_lstm_1/PartitionedCall/while/body/_307/while/add_3/y", "op": "Const", "input": ["^StatefulPartitionedCall/crnn/sequential/bidirectional_1/backward_lstm_1/PartitionedCall/while/loop_body_control/_342"], "attr": {"dtype": {"type": "DT_INT32"}, "value": {"tensor": {"dtype": "DT_INT32", "tensorShape": {}}}}}, {"name": "StatefulPartitionedCall/crnn/sequential/bidirectional_1/backward_lstm_1/PartitionedCall/while/next_iteration/_361", "op": "NextIteration", "input": ["StatefulPartitionedCall/crnn/sequential/bidirectional_1/backward_lstm_1/PartitionedCall/while/StatefulPartitionedCall/crnn/sequential/bidirectional_1/backward_lstm_1/PartitionedCall/strided_slice_switch/_337:1", "^StatefulPartitionedCall/crnn/sequential/bidirectional_1/backward_lstm_1/PartitionedCall/while/loop_body_control/_342"], "attr": {"T": {"type": "DT_INT32"}}}, {"name": "StatefulPartitionedCall/crnn/sequential/bidirectional_1/forward_lstm_1/PartitionedCall/while/body/_247/while/TensorArrayV2Read/TensorListGetItem", "op": "TensorListGetItem", "input": ["StatefulPartitionedCall/crnn/sequential/bidirectional_1/forward_lstm_1/PartitionedCall/while/StatefulPartitionedCall/crnn/sequential/bidirectional_1/forward_lstm_1/PartitionedCall/TensorArrayUnstack/TensorListFromTensor_switch/_278:1", "Func/StatefulPartitionedCall/crnn/sequential/bidirectional_1/forward_lstm_1/PartitionedCall/while/body/_247/input/_456", "StatefulPartitionedCall/crnn/sequential/bidirectional_1/forward_lstm_1/PartitionedCall/while/body/_247/while/TensorArrayV2Read/TensorListGetItem/element_shape"], "attr": {"element_dtype": {"type": "DT_FLOAT"}}}, {"name": "StatefulPartitionedCall/crnn/sequential/bidirectional_1/forward_lstm_1/PartitionedCall/while/body/_247/while/add_2", "op": "AddV2", "input": ["Func/StatefulPartitionedCall/crnn/sequential/bidirectional_1/forward_lstm_1/PartitionedCall/while/body/_247/input/_456", "StatefulPartitionedCall/crnn/sequential/bidirectional_1/forward_lstm_1/PartitionedCall/while/body/_247/while/add_2/y"], "attr": {"T": {"type": "DT_INT32"}}}, {"name": "StatefulPartitionedCall/crnn/sequential/bidirectional_1/forward_lstm_1/PartitionedCall/while/body/_247/while/add_3", "op": "AddV2", "input": ["StatefulPartitionedCall/crnn/sequential/bidirectional_1/forward_lstm_1/PartitionedCall/while/StatefulPartitionedCall/crnn/sequential/bidirectional_1/forward_lstm_1/PartitionedCall/while/loop_counter_switch/_271:1", "StatefulPartitionedCall/crnn/sequential/bidirectional_1/forward_lstm_1/PartitionedCall/while/body/_247/while/add_3/y"], "attr": {"T": {"type": "DT_INT32"}}}, {"name": "StatefulPartitionedCall/crnn/sequential/bidirectional_1/forward_lstm_1/PartitionedCall/transpose_1", "op": "Transpose", "input": ["StatefulPartitionedCall/crnn/sequential/bidirectional_1/forward_lstm_1/PartitionedCall/TensorArrayV2Stack/TensorListStack", "StatefulPartitionedCall/crnn/sequential/bidirectional_1/forward_lstm_1/PartitionedCall/transpose_1/perm"], "attr": {"Tperm": {"type": "DT_INT32"}, "T": {"type": "DT_FLOAT"}}}, {"name": "StatefulPartitionedCall/crnn/sequential/bidirectional_1/backward_lstm_1/PartitionedCall/transpose_1", "op": "Transpose", "input": ["StatefulPartitionedCall/crnn/sequential/bidirectional_1/backward_lstm_1/PartitionedCall/TensorArrayV2Stack/TensorListStack", "StatefulPartitionedCall/crnn/sequential/bidirectional_1/backward_lstm_1/PartitionedCall/transpose_1/perm"], "attr": {"Tperm": {"type": "DT_INT32"}, "T": {"type": "DT_FLOAT"}}}, {"name": "StatefulPartitionedCall/crnn/sequential/bidirectional_1/backward_lstm_1/PartitionedCall/while/body/_307/while/TensorArrayV2Read/TensorListGetItem", "op": "TensorListGetItem", "input": ["StatefulPartitionedCall/crnn/sequential/bidirectional_1/backward_lstm_1/PartitionedCall/while/StatefulPartitionedCall/crnn/sequential/bidirectional_1/backward_lstm_1/PartitionedCall/TensorArrayUnstack/TensorListFromTensor_switch/_338:1", "Func/StatefulPartitionedCall/crnn/sequential/bidirectional_1/backward_lstm_1/PartitionedCall/while/body/_307/input/_493", "StatefulPartitionedCall/crnn/sequential/bidirectional_1/backward_lstm_1/PartitionedCall/while/body/_307/while/TensorArrayV2Read/TensorListGetItem/element_shape"], "attr": {"element_dtype": {"type": "DT_FLOAT"}}}, {"name": "StatefulPartitionedCall/crnn/sequential/bidirectional_1/backward_lstm_1/PartitionedCall/while/body/_307/while/add_2", "op": "AddV2", "input": ["Func/StatefulPartitionedCall/crnn/sequential/bidirectional_1/backward_lstm_1/PartitionedCall/while/body/_307/input/_493", "StatefulPartitionedCall/crnn/sequential/bidirectional_1/backward_lstm_1/PartitionedCall/while/body/_307/while/add_2/y"], "attr": {"T": {"type": "DT_INT32"}}}, {"name": "StatefulPartitionedCall/crnn/sequential/bidirectional_1/backward_lstm_1/PartitionedCall/while/body/_307/while/add_3", "op": "AddV2", "input": ["StatefulPartitionedCall/crnn/sequential/bidirectional_1/backward_lstm_1/PartitionedCall/while/StatefulPartitionedCall/crnn/sequential/bidirectional_1/backward_lstm_1/PartitionedCall/while/loop_counter_switch/_331:1", "StatefulPartitionedCall/crnn/sequential/bidirectional_1/backward_lstm_1/PartitionedCall/while/body/_307/while/add_3/y"], "attr": {"T": {"type": "DT_INT32"}}}, {"name": "StatefulPartitionedCall/crnn/sequential/bidirectional_1/forward_lstm_1/PartitionedCall/while/body/_247/while/MatMul", "op": "MatMul", "input": ["StatefulPartitionedCall/crnn/sequential/bidirectional_1/forward_lstm_1/PartitionedCall/while/body/_247/while/TensorArrayV2Read/TensorListGetItem", "StatefulPartitionedCall/crnn/sequential/bidirectional_1/forward_lstm_1/PartitionedCall/while/Func/StatefulPartitionedCall/crnn/sequential/bidirectional_1/forward_lstm_1/PartitionedCall/input/_107_switch/_279:1"], "device": "/device:CPU:0", "attr": {"transpose_b": {"b": false}, "T": {"type": "DT_FLOAT"}, "transpose_a": {"b": false}}}, {"name": "StatefulPartitionedCall/crnn/sequential/bidirectional_1/forward_lstm_1/PartitionedCall/while/next_iteration/_297", "op": "NextIteration", "input": ["StatefulPartitionedCall/crnn/sequential/bidirectional_1/forward_lstm_1/PartitionedCall/while/body/_247/while/add_2", "^StatefulPartitionedCall/crnn/sequential/bidirectional_1/forward_lstm_1/PartitionedCall/while/loop_body_control/_282"], "attr": {"T": {"type": "DT_INT32"}}}, {"name": "StatefulPartitionedCall/crnn/sequential/bidirectional_1/forward_lstm_1/PartitionedCall/while/next_iteration/_295", "op": "NextIteration", "input": ["StatefulPartitionedCall/crnn/sequential/bidirectional_1/forward_lstm_1/PartitionedCall/while/body/_247/while/add_3", "^StatefulPartitionedCall/crnn/sequential/bidirectional_1/forward_lstm_1/PartitionedCall/while/loop_body_control/_282"], "attr": {"T": {"type": "DT_INT32"}}}, {"name": "StatefulPartitionedCall/crnn/sequential/bidirectional_1/ReverseV2", "op": "ReverseV2", "input": ["StatefulPartitionedCall/crnn/sequential/bidirectional_1/backward_lstm_1/PartitionedCall/transpose_1", "StatefulPartitionedCall/crnn/sequential/bidirectional_1/ReverseV2/axis"], "attr": {"Tidx": {"type": "DT_INT32"}, "T": {"type": "DT_FLOAT"}}}, {"name": "StatefulPartitionedCall/crnn/sequential/bidirectional_1/backward_lstm_1/PartitionedCall/while/body/_307/while/MatMul", "op": "MatMul", "input": ["StatefulPartitionedCall/crnn/sequential/bidirectional_1/backward_lstm_1/PartitionedCall/while/body/_307/while/TensorArrayV2Read/TensorListGetItem", "StatefulPartitionedCall/crnn/sequential/bidirectional_1/backward_lstm_1/PartitionedCall/while/Func/StatefulPartitionedCall/crnn/sequential/bidirectional_1/backward_lstm_1/PartitionedCall/input/_118_switch/_339:1"], "device": "/device:CPU:0", "attr": {"transpose_b": {"b": false}, "transpose_a": {"b": false}, "T": {"type": "DT_FLOAT"}}}, {"name": "StatefulPartitionedCall/crnn/sequential/bidirectional_1/backward_lstm_1/PartitionedCall/while/next_iteration/_357", "op": "NextIteration", "input": ["StatefulPartitionedCall/crnn/sequential/bidirectional_1/backward_lstm_1/PartitionedCall/while/body/_307/while/add_2", "^StatefulPartitionedCall/crnn/sequential/bidirectional_1/backward_lstm_1/PartitionedCall/while/loop_body_control/_342"], "attr": {"T": {"type": "DT_INT32"}}}, {"name": "StatefulPartitionedCall/crnn/sequential/bidirectional_1/backward_lstm_1/PartitionedCall/while/next_iteration/_355", "op": "NextIteration", "input": ["StatefulPartitionedCall/crnn/sequential/bidirectional_1/backward_lstm_1/PartitionedCall/while/body/_307/while/add_3", "^StatefulPartitionedCall/crnn/sequential/bidirectional_1/backward_lstm_1/PartitionedCall/while/loop_body_control/_342"], "attr": {"T": {"type": "DT_INT32"}}}, {"name": "StatefulPartitionedCall/crnn/sequential/bidirectional_1/forward_lstm_1/PartitionedCall/while/body/_247/while/add", "op": "AddV2", "input": ["StatefulPartitionedCall/crnn/sequential/bidirectional_1/forward_lstm_1/PartitionedCall/while/body/_247/while/MatMul", "StatefulPartitionedCall/crnn/sequential/bidirectional_1/forward_lstm_1/PartitionedCall/while/body/_247/while/MatMul_1"], "attr": {"T": {"type": "DT_FLOAT"}}}, {"name": "StatefulPartitionedCall/crnn/sequential/bidirectional_1/concat", "op": "ConcatV2", "input": ["StatefulPartitionedCall/crnn/sequential/bidirectional_1/forward_lstm_1/PartitionedCall/transpose_1", "StatefulPartitionedCall/crnn/sequential/bidirectional_1/ReverseV2", "StatefulPartitionedCall/crnn/sequential/bidirectional_1/concat/axis"], "attr": {"T": {"type": "DT_FLOAT"}, "Tidx": {"type": "DT_INT32"}, "N": {"i": "2"}}}, {"name": "StatefulPartitionedCall/crnn/sequential/bidirectional_1/backward_lstm_1/PartitionedCall/while/body/_307/while/add", "op": "AddV2", "input": ["StatefulPartitionedCall/crnn/sequential/bidirectional_1/backward_lstm_1/PartitionedCall/while/body/_307/while/MatMul", "StatefulPartitionedCall/crnn/sequential/bidirectional_1/backward_lstm_1/PartitionedCall/while/body/_307/while/MatMul_1"], "attr": {"T": {"type": "DT_FLOAT"}}}, {"name": "StatefulPartitionedCall/crnn/sequential/bidirectional_1/forward_lstm_1/PartitionedCall/while/body/_247/while/BiasAdd", "op": "BiasAdd", "input": ["StatefulPartitionedCall/crnn/sequential/bidirectional_1/forward_lstm_1/PartitionedCall/while/body/_247/while/add", "StatefulPartitionedCall/crnn/sequential/bidirectional_1/forward_lstm_1/PartitionedCall/while/Func/StatefulPartitionedCall/crnn/sequential/bidirectional_1/forward_lstm_1/PartitionedCall/input/_109_switch/_281:1"], "attr": {"data_format": {"s": "TkhXQw=="}, "T": {"type": "DT_FLOAT"}}}, {"name": "StatefulPartitionedCall/crnn/sequential/dense/Tensordot/Shape", "op": "Shape", "input": ["StatefulPartitionedCall/crnn/sequential/bidirectional_1/concat"], "attr": {"T": {"type": "DT_FLOAT"}, "out_type": {"type": "DT_INT32"}}}, {"name": "StatefulPartitionedCall/crnn/sequential/bidirectional_1/backward_lstm_1/PartitionedCall/while/body/_307/while/BiasAdd", "op": "BiasAdd", "input": ["StatefulPartitionedCall/crnn/sequential/bidirectional_1/backward_lstm_1/PartitionedCall/while/body/_307/while/add", "StatefulPartitionedCall/crnn/sequential/bidirectional_1/backward_lstm_1/PartitionedCall/while/Func/StatefulPartitionedCall/crnn/sequential/bidirectional_1/backward_lstm_1/PartitionedCall/input/_120_switch/_341:1"], "attr": {"data_format": {"s": "TkhXQw=="}, "T": {"type": "DT_FLOAT"}}}, {"name": "StatefulPartitionedCall/crnn/sequential/bidirectional_1/forward_lstm_1/PartitionedCall/while/body/_247/while/split", "op": "Split", "input": ["StatefulPartitionedCall/crnn/sequential/bidirectional_1/forward_lstm_1/PartitionedCall/while/body/_247/while/split/split_dim", "StatefulPartitionedCall/crnn/sequential/bidirectional_1/forward_lstm_1/PartitionedCall/while/body/_247/while/BiasAdd"], "attr": {"T": {"type": "DT_FLOAT"}, "num_split": {"i": "4"}}}, {"name": "StatefulPartitionedCall/crnn/sequential/dense/Tensordot/GatherV2_1", "op": "GatherV2", "input": ["StatefulPartitionedCall/crnn/sequential/dense/Tensordot/Shape", "StatefulPartitionedCall/crnn/sequential/dense/Tensordot/axes", "StatefulPartitionedCall/crnn/sequential/dense/Tensordot/GatherV2_1/axis"], "attr": {"Tindices": {"type": "DT_INT32"}, "Tparams": {"type": "DT_INT32"}, "batch_dims": {"i": "0"}, "Taxis": {"type": "DT_INT32"}}}, {"name": "StatefulPartitionedCall/crnn/sequential/dense/Tensordot/GatherV2", "op": "GatherV2", "input": ["StatefulPartitionedCall/crnn/sequential/dense/Tensordot/Shape", "StatefulPartitionedCall/crnn/sequential/dense/Tensordot/free", "StatefulPartitionedCall/crnn/sequential/dense/Tensordot/GatherV2/axis"], "attr": {"batch_dims": {"i": "0"}, "Tindices": {"type": "DT_INT32"}, "Taxis": {"type": "DT_INT32"}, "Tparams": {"type": "DT_INT32"}}}, {"name": "StatefulPartitionedCall/crnn/sequential/bidirectional_1/backward_lstm_1/PartitionedCall/while/body/_307/while/split", "op": "Split", "input": ["StatefulPartitionedCall/crnn/sequential/bidirectional_1/backward_lstm_1/PartitionedCall/while/body/_307/while/split/split_dim", "StatefulPartitionedCall/crnn/sequential/bidirectional_1/backward_lstm_1/PartitionedCall/while/body/_307/while/BiasAdd"], "attr": {"num_split": {"i": "4"}, "T": {"type": "DT_FLOAT"}}}, {"name": "StatefulPartitionedCall/crnn/sequential/bidirectional_1/forward_lstm_1/PartitionedCall/while/body/_247/while/Sigmoid", "op": "Sigmoid", "input": ["StatefulPartitionedCall/crnn/sequential/bidirectional_1/forward_lstm_1/PartitionedCall/while/body/_247/while/split"], "attr": {"T": {"type": "DT_FLOAT"}}}, {"name": "StatefulPartitionedCall/crnn/sequential/bidirectional_1/forward_lstm_1/PartitionedCall/while/body/_247/while/Sigmoid_1", "op": "Sigmoid", "input": ["StatefulPartitionedCall/crnn/sequential/bidirectional_1/forward_lstm_1/PartitionedCall/while/body/_247/while/split:1"], "attr": {"T": {"type": "DT_FLOAT"}}}, {"name": "StatefulPartitionedCall/crnn/sequential/bidirectional_1/forward_lstm_1/PartitionedCall/while/body/_247/while/Tanh", "op": "Tanh", "input": ["StatefulPartitionedCall/crnn/sequential/bidirectional_1/forward_lstm_1/PartitionedCall/while/body/_247/while/split:2"], "attr": {"T": {"type": "DT_FLOAT"}}}, {"name": "StatefulPartitionedCall/crnn/sequential/bidirectional_1/forward_lstm_1/PartitionedCall/while/body/_247/while/Sigmoid_2", "op": "Sigmoid", "input": ["StatefulPartitionedCall/crnn/sequential/bidirectional_1/forward_lstm_1/PartitionedCall/while/body/_247/while/split:3"], "attr": {"T": {"type": "DT_FLOAT"}}}, {"name": "StatefulPartitionedCall/crnn/sequential/dense/Tensordot/Prod_1", "op": "Prod", "input": ["StatefulPartitionedCall/crnn/sequential/dense/Tensordot/GatherV2_1", "StatefulPartitionedCall/crnn/sequential/dense/Tensordot/Const_1"], "attr": {"keep_dims": {"b": false}, "Tidx": {"type": "DT_INT32"}, "T": {"type": "DT_INT32"}}}, {"name": "StatefulPartitionedCall/crnn/sequential/dense/Tensordot/Prod", "op": "Prod", "input": ["StatefulPartitionedCall/crnn/sequential/dense/Tensordot/GatherV2", "StatefulPartitionedCall/crnn/sequential/dense/Tensordot/Const"], "attr": {"Tidx": {"type": "DT_INT32"}, "T": {"type": "DT_INT32"}, "keep_dims": {"b": false}}}, {"name": "StatefulPartitionedCall/crnn/sequential/dense/Tensordot/concat_1", "op": "ConcatV2", "input": ["StatefulPartitionedCall/crnn/sequential/dense/Tensordot/GatherV2", "StatefulPartitionedCall/crnn/sequential/dense/Tensordot/Const_2", "StatefulPartitionedCall/crnn/sequential/dense/Tensordot/concat_1/axis"], "attr": {"N": {"i": "2"}, "Tidx": {"type": "DT_INT32"}, "T": {"type": "DT_INT32"}}}, {"name": "StatefulPartitionedCall/crnn/sequential/bidirectional_1/backward_lstm_1/PartitionedCall/while/body/_307/while/Sigmoid", "op": "Sigmoid", "input": ["StatefulPartitionedCall/crnn/sequential/bidirectional_1/backward_lstm_1/PartitionedCall/while/body/_307/while/split"], "attr": {"T": {"type": "DT_FLOAT"}}}, {"name": "StatefulPartitionedCall/crnn/sequential/bidirectional_1/backward_lstm_1/PartitionedCall/while/body/_307/while/Sigmoid_1", "op": "Sigmoid", "input": ["StatefulPartitionedCall/crnn/sequential/bidirectional_1/backward_lstm_1/PartitionedCall/while/body/_307/while/split:1"], "attr": {"T": {"type": "DT_FLOAT"}}}, {"name": "StatefulPartitionedCall/crnn/sequential/bidirectional_1/backward_lstm_1/PartitionedCall/while/body/_307/while/Tanh", "op": "Tanh", "input": ["StatefulPartitionedCall/crnn/sequential/bidirectional_1/backward_lstm_1/PartitionedCall/while/body/_307/while/split:2"], "attr": {"T": {"type": "DT_FLOAT"}}}, {"name": "StatefulPartitionedCall/crnn/sequential/bidirectional_1/backward_lstm_1/PartitionedCall/while/body/_307/while/Sigmoid_2", "op": "Sigmoid", "input": ["StatefulPartitionedCall/crnn/sequential/bidirectional_1/backward_lstm_1/PartitionedCall/while/body/_307/while/split:3"], "attr": {"T": {"type": "DT_FLOAT"}}}, {"name": "StatefulPartitionedCall/crnn/sequential/bidirectional_1/forward_lstm_1/PartitionedCall/while/body/_247/while/mul", "op": "Mul", "input": ["StatefulPartitionedCall/crnn/sequential/bidirectional_1/forward_lstm_1/PartitionedCall/while/body/_247/while/Sigmoid_1", "StatefulPartitionedCall/crnn/sequential/bidirectional_1/forward_lstm_1/PartitionedCall/while/Func/StatefulPartitionedCall/crnn/sequential/bidirectional_1/forward_lstm_1/PartitionedCall/input/_106_switch/_276:1"], "attr": {"T": {"type": "DT_FLOAT"}}}, {"name": "StatefulPartitionedCall/crnn/sequential/bidirectional_1/forward_lstm_1/PartitionedCall/while/body/_247/while/mul_1", "op": "Mul", "input": ["StatefulPartitionedCall/crnn/sequential/bidirectional_1/forward_lstm_1/PartitionedCall/while/body/_247/while/Sigmoid", "StatefulPartitionedCall/crnn/sequential/bidirectional_1/forward_lstm_1/PartitionedCall/while/body/_247/while/Tanh"], "attr": {"T": {"type": "DT_FLOAT"}}}, {"name": "StatefulPartitionedCall/crnn/sequential/dense/Tensordot/stack", "op": "Pack", "input": ["StatefulPartitionedCall/crnn/sequential/dense/Tensordot/Prod", "StatefulPartitionedCall/crnn/sequential/dense/Tensordot/Prod_1"], "attr": {"T": {"type": "DT_INT32"}, "axis": {"i": "0"}, "N": {"i": "2"}}}, {"name": "StatefulPartitionedCall/crnn/sequential/bidirectional_1/backward_lstm_1/PartitionedCall/while/body/_307/while/mul", "op": "Mul", "input": ["StatefulPartitionedCall/crnn/sequential/bidirectional_1/backward_lstm_1/PartitionedCall/while/body/_307/while/Sigmoid_1", "StatefulPartitionedCall/crnn/sequential/bidirectional_1/backward_lstm_1/PartitionedCall/while/Func/StatefulPartitionedCall/crnn/sequential/bidirectional_1/backward_lstm_1/PartitionedCall/input/_117_switch/_336:1"], "attr": {"T": {"type": "DT_FLOAT"}}}, {"name": "StatefulPartitionedCall/crnn/sequential/bidirectional_1/backward_lstm_1/PartitionedCall/while/body/_307/while/mul_1", "op": "Mul", "input": ["StatefulPartitionedCall/crnn/sequential/bidirectional_1/backward_lstm_1/PartitionedCall/while/body/_307/while/Sigmoid", "StatefulPartitionedCall/crnn/sequential/bidirectional_1/backward_lstm_1/PartitionedCall/while/body/_307/while/Tanh"], "attr": {"T": {"type": "DT_FLOAT"}}}, {"name": "StatefulPartitionedCall/crnn/sequential/bidirectional_1/forward_lstm_1/PartitionedCall/while/body/_247/while/add_1", "op": "AddV2", "input": ["StatefulPartitionedCall/crnn/sequential/bidirectional_1/forward_lstm_1/PartitionedCall/while/body/_247/while/mul", "StatefulPartitionedCall/crnn/sequential/bidirectional_1/forward_lstm_1/PartitionedCall/while/body/_247/while/mul_1"], "attr": {"T": {"type": "DT_FLOAT"}}}, {"name": "StatefulPartitionedCall/crnn/sequential/dense/Tensordot/Reshape", "op": "Reshape", "input": ["StatefulPartitionedCall/crnn/sequential/bidirectional_1/concat", "StatefulPartitionedCall/crnn/sequential/dense/Tensordot/stack"], "attr": {"T": {"type": "DT_FLOAT"}, "Tshape": {"type": "DT_INT32"}}}, {"name": "StatefulPartitionedCall/crnn/sequential/bidirectional_1/backward_lstm_1/PartitionedCall/while/body/_307/while/add_1", "op": "AddV2", "input": ["StatefulPartitionedCall/crnn/sequential/bidirectional_1/backward_lstm_1/PartitionedCall/while/body/_307/while/mul", "StatefulPartitionedCall/crnn/sequential/bidirectional_1/backward_lstm_1/PartitionedCall/while/body/_307/while/mul_1"], "attr": {"T": {"type": "DT_FLOAT"}}}, {"name": "StatefulPartitionedCall/crnn/sequential/bidirectional_1/forward_lstm_1/PartitionedCall/while/body/_247/while/Tanh_1", "op": "Tanh", "input": ["StatefulPartitionedCall/crnn/sequential/bidirectional_1/forward_lstm_1/PartitionedCall/while/body/_247/while/add_1"], "attr": {"T": {"type": "DT_FLOAT"}}}, {"name": "StatefulPartitionedCall/crnn/sequential/bidirectional_1/forward_lstm_1/PartitionedCall/while/next_iteration/_300", "op": "NextIteration", "input": ["StatefulPartitionedCall/crnn/sequential/bidirectional_1/forward_lstm_1/PartitionedCall/while/body/_247/while/add_1", "^StatefulPartitionedCall/crnn/sequential/bidirectional_1/forward_lstm_1/PartitionedCall/while/loop_body_control/_282"], "attr": {"T": {"type": "DT_FLOAT"}}}, {"name": "StatefulPartitionedCall/crnn/sequential/dense/Tensordot/MatMul", "op": "MatMul", "input": ["StatefulPartitionedCall/crnn/sequential/dense/Tensordot/Reshape", "StatefulPartitionedCall/crnn/sequential/dense/Tensordot/ReadVariableOp"], "device": "/device:CPU:0", "attr": {"transpose_b": {"b": false}, "transpose_a": {"b": false}, "T": {"type": "DT_FLOAT"}}}, {"name": "StatefulPartitionedCall/crnn/sequential/bidirectional_1/backward_lstm_1/PartitionedCall/while/body/_307/while/Tanh_1", "op": "Tanh", "input": ["StatefulPartitionedCall/crnn/sequential/bidirectional_1/backward_lstm_1/PartitionedCall/while/body/_307/while/add_1"], "attr": {"T": {"type": "DT_FLOAT"}}}, {"name": "StatefulPartitionedCall/crnn/sequential/bidirectional_1/backward_lstm_1/PartitionedCall/while/next_iteration/_360", "op": "NextIteration", "input": ["StatefulPartitionedCall/crnn/sequential/bidirectional_1/backward_lstm_1/PartitionedCall/while/body/_307/while/add_1", "^StatefulPartitionedCall/crnn/sequential/bidirectional_1/backward_lstm_1/PartitionedCall/while/loop_body_control/_342"], "attr": {"T": {"type": "DT_FLOAT"}}}, {"name": "StatefulPartitionedCall/crnn/sequential/bidirectional_1/forward_lstm_1/PartitionedCall/while/body/_247/while/mul_2", "op": "Mul", "input": ["StatefulPartitionedCall/crnn/sequential/bidirectional_1/forward_lstm_1/PartitionedCall/while/body/_247/while/Sigmoid_2", "StatefulPartitionedCall/crnn/sequential/bidirectional_1/forward_lstm_1/PartitionedCall/while/body/_247/while/Tanh_1"], "attr": {"T": {"type": "DT_FLOAT"}}}, {"name": "StatefulPartitionedCall/crnn/sequential/dense/Tensordot", "op": "Reshape", "input": ["StatefulPartitionedCall/crnn/sequential/dense/Tensordot/MatMul", "StatefulPartitionedCall/crnn/sequential/dense/Tensordot/concat_1"], "attr": {"Tshape": {"type": "DT_INT32"}, "T": {"type": "DT_FLOAT"}}}, {"name": "StatefulPartitionedCall/crnn/sequential/bidirectional_1/backward_lstm_1/PartitionedCall/while/body/_307/while/mul_2", "op": "Mul", "input": ["StatefulPartitionedCall/crnn/sequential/bidirectional_1/backward_lstm_1/PartitionedCall/while/body/_307/while/Sigmoid_2", "StatefulPartitionedCall/crnn/sequential/bidirectional_1/backward_lstm_1/PartitionedCall/while/body/_307/while/Tanh_1"], "attr": {"T": {"type": "DT_FLOAT"}}}, {"name": "StatefulPartitionedCall/crnn/sequential/bidirectional_1/forward_lstm_1/PartitionedCall/while/next_iteration/_299", "op": "NextIteration", "input": ["StatefulPartitionedCall/crnn/sequential/bidirectional_1/forward_lstm_1/PartitionedCall/while/body/_247/while/mul_2", "^StatefulPartitionedCall/crnn/sequential/bidirectional_1/forward_lstm_1/PartitionedCall/while/loop_body_control/_282"], "attr": {"T": {"type": "DT_FLOAT"}}}, {"name": "StatefulPartitionedCall/crnn/sequential/bidirectional_1/forward_lstm_1/PartitionedCall/while/body/_247/while/TensorArrayV2Write/TensorListSetItem", "op": "TensorListSetItem", "input": ["StatefulPartitionedCall/crnn/sequential/bidirectional_1/forward_lstm_1/PartitionedCall/while/StatefulPartitionedCall/crnn/sequential/bidirectional_1/forward_lstm_1/PartitionedCall/TensorArrayV2_1_switch/_274:1", "Func/StatefulPartitionedCall/crnn/sequential/bidirectional_1/forward_lstm_1/PartitionedCall/while/body/_247/input/_456", "StatefulPartitionedCall/crnn/sequential/bidirectional_1/forward_lstm_1/PartitionedCall/while/body/_247/while/mul_2"], "attr": {"element_dtype": {"type": "DT_FLOAT"}}}, {"name": "StatefulPartitionedCall/crnn/sequential/dense/BiasAdd", "op": "BiasAdd", "input": ["StatefulPartitionedCall/crnn/sequential/dense/Tensordot", "StatefulPartitionedCall/crnn/sequential/dense/BiasAdd/ReadVariableOp"], "attr": {"T": {"type": "DT_FLOAT"}, "data_format": {"s": "TkhXQw=="}}}, {"name": "StatefulPartitionedCall/crnn/sequential/bidirectional_1/backward_lstm_1/PartitionedCall/while/body/_307/while/TensorArrayV2Write/TensorListSetItem", "op": "TensorListSetItem", "input": ["StatefulPartitionedCall/crnn/sequential/bidirectional_1/backward_lstm_1/PartitionedCall/while/StatefulPartitionedCall/crnn/sequential/bidirectional_1/backward_lstm_1/PartitionedCall/TensorArrayV2_1_switch/_334:1", "Func/StatefulPartitionedCall/crnn/sequential/bidirectional_1/backward_lstm_1/PartitionedCall/while/body/_307/input/_493", "StatefulPartitionedCall/crnn/sequential/bidirectional_1/backward_lstm_1/PartitionedCall/while/body/_307/while/mul_2"], "attr": {"element_dtype": {"type": "DT_FLOAT"}}}, {"name": "StatefulPartitionedCall/crnn/sequential/bidirectional_1/backward_lstm_1/PartitionedCall/while/next_iteration/_359", "op": "NextIteration", "input": ["StatefulPartitionedCall/crnn/sequential/bidirectional_1/backward_lstm_1/PartitionedCall/while/body/_307/while/mul_2", "^StatefulPartitionedCall/crnn/sequential/bidirectional_1/backward_lstm_1/PartitionedCall/while/loop_body_control/_342"], "attr": {"T": {"type": "DT_FLOAT"}}}, {"name": "StatefulPartitionedCall/crnn/sequential/bidirectional_1/forward_lstm_1/PartitionedCall/while/next_iteration/_298", "op": "NextIteration", "input": ["StatefulPartitionedCall/crnn/sequential/bidirectional_1/forward_lstm_1/PartitionedCall/while/body/_247/while/TensorArrayV2Write/TensorListSetItem", "^StatefulPartitionedCall/crnn/sequential/bidirectional_1/forward_lstm_1/PartitionedCall/while/loop_body_control/_282"], "attr": {"T": {"type": "DT_VARIANT"}}}, {"name": "Identity", "op": "Identity", "input": ["StatefulPartitionedCall/crnn/sequential/dense/BiasAdd"], "attr": {"T": {"type": "DT_FLOAT"}}}, {"name": "StatefulPartitionedCall/crnn/sequential/bidirectional_1/backward_lstm_1/PartitionedCall/while/next_iteration/_358", "op": "NextIteration", "input": ["StatefulPartitionedCall/crnn/sequential/bidirectional_1/backward_lstm_1/PartitionedCall/while/body/_307/while/TensorArrayV2Write/TensorListSetItem", "^StatefulPartitionedCall/crnn/sequential/bidirectional_1/backward_lstm_1/PartitionedCall/while/loop_body_control/_342"], "attr": {"T": {"type": "DT_VARIANT"}}}], "library": {}, "versions": {"producer": 716}}, "weightsManifest": [{"paths": ["group1-shard1of16.bin", "group1-shard2of16.bin", "group1-shard3of16.bin", "group1-shard4of16.bin", "group1-shard5of16.bin", "group1-shard6of16.bin", "group1-shard7of16.bin", "group1-shard8of16.bin", "group1-shard9of16.bin", "group1-shard10of16.bin", "group1-shard11of16.bin", "group1-shard12of16.bin", "group1-shard13of16.bin", "group1-shard14of16.bin", "group1-shard15of16.bin", "group1-shard16of16.bin"], "weights": [{"name": "StatefulPartitionedCall/crnn/sequential/dense/Tensordot/Const", "shape": [1], "dtype": "int32"}, {"name": "StatefulPartitionedCall/crnn/sequential/dense/Tensordot/axes", "shape": [1], "dtype": "int32"}, {"name": "StatefulPartitionedCall/crnn/sequential/dense/Tensordot/GatherV2_1/axis", "shape": [], "dtype": "int32"}, {"name": "StatefulPartitionedCall/crnn/sequential/dense/Tensordot/Const_1", "shape": [1], "dtype": "int32"}, {"name": "StatefulPartitionedCall/crnn/sequential/dense/Tensordot/ReadVariableOp", "shape": [256, 124], "dtype": "float32"}, {"name": "StatefulPartitionedCall/crnn/sequential/bidirectional_1/forward_lstm_1/PartitionedCall/TensorArrayV2_1/element_shape", "shape": [2], "dtype": "int32"}, {"name": "StatefulPartitionedCall/crnn/sequential/bidirectional_1/forward_lstm_1/zeros_1/packed/1", "shape": [], "dtype": "int32"}, {"name": "StatefulPartitionedCall/crnn/sequential/bidirectional_1/forward_lstm_1/zeros_1/Const", "shape": [], "dtype": "float32"}, {"name": "StatefulPartitionedCall/crnn/sequential/bidirectional_1/forward_lstm_1/PartitionedCall/TensorArrayUnstack/TensorListFromTensor/element_shape", "shape": [2], "dtype": "int32"}, {"name": "StatefulPartitionedCall/crnn/sequential/bidirectional_1/forward_lstm_1/Read/ReadVariableOp", "shape": [256, 512], "dtype": "float32"}, {"name": "StatefulPartitionedCall/crnn/sequential/bidirectional_1/forward_lstm_1/strided_slice/stack", "shape": [1], "dtype": "int32"}, {"name": "StatefulPartitionedCall/crnn/sequential/bidirectional_1/forward_lstm_1/strided_slice/stack_1", "shape": [1], "dtype": "int32"}, {"name": "StatefulPartitionedCall/crnn/sequential/bidirectional_1/forward_lstm_1/strided_slice/stack_2", "shape": [1], "dtype": "int32"}, {"name": "StatefulPartitionedCall/crnn/sequential/bidirectional_1/forward_lstm_1/zeros/packed/1", "shape": [], "dtype": "int32"}, {"name": "StatefulPartitionedCall/crnn/sequential/bidirectional_1/forward_lstm_1/zeros/Const", "shape": [], "dtype": "float32"}, {"name": "StatefulPartitionedCall/crnn/sequential/bidirectional_1/forward_lstm_1/Read_1/ReadVariableOp", "shape": [128, 512], "dtype": "float32"}, {"name": "StatefulPartitionedCall/crnn/sequential/bidirectional_1/forward_lstm_1/Read_2/ReadVariableOp", "shape": [512], "dtype": "float32"}, {"name": "StatefulPartitionedCall/crnn/sequential/bidirectional_1/forward_lstm_1/PartitionedCall/time", "shape": [], "dtype": "int32"}, {"name": "StatefulPartitionedCall/crnn/sequential/bidirectional_1/forward_lstm_1/PartitionedCall/transpose/perm", "shape": [3], "dtype": "int32"}, {"name": "StatefulPartitionedCall/crnn/sequential/bidirectional_1/forward_lstm_1/PartitionedCall/strided_slice/stack", "shape": [1], "dtype": "int32"}, {"name": "StatefulPartitionedCall/crnn/sequential/bidirectional_1/forward_lstm_1/PartitionedCall/strided_slice/stack_1", "shape": [1], "dtype": "int32"}, {"name": "StatefulPartitionedCall/crnn/sequential/bidirectional_1/forward_lstm_1/PartitionedCall/strided_slice/stack_2", "shape": [1], "dtype": "int32"}, {"name": "StatefulPartitionedCall/crnn/sequential/bidirectional_1/forward_lstm_1/PartitionedCall/while/loop_counter", "shape": [], "dtype": "int32"}, {"name": "StatefulPartitionedCall/crnn/sequential/bidirectional_1/forward_lstm_1/PartitionedCall/TensorArrayV2Stack/TensorListStack/element_shape", "shape": [2], "dtype": "int32"}, {"name": "StatefulPartitionedCall/crnn/sequential/bidirectional_1/forward_lstm_1/PartitionedCall/transpose_1/perm", "shape": [3], "dtype": "int32"}, {"name": "StatefulPartitionedCall/crnn/sequential/bidirectional_1/backward_lstm_1/PartitionedCall/TensorArrayV2_1/element_shape", "shape": [2], "dtype": "int32"}, {"name": "StatefulPartitionedCall/crnn/sequential/bidirectional_1/backward_lstm_1/zeros_1/packed/1", "shape": [], "dtype": "int32"}, {"name": "StatefulPartitionedCall/crnn/sequential/bidirectional_1/backward_lstm_1/zeros_1/Const", "shape": [], "dtype": "float32"}, {"name": "StatefulPartitionedCall/crnn/sequential/bidirectional_1/backward_lstm_1/PartitionedCall/ReverseV2/axis", "shape": [1], "dtype": "int32"}, {"name": "StatefulPartitionedCall/crnn/sequential/bidirectional_1/backward_lstm_1/PartitionedCall/TensorArrayUnstack/TensorListFromTensor/element_shape", "shape": [2], "dtype": "int32"}, {"name": "StatefulPartitionedCall/crnn/sequential/bidirectional_1/backward_lstm_1/Read/ReadVariableOp", "shape": [256, 512], "dtype": "float32"}, {"name": "StatefulPartitionedCall/crnn/sequential/bidirectional_1/backward_lstm_1/strided_slice/stack", "shape": [1], "dtype": "int32"}, {"name": "StatefulPartitionedCall/crnn/sequential/bidirectional_1/backward_lstm_1/strided_slice/stack_1", "shape": [1], "dtype": "int32"}, {"name": "StatefulPartitionedCall/crnn/sequential/bidirectional_1/backward_lstm_1/strided_slice/stack_2", "shape": [1], "dtype": "int32"}, {"name": "StatefulPartitionedCall/crnn/sequential/bidirectional_1/backward_lstm_1/zeros/packed/1", "shape": [], "dtype": "int32"}, {"name": "StatefulPartitionedCall/crnn/sequential/bidirectional_1/backward_lstm_1/zeros/Const", "shape": [], "dtype": "float32"}, {"name": "StatefulPartitionedCall/crnn/sequential/bidirectional_1/backward_lstm_1/Read_1/ReadVariableOp", "shape": [128, 512], "dtype": "float32"}, {"name": "StatefulPartitionedCall/crnn/sequential/bidirectional_1/backward_lstm_1/Read_2/ReadVariableOp", "shape": [512], "dtype": "float32"}, {"name": "StatefulPartitionedCall/crnn/sequential/bidirectional_1/backward_lstm_1/PartitionedCall/time", "shape": [], "dtype": "int32"}, {"name": "StatefulPartitionedCall/crnn/sequential/bidirectional/forward_lstm/PartitionedCall/TensorArrayV2_1/element_shape", "shape": [2], "dtype": "int32"}, {"name": "StatefulPartitionedCall/crnn/sequential/bidirectional/forward_lstm/zeros_1/packed/1", "shape": [], "dtype": "int32"}, {"name": "StatefulPartitionedCall/crnn/sequential/bidirectional/forward_lstm/zeros_1/Const", "shape": [], "dtype": "float32"}, {"name": "StatefulPartitionedCall/crnn/sequential/bidirectional/forward_lstm/PartitionedCall/TensorArrayUnstack/TensorListFromTensor/element_shape", "shape": [2], "dtype": "int32"}, {"name": "StatefulPartitionedCall/crnn/sequential/bidirectional/forward_lstm/Read/ReadVariableOp", "shape": [512, 512], "dtype": "float32"}, {"name": "StatefulPartitionedCall/crnn/sequential/bidirectional/forward_lstm/strided_slice/stack", "shape": [1], "dtype": "int32"}, {"name": "StatefulPartitionedCall/crnn/sequential/bidirectional/forward_lstm/strided_slice/stack_1", "shape": [1], "dtype": "int32"}, {"name": "StatefulPartitionedCall/crnn/sequential/bidirectional/forward_lstm/strided_slice/stack_2", "shape": [1], "dtype": "int32"}, {"name": "StatefulPartitionedCall/crnn/sequential/bidirectional/forward_lstm/zeros/packed/1", "shape": [], "dtype": "int32"}, {"name": "StatefulPartitionedCall/crnn/sequential/bidirectional/forward_lstm/zeros/Const", "shape": [], "dtype": "float32"}, {"name": "StatefulPartitionedCall/crnn/sequential/bidirectional/forward_lstm/Read_1/ReadVariableOp", "shape": [128, 512], "dtype": "float32"}, {"name": "StatefulPartitionedCall/crnn/sequential/bidirectional/forward_lstm/Read_2/ReadVariableOp", "shape": [512], "dtype": "float32"}, {"name": "StatefulPartitionedCall/crnn/sequential/bidirectional/forward_lstm/PartitionedCall/time", "shape": [], "dtype": "int32"}, {"name": "StatefulPartitionedCall/crnn/sequential/bidirectional/forward_lstm/PartitionedCall/transpose/perm", "shape": [3], "dtype": "int32"}, {"name": "StatefulPartitionedCall/crnn/sequential/bidirectional/forward_lstm/PartitionedCall/strided_slice/stack", "shape": [1], "dtype": "int32"}, {"name": "StatefulPartitionedCall/crnn/sequential/bidirectional/forward_lstm/PartitionedCall/strided_slice/stack_1", "shape": [1], "dtype": "int32"}, {"name": "StatefulPartitionedCall/crnn/sequential/bidirectional/forward_lstm/PartitionedCall/strided_slice/stack_2", "shape": [1], "dtype": "int32"}, {"name": "StatefulPartitionedCall/crnn/sequential/bidirectional/forward_lstm/PartitionedCall/while/loop_counter", "shape": [], "dtype": "int32"}, {"name": "StatefulPartitionedCall/crnn/sequential/bidirectional/forward_lstm/PartitionedCall/TensorArrayV2Stack/TensorListStack/element_shape", "shape": [2], "dtype": "int32"}, {"name": "StatefulPartitionedCall/crnn/sequential/bidirectional/forward_lstm/PartitionedCall/transpose_1/perm", "shape": [3], "dtype": "int32"}, {"name": "StatefulPartitionedCall/crnn/sequential/bidirectional/backward_lstm/PartitionedCall/TensorArrayV2_1/element_shape", "shape": [2], "dtype": "int32"}, {"name": "StatefulPartitionedCall/crnn/sequential/bidirectional/backward_lstm/zeros_1/packed/1", "shape": [], "dtype": "int32"}, {"name": "StatefulPartitionedCall/crnn/sequential/bidirectional/backward_lstm/zeros_1/Const", "shape": [], "dtype": "float32"}, {"name": "StatefulPartitionedCall/crnn/sequential/bidirectional/backward_lstm/PartitionedCall/ReverseV2/axis", "shape": [1], "dtype": "int32"}, {"name": "StatefulPartitionedCall/crnn/sequential/bidirectional/backward_lstm/PartitionedCall/TensorArrayUnstack/TensorListFromTensor/element_shape", "shape": [2], "dtype": "int32"}, {"name": "StatefulPartitionedCall/crnn/sequential/bidirectional/backward_lstm/Read/ReadVariableOp", "shape": [512, 512], "dtype": "float32"}, {"name": "StatefulPartitionedCall/crnn/sequential/bidirectional/backward_lstm/strided_slice/stack", "shape": [1], "dtype": "int32"}, {"name": "StatefulPartitionedCall/crnn/sequential/bidirectional/backward_lstm/strided_slice/stack_1", "shape": [1], "dtype": "int32"}, {"name": "StatefulPartitionedCall/crnn/sequential/bidirectional/backward_lstm/strided_slice/stack_2", "shape": [1], "dtype": "int32"}, {"name": "StatefulPartitionedCall/crnn/sequential/bidirectional/backward_lstm/zeros/packed/1", "shape": [], "dtype": "int32"}, {"name": "StatefulPartitionedCall/crnn/sequential/bidirectional/backward_lstm/zeros/Const", "shape": [], "dtype": "float32"}, {"name": "StatefulPartitionedCall/crnn/sequential/bidirectional/backward_lstm/Read_1/ReadVariableOp", "shape": [128, 512], "dtype": "float32"}, {"name": "StatefulPartitionedCall/crnn/sequential/bidirectional/backward_lstm/Read_2/ReadVariableOp", "shape": [512], "dtype": "float32"}, {"name": "StatefulPartitionedCall/crnn/sequential/bidirectional/backward_lstm/PartitionedCall/time", "shape": [], "dtype": "int32"}, {"name": "StatefulPartitionedCall/crnn/transpose/perm", "shape": [4], "dtype": "int32"}, {"name": "StatefulPartitionedCall/crnn/Reshape/shape", "shape": [3], "dtype": "int32"}, {"name": "StatefulPartitionedCall/crnn/sequential/bidirectional/backward_lstm/PartitionedCall/transpose/perm", "shape": [3], "dtype": "int32"}, {"name": "StatefulPartitionedCall/crnn/sequential/bidirectional/backward_lstm/PartitionedCall/strided_slice/stack", "shape": [1], "dtype": "int32"}, {"name": "StatefulPartitionedCall/crnn/sequential/bidirectional/backward_lstm/PartitionedCall/strided_slice/stack_1", "shape": [1], "dtype": "int32"}, {"name": "StatefulPartitionedCall/crnn/sequential/bidirectional/backward_lstm/PartitionedCall/strided_slice/stack_2", "shape": [1], "dtype": "int32"}, {"name": "StatefulPartitionedCall/crnn/sequential/bidirectional/backward_lstm/PartitionedCall/while/loop_counter", "shape": [], "dtype": "int32"}, {"name": "StatefulPartitionedCall/crnn/sequential/bidirectional/backward_lstm/PartitionedCall/TensorArrayV2Stack/TensorListStack/element_shape", "shape": [2], "dtype": "int32"}, {"name": "StatefulPartitionedCall/crnn/sequential/bidirectional/backward_lstm/PartitionedCall/transpose_1/perm", "shape": [3], "dtype": "int32"}, {"name": "StatefulPartitionedCall/crnn/sequential/bidirectional/ReverseV2/axis", "shape": [1], "dtype": "int32"}, {"name": "StatefulPartitionedCall/crnn/sequential/bidirectional/concat/axis", "shape": [], "dtype": "int32"}, {"name": "StatefulPartitionedCall/crnn/sequential/bidirectional_1/backward_lstm_1/PartitionedCall/transpose/perm", "shape": [3], "dtype": "int32"}, {"name": "StatefulPartitionedCall/crnn/sequential/bidirectional_1/backward_lstm_1/PartitionedCall/strided_slice/stack", "shape": [1], "dtype": "int32"}, {"name": "StatefulPartitionedCall/crnn/sequential/bidirectional_1/backward_lstm_1/PartitionedCall/strided_slice/stack_1", "shape": [1], "dtype": "int32"}, {"name": "StatefulPartitionedCall/crnn/sequential/bidirectional_1/backward_lstm_1/PartitionedCall/strided_slice/stack_2", "shape": [1], "dtype": "int32"}, {"name": "StatefulPartitionedCall/crnn/sequential/bidirectional_1/backward_lstm_1/PartitionedCall/while/loop_counter", "shape": [], "dtype": "int32"}, {"name": "StatefulPartitionedCall/crnn/sequential/bidirectional_1/backward_lstm_1/PartitionedCall/TensorArrayV2Stack/TensorListStack/element_shape", "shape": [2], "dtype": "int32"}, {"name": "StatefulPartitionedCall/crnn/sequential/bidirectional_1/backward_lstm_1/PartitionedCall/transpose_1/perm", "shape": [3], "dtype": "int32"}, {"name": "StatefulPartitionedCall/crnn/sequential/bidirectional_1/ReverseV2/axis", "shape": [1], "dtype": "int32"}, {"name": "StatefulPartitionedCall/crnn/sequential/bidirectional_1/concat/axis", "shape": [], "dtype": "int32"}, {"name": "StatefulPartitionedCall/crnn/sequential/dense/Tensordot/free", "shape": [2], "dtype": "int32"}, {"name": "StatefulPartitionedCall/crnn/sequential/dense/Tensordot/GatherV2/axis", "shape": [], "dtype": "int32"}, {"name": "StatefulPartitionedCall/crnn/sequential/dense/Tensordot/Const_2", "shape": [1], "dtype": "int32"}, {"name": "StatefulPartitionedCall/crnn/sequential/dense/Tensordot/concat_1/axis", "shape": [], "dtype": "int32"}, {"name": "StatefulPartitionedCall/crnn/sequential/dense/BiasAdd/ReadVariableOp", "shape": [124], "dtype": "float32"}, {"name": "StatefulPartitionedCall/crnn/vgg/conv2d/Conv2D_weights", "shape": [3, 3, 3, 64], "dtype": "float32"}, {"name": "StatefulPartitionedCall/crnn/vgg/conv2d/Conv2D_bn_offset", "shape": [64], "dtype": "float32"}, {"name": "StatefulPartitionedCall/crnn/vgg/conv2d_1/Conv2D_weights", "shape": [3, 3, 64, 64], "dtype": "float32"}, {"name": "StatefulPartitionedCall/crnn/vgg/conv2d_1/Conv2D_bn_offset", "shape": [64], "dtype": "float32"}, {"name": "StatefulPartitionedCall/crnn/vgg/conv2d_2/Conv2D_weights", "shape": [3, 3, 64, 128], "dtype": "float32"}, {"name": "StatefulPartitionedCall/crnn/vgg/conv2d_2/Conv2D_bn_offset", "shape": [128], "dtype": "float32"}, {"name": "StatefulPartitionedCall/crnn/vgg/conv2d_3/Conv2D_weights", "shape": [3, 3, 128, 128], "dtype": "float32"}, {"name": "StatefulPartitionedCall/crnn/vgg/conv2d_3/Conv2D_bn_offset", "shape": [128], "dtype": "float32"}, {"name": "StatefulPartitionedCall/crnn/vgg/conv2d_4/Conv2D_weights", "shape": [3, 3, 128, 256], "dtype": "float32"}, {"name": "StatefulPartitionedCall/crnn/vgg/conv2d_4/Conv2D_bn_offset", "shape": [256], "dtype": "float32"}, {"name": "StatefulPartitionedCall/crnn/vgg/conv2d_5/Conv2D_weights", "shape": [3, 3, 256, 256], "dtype": "float32"}, {"name": "StatefulPartitionedCall/crnn/vgg/conv2d_5/Conv2D_bn_offset", "shape": [256], "dtype": "float32"}, {"name": "StatefulPartitionedCall/crnn/vgg/conv2d_6/Conv2D_weights", "shape": [3, 3, 256, 256], "dtype": "float32"}, {"name": "StatefulPartitionedCall/crnn/vgg/conv2d_6/Conv2D_bn_offset", "shape": [256], "dtype": "float32"}, {"name": "StatefulPartitionedCall/crnn/vgg/conv2d_7/Conv2D_weights", "shape": [3, 3, 256, 512], "dtype": "float32"}, {"name": "StatefulPartitionedCall/crnn/vgg/conv2d_7/Conv2D_bn_offset", "shape": [512], "dtype": "float32"}, {"name": "StatefulPartitionedCall/crnn/vgg/conv2d_8/Conv2D_weights", "shape": [3, 3, 512, 512], "dtype": "float32"}, {"name": "StatefulPartitionedCall/crnn/vgg/conv2d_8/Conv2D_bn_offset", "shape": [512], "dtype": "float32"}, {"name": "StatefulPartitionedCall/crnn/vgg/conv2d_9/Conv2D_weights", "shape": [3, 3, 512, 512], "dtype": "float32"}, {"name": "StatefulPartitionedCall/crnn/vgg/conv2d_9/Conv2D_bn_offset", "shape": [512], "dtype": "float32"}, {"name": "StatefulPartitionedCall/crnn/vgg/conv2d_10/Conv2D_weights", "shape": [3, 3, 512, 512], "dtype": "float32"}, {"name": "StatefulPartitionedCall/crnn/vgg/conv2d_10/Conv2D_bn_offset", "shape": [512], "dtype": "float32"}, {"name": "StatefulPartitionedCall/crnn/vgg/conv2d_11/Conv2D_weights", "shape": [3, 3, 512, 512], "dtype": "float32"}, {"name": "StatefulPartitionedCall/crnn/vgg/conv2d_11/Conv2D_bn_offset", "shape": [512], "dtype": "float32"}, {"name": "StatefulPartitionedCall/crnn/vgg/conv2d_12/Conv2D_weights", "shape": [3, 3, 512, 512], "dtype": "float32"}, {"name": "StatefulPartitionedCall/crnn/vgg/conv2d_12/Conv2D_bn_offset", "shape": [512], "dtype": "float32"}, {"name": "StatefulPartitionedCall/crnn/sequential/bidirectional/forward_lstm/PartitionedCall/while/body/_127/while/split/split_dim", "shape": [], "dtype": "int32"}, {"name": "StatefulPartitionedCall/crnn/sequential/bidirectional/forward_lstm/PartitionedCall/while/body/_127/while/TensorArrayV2Read/TensorListGetItem/element_shape", "shape": [2], "dtype": "int32"}, {"name": "StatefulPartitionedCall/crnn/sequential/bidirectional/forward_lstm/PartitionedCall/while/body/_127/while/add_2/y", "shape": [], "dtype": "int32"}, {"name": "StatefulPartitionedCall/crnn/sequential/bidirectional/forward_lstm/PartitionedCall/while/body/_127/while/add_3/y", "shape": [], "dtype": "int32"}, {"name": "StatefulPartitionedCall/crnn/sequential/bidirectional/backward_lstm/PartitionedCall/while/body/_187/while/split/split_dim", "shape": [], "dtype": "int32"}, {"name": "StatefulPartitionedCall/crnn/sequential/bidirectional/backward_lstm/PartitionedCall/while/body/_187/while/TensorArrayV2Read/TensorListGetItem/element_shape", "shape": [2], "dtype": "int32"}, {"name": "StatefulPartitionedCall/crnn/sequential/bidirectional/backward_lstm/PartitionedCall/while/body/_187/while/add_2/y", "shape": [], "dtype": "int32"}, {"name": "StatefulPartitionedCall/crnn/sequential/bidirectional/backward_lstm/PartitionedCall/while/body/_187/while/add_3/y", "shape": [], "dtype": "int32"}, {"name": "StatefulPartitionedCall/crnn/sequential/bidirectional_1/forward_lstm_1/PartitionedCall/while/body/_247/while/split/split_dim", "shape": [], "dtype": "int32"}, {"name": "StatefulPartitionedCall/crnn/sequential/bidirectional_1/forward_lstm_1/PartitionedCall/while/body/_247/while/TensorArrayV2Read/TensorListGetItem/element_shape", "shape": [2], "dtype": "int32"}, {"name": "StatefulPartitionedCall/crnn/sequential/bidirectional_1/forward_lstm_1/PartitionedCall/while/body/_247/while/add_2/y", "shape": [], "dtype": "int32"}, {"name": "StatefulPartitionedCall/crnn/sequential/bidirectional_1/forward_lstm_1/PartitionedCall/while/body/_247/while/add_3/y", "shape": [], "dtype": "int32"}, {"name": "StatefulPartitionedCall/crnn/sequential/bidirectional_1/backward_lstm_1/PartitionedCall/while/body/_307/while/split/split_dim", "shape": [], "dtype": "int32"}, {"name": "StatefulPartitionedCall/crnn/sequential/bidirectional_1/backward_lstm_1/PartitionedCall/while/body/_307/while/TensorArrayV2Read/TensorListGetItem/element_shape", "shape": [2], "dtype": "int32"}, {"name": "StatefulPartitionedCall/crnn/sequential/bidirectional_1/backward_lstm_1/PartitionedCall/while/body/_307/while/add_2/y", "shape": [], "dtype": "int32"}, {"name": "StatefulPartitionedCall/crnn/sequential/bidirectional_1/backward_lstm_1/PartitionedCall/while/body/_307/while/add_3/y", "shape": [], "dtype": "int32"}]}]}